NQE/results/CNN_NQEClassifier/kmnist/1exp/model.pt (torch, 10171 bytes, 6 tensors)

nn_layer.0.weight f4 [1, 1, 3, 3]
00000000: e593 5a3e c001 a73e e6a3 b93e 73e7 9b3e
00000010: dc86 b13e 5c87 ab3c 77c6 203e 47e7 e4bd
00000020: aeb7 9e3e
0.2134548 0.32618523 0.36257857 0.3045002 0.34673202 0.020938568 0.15700708 -0.11176925
0.3099951

nn_layer.3.weight f4 [1, 1, 3, 3]
00000000: 0ea6 abbd 64cd 363e a9a0 043f 8d52 133e
00000010: 1b5c 00be 1a3f b3bd 08a4 a3bc 4ec6 483e
00000020: 336f 943d
-0.08381282 0.17851788 0.5180765 0.1438696 -0.12535135 -0.0875227 -0.019975677 0.19606897
0.07247772

nn_layer.7.weight f4 [32, 49]
00000000: a85a 493c d998 293e c54b f83d e34b 0d3e
00000010: 4e5d caba 9ab2 1dbd fbbe 94bd 94c6 0b3e
00000020: 4198 d03d b545 dd3d 7d5f 673d 36a6 acbd
00000030: 6ae8 a03d 5f02 14be b3ba 92bd adee aebc
00000040: ad31 f2bc 5817 e93c ba26 113e b018 5b3d
00000050: eb77 09bd 49d3 30bd f741 113d feff 30bd
00000060: ed04 15bd 4f97 313d 3bcc e2bd 0bd0 31be
00000070: bba6 a83c ec2c 0dbe 49b3 48bb d981 b3bc
00000080: 916f 603d 5e95 2cbe ef80 55bd aeb2 e5bd
00000090: 9419 403c d105 33bd 17ef 953c 49b9 033e
000000a0: a741 bd3d 02d6 3fbd b1e4 143c d1af 043e
000000b0: aed8 e83d 7dab 743d 4d36 99bd 0b84 80bd
000000c0: bc62 18bc 495a 583d 6ff5 9ebd 13e8 de3d
000000d0: 801a 7d3c d557 d33d 19ad cbbd 37ec 3ebd
000000e0: f3be 88bd e939 733d 834f 06be ecbf 303d
000000f0: 2cab 21bd c0e3 16bd e662 dabd 184f 1a3d
00000100: 849f 9f3d b4dc 053d 4bcd e0bd 3558 68bd
00000110: 3639 1bbd b7e2 4bbd 7e40 023c a5a4 bbbd
00000120: ab61 143d b84c cb3d 58b1 ecbd 1bf1 fcbc
00000130: 86f1 e5bd 28fa fb3d 9c0c 3a3d 3070 be3d
00000140: 8312 3ebd ee4f 2b3d 6bb4 263e fb04 d83d
00000150: 3ca2 9d3d dc2b 46bc ca3d 83ba b028 20bd
00000160: 2b29 d5bd 0996 0e3e c39f c5bd 65f9 febd
00000170: 9951 0fbe ef99 063d 81a4 84bd 1476 1abe
00000180: 8fdf e33d 8b5c 8ebd 0ef2 b63d 8d4f 5a3d
00000190: c991 383d b866 a43d 5fc5 673d 7d96 183d
000001a0: 6a77 dd3d 77d1 40b9 72fc e8bd fbf6 d5bc
000001b0: e6b6 bfbd a71a a73d b595 073d 2744 a9bd
000001c0: 8dee bebc 0815 cd3d d43b 02be 04c3 903d
000001d0: 320e c8bd 2c18 623c 0e00 2f3e f651 f4bd
000001e0: 52c2 c83c e59f 4e3d 702a 9cbd 7953 63bb
000001f0: 4909 773d 5ac6 203e 565c 79bc 0547 593d
00000200: 1647 943d 44fc cebd 3823 e93d f50b 0ebd
00000210: b982 073c 8163 ca3c df94 fbbc 864f 80bd
00000220: a4aa cdbb d09e 423d 7cdf 08be 72be a83c
00000230: 66b0 693c c1c4 a1bd 6829 223e f08f 9e3c
00000240: 942f fb3d fcaf da3b 0422 8f3a 9879 993d
00000250: 7a10 d8bd 46ee 433d 4585 933d c1ac 23bc
00000260: cfaf 8f3b c6fb d9bd 7eed b337 87ee 60bd
00000270: 9918 aabd 17f9 e8bd 31bd d13d a75b 5fbd
00000280: f285 043d 4296 c7bd f8f6 09bd 29f8 78bc
00000290: b2ae 9f3d b324 c43d f2ae ec3c f754 34bc
000002a0: 93ec ac3d 130c 87bd 828e 613d 6344 01bd
000002b0: e179 0f3d bf99 063e 43d9 483c 2863 c5bc
000002c0: 9a68 823d 8a84 78bd 5903 763d c0ce a83d
000002d0: bbaa fcbd b11b 28bb 98df 82bd 309f b9bd
000002e0: f0e6 843d 61a9 e7bd aaac afbd 1423 02be
000002f0: f8c9 89bc e324 8b3c 79bb c23d f080 5abd
00000300: 14d9 b2bd ee9b cfbd fb3d c7bb 1417 b33d
00000310: 2be6 9abd 4add 133e 0ec3 48bd 3a3a b2bd
00000320: 75c5 b4bd c407 abbd 9b7e 8c3c 06f4 973c
00000330: 1de5 8ebd 2edb 903d 09fd 87bd 0f8a cbbd
00000340: 0fa6 fa3d 18f8 8ebd b65b 933c 69e0 853d
00000350: 536e b6bd f195 0f3d 1d7f 35bd f17a e6bd
00000360: ade3 83bd b1a7 0fbd aeaf a93d 780c 8d3d
00000370: 0dca ac3d 6afb e13d ec06 c03d e0bf 8c3c
00000380: 776c 143e b94b 143c a375 873c 5190 d53d
00000390: fa4c 123e 20ae 963d 731a bebb 124d fdbd
000003a0: 0305 1bbd 78e7 4ebd 0565 01be 7777 533b
000003b0: 8010 71bd 82ef 413d 6ea5 913c 93d3 83bd
000003c0: ea2d 093e 4670 8f3d 90e4 9cbd f3e7 07bd
000003d0: d97f 103e 1d9d 28bd 4b14 623d 2464 d03d
000003e0: 848d 953b c62f 0e3d 1965 87bd 5b2c a23c
000003f0: 9bd4 5d3d c849 1bbd ad48 cfbd f93f 3fbc
0.012289681 0.16562213 0.12123827 0.1379848 -0.0015439184 -0.038500406 -0.07262989 0.1364997
0.1018529 0.10804311 0.05648755 -0.0843014 0.078568295 -0.1445403 -0.07164516 -0.021354044
-0.029564703 0.028453514 0.1417493 0.05349034 -0.03356163 -0.043170247 0.0354633 -0.043212883
-0.03638165 0.04335719 -0.1107411 -0.17364518 0.020587316 -0.13786668 -0.003062444 -0.021912502
0.054793898 -0.16853854 -0.052124914 -0.11215721 0.011724848 -0.04370672 0.018302483 0.1286365
0.09241038 -0.046834953 0.009087727 0.12957694 0.11369453 0.059733856 -0.0748106 -0.06275185
-0.009300884 0.052820478 -0.077616565 0.108841084 0.015448213 0.10319487 -0.09945125 -0.04661199
-0.06677046 0.0593814 -0.13116269 0.04315178 -0.039469883 -0.036838293 -0.10663395 0.037673086
0.07794097 0.032681182 -0.109766565 -0.056724746 -0.037896357 -0.04977676 0.007949946 -0.09162263
0.036225956 0.09926742 -0.11557263 -0.030876687 -0.112277076 0.12303573 0.04542218 0.09298742
-0.046404373 0.041824274 0.16279761 0.10547825 0.076969594 -0.012095418 -0.0010012921 -0.039101303
-0.10408243 0.13924421 -0.09649613 -0.12449912 -0.13995971 0.032861646 -0.06476689 -0.15084106
0.11126625 -0.06951245 0.08932887 0.05329852 0.045060907 0.080274045 0.056584712 0.03725289
0.10813792 -0.00018388579 -0.11376275 -0.026118746 -0.09361057 0.081593804 0.033101756 -0.08264952
-0.02330711 0.10013777 -0.12718135 0.07068446 -0.097683325 0.013799708 0.17089865 -0.11929695
0.024506722 0.050445456 -0.07625282 -0.0034687205 0.06031159 0.15700665 -0.0152197685 0.053046245
0.07240121 -0.101067096 0.113836706 -0.034679372 0.008270913 0.02470565 -0.030710636 -0.06265168
-0.0062764455 0.047514737 -0.13366503 0.020598624 0.014263248 -0.07898856 0.15836108 0.019355744
0.12264934 0.006673811 0.0010920172 0.07493895 -0.10550018 0.047834657 0.072031535 -0.009989918
0.0043849717 -0.10643725 2.1449054e-05 -0.054914977 -0.08305473 -0.11375635 0.102411635 -0.054530766
0.032354303 -0.09745456 -0.033682793 -0.015195885 0.07796992 0.09577312 0.028892014 -0.011006585
0.084435605 -0.065941 0.055067547 -0.03155936 0.035028342 0.13144587 0.0122588305 -0.024095133
0.063676074 -0.060673274 0.060061786 0.082425594 -0.12337252 -0.002565127 -0.063903034 -0.09063566
0.0648936 -0.11311603 -0.08577855 -0.12708694 -0.016819939 0.016985362 0.09508414 -0.05334562
-0.087328106 -0.10137163 -0.0060803867 0.08744636 -0.07563432 0.14439884 -0.049014144 -0.08702512
-0.088267244 -0.083510906 0.017150214 0.018548977 -0.06977294 0.07073055 -0.066400595 -0.09938442
0.122387044 -0.06980914 0.017988067 0.065369435 -0.089077614 0.035055105 -0.044310678 -0.11253918
-0.0643991 -0.035072032 0.08285461 0.06887144 0.08436976 0.110342816 0.0937632 0.017181337
0.14494501 0.009051257 0.016535586 0.10427917 0.14287177 0.073574305 -0.005801493 -0.123682156
-0.037846576 -0.050513715 -0.12636192 0.0032267252 -0.058853626 0.047347553 0.017779078 -0.06436839
0.13396421 0.07003836 -0.07660782 -0.03318019 0.1411127 -0.04116546 0.055195134 0.1017535
0.004563989 0.03471353 -0.0661108 0.019796541 0.054157835 -0.03791216 -0.10121284 -0.011672967

nn_layer.7.bias f4 [32]
00000000: dc49 bebc 21fe e23d 47d4 fdbd 3908 87bc
00000010: fb9a 013e 6d1e e3bd a6aa 0dbc 84ef 0c3e
00000020: 79ae 08be 7511 96bd 7f9a c1bb a953 11be
00000030: b68b 1d3c 177f b43d 853b 06be b25d c33d
00000040: 9d12 86bd 4678 bfbd 7197 81bd 58e8 07be
00000050: 9d73 debd 898a a0bd 55fb 113c 58e3 f33d
00000060: d8c3 41bd 6ec5 853d d3e0 fd3d 3216 dfbd
00000070: 67be 2e3d ef1e 753d 65c4 fa3c d55e 043e
-0.023228578 0.110836275 -0.12394004 -0.016483413 0.12656777 -0.11089788 -0.008646643 0.13763243
-0.13347806 -0.073275484 -0.00590831 -0.1419207 0.009615829 0.08813303 -0.13108642 0.09539355
-0.06546519 -0.09349112 -0.06327713 -0.13272226 -0.10861895 -0.078389235 0.00891002 0.11908597
-0.04730591 0.06531797 0.123963974 -0.10892905 0.04266205 0.059843954 0.030611226 0.129268

nn_layer.8.weight f4 [8, 32]
00000000: 9fb7 1fbe 0b37 e93d 8c48 243e a842 4cbc
00000010: 461f c23d c198 023b 7d92 f9bb 2a11 4ebc
00000020: e713 89bd 88fc 54bd 12a2 f1bd effa 10be
00000030: c897 ec3d 6475 ae3c f580 0cbe e284 0cbe
00000040: ab3f 143e 2fff edbd 2a0c 31be 5757 b63d
00000050: 7e48 96bd 3318 2c3e 69de 7cbc 4155 8d3d
00000060: bee5 2e3e 20eb 4d3e 3213 a8bd 6d9a 9eba
00000070: 23bf 2c3d e6af 62bc 4b6b 2a3e e8f5 e9ba
00000080: 6a8a 793d 6820 b1bd 3a8d 263d 2e81 64bb
00000090: ae1e 90bd c1ee a2bd 5282 8e3d 0122 4abe
000000a0: 6e8c f63d 1195 203e c79b 6cbd 1ad9 83bd
000000b0: f77c 18be 118c c5bd 7c94 50bd c374 da3d
000000c0: ff5d dd3d a42f 85bd 8f22 31be 3341 45bd
000000d0: b151 a3bd 2155 0b3d baae c63d 8a05 033e
000000e0: bf53 1e3e 4203 003d e4fd c83b 94a2 e43c
000000f0: 6971 02be ce7a 003e bbc4 99bd 1d2b 293d
00000100: 5fe3 243e 5465 223e 56b5 01bb 5ada eebc
00000110: f76b 9dbd 77a5 b43d 19fa efbc 59b3 0abe
00000120: 2f8e 05bd 8338 d03c 174c 49be 5fc1 3ebd
00000130: 9af8 97bd b2cc c0bd 3e2d efbd 40a8 103e
00000140: 1fb6 1cbe bc4b 143e 0549 393e 27ea 02be
00000150: dacb 0fbe 5aec f6bd 934a 80bd 7dab 8b3d
00000160: acec f4bd c4ae 9b3d 3d9c 5fbd 82ed f13b
00000170: c5a3 483d 4c1a c0bb 3304 0e3e 29e9 9bbd
00000180: dd3c d4bd a362 3f3d 987e 0d3c d706 b1bc
00000190: 0357 37bd c319 c73d c8e2 203c 5b8d 2b3e
000001a0: e2cc 57bd 19ea a1bd 9c61 c73d 8478 1c3c
000001b0: a84e b73b d0e1 453e 51aa 883d f56d 313c
000001c0: 0da3 ae3c 384f 76bc 13be d9bd 52d7 173d
000001d0: 82a2 ffbc d3ab 163d 5317 b9bd 8b20 23be
000001e0: 2da0 01be 7dbc e3bd 7dd4 c9bd ec6b 693d
000001f0: 2e07 ebbd 2821 08be 6f32 3a3e c3e9 fc3d
00000200: e1e8 bfbd 7558 0e3e e189 293e 0a9a 36be
00000210: ce4f 2bbd 1ef0 c3bd bd86 183e 8495 ff3d
00000220: f804 7cbd 048f a53c cf66 afbd eb8b 173e
00000230: df8b 3a3e bc10 e9bd 2621 763d c962 12be
00000240: f246 453e da9f 65be 93f8 76be bfa1 e5bd
00000250: 5589 ee3d 284a 4b3c 5f35 3ebe bb19 56bd
00000260: e422 473e d059 0c3d 6db8 4fbe 158a 36be
00000270: 8bd6 043d beda 443e bb28 133e 2ba9 ed3c
00000280: d7b0 213e a0e3 8fbd e94e 503d 3a64 953d
00000290: 55b9 3fbd 8451 f4bd fb39 113d 4b84 d1bb
000002a0: 66a2 0cbd 63ae 863c 29fd ac3d daff 113e
000002b0: a5ce 1d3e 6e62 c5bb 96e7 f6bd 0895 6fbd
000002c0: 6cd0 373d 27fc 643d 1911 ebbd d538 a43c
000002d0: 2da5 b63c 82e0 5ebd 2d58 c8bb e838 4c3d
000002e0: c977 0a3e f85a 7ebd c6c9 be3b 0d3a 8dbd
000002f0: ff58 e83b 630e fe3d 92ff 94bc cd28 bebd
00000300: 1897 4ebe f4a1 65bd 7e4b f2bd 4e08 183c
00000310: 39f1 99bd 179c ff3d 6b36 693c a30a 2f3e
00000320: 27ac e73c 6936 1e3d a2c8 0b3e 1210 cabd
00000330: 8cf2 d0bd 4ffe 4f3d 149e 0fbe c337 38bd
00000340: 7156 493e a921 2a3d 39d4 2ebe 6195 ddbc
00000350: 57b2 d5bd 0f3a eb3d 9ece 3ebe 4f44 0ebe
00000360: 272d 3d3e 512b 8fbd f2ec 20be 72d5 99bd
00000370: 93be 33be bfbf 82bc 0d11 083e 06ca 63bd
00000380: c59a 0cbe f55d b7bd 3c06 24be 4062 123e
00000390: f7c4 f7bd 0644 163e 1ce7 1a3e 03e4 ccbd
000003a0: eec2 583b dfe7 7a3c b9af 35bd 70bd b83d
000003b0: 60b9 853d 7690 a2bd 4edb 583c 0a89 08be
000003c0: 7b7d 54bc 9740 04be 5d2f a83d e0cb 06be
000003d0: 8282 43bd 0bd0 94bd 6093 94bd f57f 0fbe
000003e0: d01e 163e 3ab5 2cbd 27bd c23c 8e0e 2d3e
000003f0: 8919 66bd fc4b 033e 2547 093d 81d7 f7bc
-0.1559739 0.11387452 0.160433 -0.012467064 0.09478621 0.0019927474 -0.0076163397 -0.012577334
-0.06693249 -0.051998645 -0.117984906 -0.14158224 0.115523875 0.02129621 -0.13721068 -0.13722566
0.14477412 -0.11620938 -0.17289796 0.089033775 -0.073380455 0.16806106 -0.015433886 0.069010265
0.17079827 0.20109224 -0.08206786 -0.0012100466 0.04217447 -0.013835883 0.16642492 -0.0017849775
0.060923018 -0.08648759 0.040662028 -0.0034867036 -0.07037102 -0.07955695 0.069584504 -0.19739534
0.120385036 0.15681864 -0.05776575 -0.06437893 -0.1489142 -0.09645856 -0.050922856 0.10666802
0.10808944 -0.06503227 -0.1729834 -0.048157882 -0.07974566 0.034016732 0.09701295 0.12795082
0.15461634 0.031253107 0.0061337817 0.027909555 -0.12738575 0.12546846 -0.075082265 0.04130088
0.1610236 0.15858966 -0.0019791923 -0.029156853 -0.07686608 0.088206224 -0.02929406 -0.13544978
-0.0326063 0.025417572 -0.19657932 -0.04657113 -0.07420464 -0.094140425 -0.11678551 0.14126682
-0.15303849 0.14482015 0.18094261 -0.12784635 -0.14042607 -0.12056799 -0.06264224 0.06819818
-0.11959204 0.07601693 -0.05459236 0.0073830495 0.048984308 -0.00586251 0.1386879 -0.07612831
-0.10363171 0.046724927 0.008636139 -0.021609707 -0.044760715 0.097217105 0.009819694 0.16753142
-0.052685626 -0.07905979 0.097354144 0.009550218 0.0055940934 0.19324422 0.0667311 0.010829438
0.021317983 -0.015033536 -0.10631957 0.03707058 -0.03120542 0.036784958 -0.09037652 -0.15930383
-0.12658758 -0.11119936 -0.09854982 0.056987688 -0.11475979 -0.13293898 0.18183301 0.12349274
-0.0937059 0.13900931 0.16556503 -0.17832199 -0.041824155 -0.09567283 0.14895149 0.1247969
-0.061528176 0.020209797 -0.08564531 0.14799468 0.18217419 -0.11380145 0.060090207 -0.14295496
0.19265345 -0.2242426 -0.24118261 -0.11212491 0.11647288 0.012407817 -0.18575047 -0.052270632
0.19446903 0.03426534 -0.20285197 -0.17826112 0.032431167 0.19224069 0.14371006 0.02901133
0.15790115 -0.07025838 0.050856505 0.07294507 -0.046807606 -0.1192961 0.035455685 -0.0063939444
-0.034334563 0.016440576 0.08446724 0.14257756 0.1541086 -0.0060236966 -0.1205589 -0.058491737
0.0448765 0.055904534 -0.114778705 0.02004663 0.022295559 -0.054413326 -0.006114027 0.049858958
0.13522257 -0.062098473 0.005822393 -0.06895838 0.0070906873 0.12405088 -0.018188272 -0.09285126
-0.20174825 -0.056062654 -0.11830805 0.009279324 -0.07516713 0.12480944 0.014234166 0.17093901
0.02828033 0.03862611 0.13650754 -0.098663464 -0.10202512 0.050779637 -0.14025146 -0.044975054
0.19661881 0.041536007 -0.17073144 -0.027048768 -0.10434406 0.11485683 -0.18633506 -0.13893245
0.18474256 -0.06990684 -0.15715387 -0.075114146 -0.17553167 -0.015960572 0.13287754 -0.055612586
-0.13730915 -0.08953468 -0.16018003 0.14295292 -0.12098115 0.14674386 0.15127224 -0.10004427
0.0033075172 0.015314071 -0.044357035 0.09020507 0.06529498 -0.0793771 0.01323588 -0.13333526
-0.01296937 -0.12915264 0.08212159 -0.1316371 -0.047731884 -0.072662435 -0.07254672 -0.14013655
0.14660192 -0.04216502 0.023771835 0.16900083 -0.056176696 0.12821954 0.033515114 -0.030254127

nn_layer.8.bias f4 [8]
00000000: 22e8 17be 3752 80bc 6f91 243e 9714 ce3c
00000010: 33c0 343e 0e89 88bc 238a 81bc 5998 163e
-0.14834645 -0.015664203 0.16071104 0.025156302 0.17651443 -0.016666915 -0.015812939 0.14706554
