NQE/results/PCA_NQEClassifier/mnist/1exp/model.pt (torch, 12463 bytes, 10 tensors)

nn_layer.0.weight f4 [16, 8]
-0.11032135 -0.17160259 -0.12982549 0.040519588 0.067009196 -0.28916833 -0.33760378 0.12553982
0.035111394 -0.35765713 0.21552104 -0.081961304 -0.30026352 -0.12167354 0.077074274 0.26679614
0.3231247 -0.15794092 -0.18237884 0.049504664 0.039583 -0.12835336 -0.167972 0.3575974
-0.11475345 0.13224638 0.1203246 -0.025135878 0.013376965 -0.30124965 -0.27924615 0.1610972
-0.094689354 0.061648846 -0.35293972 0.24076167 -0.19127016 -0.13685714 0.34003508 0.018793097
-0.038108803 0.3437354 -0.18697481 -0.2157488 -0.021021394 -0.33627304 0.14590275 0.03880593
0.465668 0.044666592 0.13034745 -0.19388667 0.0024112565 0.10103273 -0.29036254 0.34561792
0.21189345 -0.16791649 -0.16860062 0.12894708 -0.16431746 -0.3135121 0.17179772 0.21330445
-0.2854617 0.27835655 0.5547742 -0.32647505 -0.057196878 0.16881448 0.22197787 0.25590032
-0.32358253 -0.14968465 -0.22052966 0.28136948 -0.2920072 -0.03020374 0.13519217 0.2074952
0.34489828 0.28286988 -0.18308996 -0.08050248 0.22499579 -0.11986145 0.26628098 0.3221684
0.13796547 0.2876945 -0.0707675 0.32897222 0.14964688 -0.31329086 -0.3559578 -0.2557672
-0.22755368 0.056281425 -0.070344694 0.10746996 0.02344412 -0.1886896 0.12358 0.32634062
0.18263365 0.1464528 -0.055459343 -0.16579235 0.35680425 0.0856379 0.0052087475 -0.09480527
-0.24069263 -0.038509976 0.027645996 0.13205369 0.29166126 0.21434082 0.26725662 0.048278578
-0.33939165 0.03338795 0.35919255 -0.19223106 0.06976955 0.19735831 0.2655543 0.21961002
00000000: 29f0 e1bd 97b8 2fbe f9f0 04be def7 253d
00000010: 1e3c 893d df0d 94be 67da acbe 838d 003e
00000020: f7d0 0f3d d61e b7be 8cb1 5c3e 54db a7bd
00000030: 24bc 99be fa2f f9bd 1ed9 9d3d 8199 883e
00000040: 9a70 a53e 44bb 21be 85c1 3abe 67c5 4a3d
00000050: c921 223d 106f 03be da00 2cbe 0217 b73e
00000060: db03 ebbd 986b 073e be6c f63d c2e9 cdbc
00000070: 0f2b 5b3c 653d 9abe 5af9 8ebe aaf6 243e
00000080: 7eec c1bd 8083 7c3d 84b4 b4be 3a8a 763e
00000090: 53dc 43be 4724 0cbe 1419 ae3e fbf3 993c
000000a0: fa17 1cbd 16fe af3e 5376 3fbe 41ed 5cbe
000000b0: 0f35 acbc fb2b acbe 8867 153e f8f2 1e3d
000000c0: 096c ee3e 51f4 363d cd79 053e 3a8a 46be
000000d0: 2c06 1e3b 3fea ce3d 66aa 94be d5f4 b03e
000000e0: 99fa 583e 4df2 2bbe a4a5 2cbe b40a 043e
000000f0: d642 28be a884 a0be beeb 2f3e 7b6c 5a3e
00000100: 0928 92be c084 8e3e af05 0e3f bd27 a7be
00000110: 4647 6abd b4dd 2c3e 2b4e 633e 5e05 833e
00000120: 9cac a5be ef46 19be 87d2 61be a90f 903e
00000130: f881 95be d56d f7bc d16f 0a3e 9f79 543e
00000140: 8296 b03e 52d4 903e ef7b 3bbe 7cde a4bd
00000150: 4c65 663e eb79 f5bd fb55 883e 42f3 a43e
00000160: d246 0d3e b24c 933e 8dee 90bd 0c6f a83e
00000170: 083d 193e a967 a0be 1a40 b6be ebf3 82be
00000180: d503 69be 5a87 663d e110 90bd 3619 dc3d
00000190: e20d c03c d937 41be 8317 fd3d 1e16 a73e
000001a0: 5104 3b3e b9f7 153e 5629 63bd 78c5 29be
000001b0: 0caf b63e ec62 af3d 24ae aa3b 4429 c2bd
000001c0: 2178 76be a3bc 1dbd db79 e23c 1539 073e
000001d0: a054 953e 297c 5b3e dcd5 883e c2bf 453d
000001e0: bec4 adbe cec1 083d 16e8 b73e 38d8 44be
000001f0: 56e3 8e3d 4c18 4a3e bcf6 873e 73e1 603e

nn_layer.0.bias f4 [16]
0.19277826 0.014093624 -0.19651382 -0.1780949 0.07603752 0.14194617 0.015331124 0.24546094
0.05340915 -0.16966 0.2946336 -0.28478697 0.08878707 0.07233205 0.2371804 -0.3023914
00000000: aa67 453e f2e8 663c eb3a 49be 825e 36be
00000010: 8fb9 9b3d 565a 113e 652f 7b3c 1d5a 7b3e
00000020: 8ec3 5a3d 5abb 2dbe 37da 963e 99cf 91be
00000030: ffd5 b53d d322 943d 6bdf 723e 0cd3 9abe

nn_layer.2.weight f4 [32, 16]
0.13599832 -0.19731961 0.023853501 0.15193735 0.10231177 -0.18370461 0.023135418 -0.0028528622
0.1263771 -0.23237221 0.028512951 -0.016576853 -0.058496412 -0.21169238 0.20354578 0.1362828
-0.21318203 -0.15264717 0.23477137 -0.10126161 -0.09680519 0.16826029 0.0823335 0.17790443
-0.093227446 0.13811755 0.17960486 0.08953928 -0.08626232 -0.105935216 0.26903594 -0.12106194
-0.050536733 -0.10433659 0.13144386 0.23257275 0.14878632 -0.23754677 -0.055036344 0.06494847
0.1519554 -0.1965897 -0.004033526 0.11675911 -0.25255746 -0.20980167 -0.10882621 0.11764074
-0.0042103473 0.047529563 -0.05880312 0.02988535 0.2208576 0.10262483 0.061539512 0.06899924
0.04991271 0.0685153 0.21427332 0.15105124 -0.08579713 0.23945671 -0.05614513 -0.119421355
0.2073421 0.061438356 -0.16356309 -0.24138187 -0.15647037 0.036062155 0.2122751 -0.12149361
-0.04649018 0.23364668 0.06622673 0.19417053 -0.18981776 0.21832825 0.14867258 0.20451257
-0.22395313 -0.06134465 -0.21707556 -0.089028575 0.016883403 0.1713558 0.039408665 -0.22082873
-0.024946341 0.036153227 0.14342095 0.14883924 0.2389968 0.2378212 -0.19034475 0.09336808
-0.011829168 0.14144042 -0.14280236 -0.06168875 -0.16938439 -0.1304844 -0.18083212 0.02359122
0.035088927 -0.15605867 -0.18700618 -0.13730562 0.05174637 -0.12820932 -0.029513389 -0.15627167
0.23910213 0.16673517 0.085012674 -0.07290757 0.03386706 -0.18164119 -0.21255404 -0.14591494
-0.23504612 0.011305302 -0.21006927 -0.2364167 -0.16249299 -0.0036715865 -0.049592674 -0.17420498
0.18120088 0.15365909 0.08809369 0.16352329 -0.21181008 0.049573466 -0.03618837 0.06687613
0.29231068 0.08365196 0.062957324 0.11228955 0.2403308 0.14806943 0.15972266 0.09411655
0.014129119 0.15834208 -0.0977517 0.18161754 0.1758714 0.0240714 -0.14961898 -0.22662133
0.2059953 0.24102256 -0.14736548 -0.16231857 -0.034821827 0.13086623 0.044899616 -0.001716171
-0.15198842 0.07418835 -0.1063965 0.03257808 -0.2136502 -0.23814669 -0.077757806 -0.1658209
-0.16825226 0.23974642 -0.070860595 0.039487302 0.123565435 -0.21762028 -0.0034467876 -0.23702544
0.07248443 -0.18651894 0.08171955 0.20015578 -0.19508204 -0.05470607 0.007223009 -0.120835856
-0.25011724 0.051716566 -0.060432646 -0.015072612 -0.12210177 0.23157357 -0.05281367 -0.2108258
-0.15345229 -0.17445746 0.13114612 -0.22877792 0.17458825 0.23504502 -0.25718543 0.20259975
-0.10113645 -0.23388124 -0.035494782 -0.15668824 0.03983803 0.056916095 0.038873926 0.16831473
-0.24668615 -0.21795703 -0.2314665 -0.22529268 0.24282028 0.0030464744 -0.1868198 0.15743992
0.14661615 -0.0105245905 -0.08771977 -0.24545346 -0.084053814 0.07670365 0.2236234 -0.21213004
-0.1833561 -0.051248197 0.060378682 -0.24787661 -0.21133457 -0.011938606 0.23039992 -0.08278097
-0.080563426 -0.067246616 -0.08590315 -0.085186675 -0.15571982 0.14111973 -0.16423965 -0.09995288
-0.2166773 0.1003915 0.22101007 -0.030509667 -0.04993312 -0.050368406 -0.08238151 0.004539419
0.22125882 0.13981503 -0.11214485 0.18151818 0.15018186 0.20189364 -0.05912394 0.036448352
00000000: 2543 0b3e 270e 4abe 6b68 c33c 7795 1b3e
00000010: d588 d13d 101d 3cbe 7d86 bd3c 16f7 3abb
00000020: 0069 013e fbf2 6dbe fe93 e93c 2ecc 87bc
00000030: ef99 6fbd e3c5 58be 4e6e 503e b88d 0b3e
00000040: 644c 5abe 8a4f 1cbe e867 703e 3f62 cfbd
00000050: cd41 c6bd 6d4c 2c3e 779e a83d 942c 363e
00000060: 08ee bebd b06e 0d3e 56ea 373e 5f60 b73d
00000070: 4daa b0bd 90f4 d8bd 14bf 893e 53ef f7bd
00000080: 9bff 4ebd 6cae d5bd 3899 063e 8d27 6e3e
00000090: 715b 183e 763f 73be ca6d 61bd b403 853d
000000a0: 329a 1b3e cf4e 49be ab2b 84bb 661f ef3d
000000b0: 364f 81be 40d6 56be 47e0 debd a1ed f03d
000000c0: f4f6 89bb 5cae 423d 8adb 70bd 1fd2 f43c
000000d0: 7f28 623e f82c d23d db10 7c3d 794f 8d3d
000000e0: 4571 4c3d c051 8c3d 776a 5b3e 2dad 1a3e
000000f0: 68b6 afbd 2434 753e 70f8 65bd 2f93 f4bd
00000100: 7d51 543e c9a6 7b3d 157d 27be cf2c 77be
00000110: c539 20be e9b5 133d a55e 593e a4d1 f8bd
00000120: 7d6c 3ebd 1341 6f3e e1a1 873d a4d4 463e
00000130: 965f 42be 7191 5f3e a03d 183e be6b 513e
00000140: f853 65be 8744 7bbd 0e49 5ebe 9d54 b6bd
00000150: 104f 8a3c e577 2f3e fb6a 213d ed20 62be
00000160: 455c ccbc 6815 143d f1dc 123e 5069 183e
00000170: 94bb 743e 6787 733e bce9 42be c437 bf3d
00000180: 20cf 41bc c2d5 103e c83a 12be 58ad 7cbd
00000190: 1a73 2dbe b49d 05be 0e2c 39be 6042 c13c
000001a0: 68b9 0f3d d8cd 1fbe 8c7e 3fbe d899 0cbe
000001b0: 00f4 533d 4e49 03be 10c6 f1bc ae05 20be
000001c0: 30d7 743e a0bc 2a3e 201b ae3d 9050 95bd
000001d0: 30b8 0a3d 2600 3abe c4a7 59be ba6a 15be
000001e0: eeaf 70be e039 393c 661c 57be 3817 72be
000001f0: 9064 26be 009f 70bb b021 4bbd ca62 32be
00000200: b98c 393e cf58 1d3e 776a b43d a672 273e
00000210: bee4 58be 8c0d 4b3d 423a 14bd 5af6 883d
00000220: bfa9 953e b851 ab3d c5ef 803d 10f8 e53d
00000230: 4719 763e 839f 173e 568e 233e 2ec0 c03d
00000240: d27d 673c 6d24 223e 0b32 c8bd f3f9 393e
00000250: a217 343e 6231 c53c b835 19be 6c0f 68be
00000260: 6ff0 523e 9ece 763e fae6 16be d736 26be
00000270: 55a1 0ebd cc01 063e a9e8 373d 25f1 e0ba
00000280: daa2 1bbe 10f0 973d 68e6 d9bd 9870 053d
00000290: 1ec7 5abe badc 73be 7c3f 9fbd f4cc 29be
000002a0: 524a 2cbe 1680 753e 5c1f 91bd 70bd 213d
000002b0: e00f fd3d dad7 5ebe 80e3 61bb ccb6 72be
000002c0: b872 943d d2fe 3ebe 945c a73d a3f5 4c3e
000002d0: 96c3 47be 7913 60bd feae ec3b ca78 f7bd
000002e0: 5e0f 80be c0d4 533d 3988 77bd 1ef3 76bc
000002f0: 7e10 fabd 9f21 6d3e 2653 58bd b8e2 57be
00000300: 9922 1dbe faa4 32be 2b4b 063e c244 6abe
00000310: 43c7 323e a4af 703e cfad 83be 4f76 4f3e
00000320: a120 cfbd 907e 6fbe fa62 11bd e272 20be
00000330: 342d 233d da20 693d 443a 1f3d b25a 2c3e
00000340: 4b9b 7cbe 2130 5fbe 8e05 6dbe 20b3 66be
00000350: e1a5 783e 5ca7 473b b14d 3fbe ee37 213e
00000360: 8b22 163e 556f 2cbc 6ca6 b3bd 2758 7bbe
00000370: 6824 acbd ce16 9d3d 88fd 643e 9e38 59be
00000380: b4c1 3bbe a1e9 51bd a34f 773d 5ed3 7dbe
00000390: 1768 58be 259a 43bc f5ed 6b3e 1289 a9bd
000003a0: 70fe a4bd 98b8 89bd feed afbd 5a76 aebd
000003b0: 0475 1fbe b181 103e 702e 28be 18b4 ccbd
000003c0: a7e0 5dbe 0f9a cd3d 7750 623e 69ef f9bc
000003d0: ac86 4cbd 1a4f 4ebd a3b7 a8bd 68bf 943b
000003e0: ac91 623e ac2b 0f3e 33ac e5bd e7df 393e
000003f0: 46c9 193e 35bd 4e3e f22b 72bd de4a 153d

nn_layer.2.bias f4 [32]
-0.04233497 -0.008193631 -0.067198396 -0.16797279 -0.08118697 -0.1890693 -0.06207013 0.025726765
-0.013557263 0.24975568 -0.22880018 0.05357524 0.24760361 -0.024728773 0.17065854 -0.017955841
0.19332026 -0.16922313 -0.1086696 0.16384041 -0.17070754 0.051066898 -0.017523037 -0.12172084
-0.024125174 0.037735075 0.15698528 0.065471195 0.10576177 -0.14301765 -0.16931674 -0.13301407
00000000: 6f67 2dbd 943e 06bc 509f 89bd 0f01 2cbe
00000010: 5b45 a6bd 629b 41be 403d 7ebd f0c0 d23c
00000020: 481f 5ebc f4bf 7f3e 984a 6abe b671 5b3d
00000030: cd8b 7d3e ff93 cabc 1dc1 2e3e 2118 93bc
00000040: bff5 453e d448 2dbe 2b8e debd c8c5 273e
00000050: f5cd 2ebe 862b 513d 798c 8fbc c748 f9bd
00000060: 28a2 c5bc 1890 1a3d c0c0 203e c315 863d
00000070: a099 d83d 3873 12be 5e61 2dbe d734 08be

nn_layer.4.weight f4 [32, 32]
0.17209366 -0.123333655 0.05825638 0.06410233 0.098123446 0.12807575 0.13835543 -0.12996581
0.16039743 0.06040208 0.15112041 0.11715609 0.11917967 0.09044248 0.00568427 0.14615932
0.13025127 0.005797594 -0.07550763 -0.07853404 0.16031666 0.016174702 -0.14998847 -0.0056430604
0.10031442 -0.044119842 0.12902087 -0.1604185 0.20185898 -0.016083203 -0.027542269 0.10104682
-0.1749419 0.11057451 0.087502025 -0.17612533 -0.028031368 0.006534865 -0.09147476 0.012746408
-0.08202201 0.010870859 -0.11677444 0.13959816 -0.16744964 0.13179654 0.056375038 -0.044494003
-0.036759797 0.027647847 0.032786988 0.13955122 0.12605342 0.11847577 0.004093593 0.08258601
0.09112199 -0.115411215 -0.01961839 0.015879627 -0.076105796 0.08104171 0.032514166 0.108361624
0.16333961 -0.13436553 -0.17781296 0.12616254 0.06262676 0.06545826 0.07630723 -0.030904766
-0.14096023 -0.17626949 0.013443897 -0.10599661 0.05917364 -0.1659785 0.10648874 -0.05152901
0.118006065 -0.1643832 -0.0496352 0.10564527 0.05677562 0.019861162 0.15704145 0.09244425
0.15573771 0.12069925 0.16051196 -0.075827256 -0.05649954 0.040936083 -0.10971756 -0.14834085
-0.08233447 -0.062447082 0.08271905 0.04100524 0.11305968 0.11766525 -0.06993045 -0.16026467
-0.0794636 0.04700318 0.030240512 0.13996048 -0.005014313 -0.16034272 0.037129715 -0.07356932
-0.008653982 -0.008041197 0.12925585 0.15533283 -0.07353116 0.015879972 0.0370324 0.060264662
-0.14937675 0.11620072 0.059295055 -0.04013727 -0.0015458266 0.074186236 0.049744703 0.08571575
-0.035802644 0.060426556 -0.0407473 -0.17448692 0.114941634 -0.048096225 0.12826478 -0.13848199
-0.12605338 -0.0747468 0.10258471 -0.043594874 -0.17096806 0.066865675 -0.05876972 -0.1532929
-0.010948532 0.106053926 0.15949957 0.0072064195 -0.16075289 -0.106575675 -0.033331756 0.084169134
-0.041327342 0.045788735 0.052178435 -0.009357723 -0.043525614 -0.17475 -0.16061236 0.08514585
0.15398881 -0.15364088 0.107036516 -0.07786271 0.1372716 0.008530547 -0.13556646 0.1173348
-0.02799683 -0.06842603 -0.17107959 -0.1700736 -0.06452342 -0.044700645 -0.0030007053 -0.018084912
-0.17450474 -0.067590415 -0.06351893 -0.07127546 -0.08341485 -0.11654459 0.16122465 -0.0714225
0.06871538 0.059674922 0.064563885 -0.15141399 -0.16604966 -0.090374604 -0.02305776 -0.069846764
0.14116757 -0.083217174 -0.13797598 -0.011569875 -0.016779697 0.07466557 -0.03004101 0.13369049
-0.12723993 -0.042053312 0.078219004 -0.15352967 0.14496645 0.12543812 -0.005930074 0.017738959
0.14705324 0.052715886 -0.025378015 0.108415306 -0.051820148 0.14680535 0.14721906 0.06334777
-0.041524306 0.14856762 0.12246966 0.044507623 0.23340653 -0.016456105 0.13747518 -0.077328146
-0.058461137 -0.057140663 -0.08974872 -0.1352601 -0.17986856 0.039748043 -0.16752765 -0.159817
0.0030902491 0.1673169 0.10280857 0.047588196 0.01295329 0.10893329 -0.054592833 -0.11836816
0.16581492 -0.12886515 -9.4813906e-05 0.13391738 0.17229663 -0.17503947 -0.07409339 -0.009341129
0.17187265 0.114522 -0.17349629 -0.0025262015 0.060095675 0.026433315 -0.06617782 0.10656068
00000000: 5239 303e 5b96 fcbd 3e9e 6e3d 1548 833d
00000010: f2f4 c83d 4a26 033e 0cad 0d3e c215 05be
00000020: 393f 243e 2c68 773d 4fbf 1a3e 88ef ef3d
00000030: 7914 f43d e839 b93d 1d43 ba3b caaa 153e
00000040: 9760 053e bef9 bd3b bfa3 9abd 74d6 a0bd
00000050: 0d2a 243e cf80 843c 9496 19be 6ce9 b8bb
00000060: a671 cd3d 02b7 34bd 0c1e 043e bf44 24be
00000070: 1fb4 4e3e ecc0 83bc 53a0 e1bc a3f1 ce3d
00000080: f823 33be e474 e23d 4334 b33d 335a 34be
00000090: 0aa2 e5bc 6c22 d63b 1e57 bbbd 4fd6 503c
000000a0: 28fb a7bd b01b 323c 7027 efbd d2f2 0e3e
000000b0: eb77 2bbe acf5 063e 83e9 663d 583f 36bd
000000c0: 7191 16bd bd7d e23c a64b 063d 84e6 0e3e
000000d0: 2614 013e 6da3 f23d 8c23 863b db22 a93d
000000e0: 2a9e ba3d b75c ecbd bfb6 a0bc fe15 823c
000000f0: 5bdd 9bbd 32f9 a53d 932d 053d b3ec dd3d
00000100: 8042 273e 1e97 09be 9a14 36be c130 013e
00000110: 7542 803d fb0e 863d f746 9c3d fe2b fdbc
00000120: e157 10be fd7f 34be ca43 5c3c c014 d9bd
00000130: 0f60 723d 45f6 29be c516 da3d 1510 53bd
00000140: 2aad f13d 1254 28be 484e 4bbd 8c5c d83d
00000150: 8d8d 683d e0b3 a23c 79cf 203e 6953 bd3d
00000160: b579 1f3e 2b31 f73d 3f5d 243e 524b 9bbd
00000170: 106c 67bd 98ac 273d 9ab3 e0bd aae6 17be
00000180: f99e a8bd 83c8 7fbd 9b68 a93d 1cf5 273d
00000190: d58b e73d 7bfa f03d b237 8fbd 6c1c 24be
000001a0: d0bd a2bd 6886 403d f3ba f73c cd51 0f3e
000001b0: 1b4f a4bb e230 24be 5415 183d 83ab 96bd
000001c0: 6ec9 0dbc 3abf 03bc a55b 043e 920f 1f3e
000001d0: 8197 96bd b716 823c 49af 173d 14d8 763d
000001e0: 38f6 18be a5fa ed3d 5fdf 723d fa66 24bd
000001f0: 559d caba f4ee 973d 1ac1 4b3d bd8b af3d
00000200: cba5 12bd d681 773d a4e6 26bd b3ac 32be
00000210: 8566 eb3d 8c00 45bd d857 033e 39ce 0dbe
00000220: 2314 01be da14 99bd ef17 d23d 8a90 32bd
00000230: 4012 2fbe dff0 883d 85b8 70bd d0f8 1cbe
00000240: 7961 33bc cd32 d93d db53 233e d423 ec3b
00000250: 689c 24be 5944 dabd e186 08bd de60 ac3d
00000260: dc46 29bd f88c 3b3d 0eb9 553d 2351 19bc
00000270: ea47 32bd aaf1 32be 9177 24be f360 ae3d
00000280: 3eaf 1d3e 0954 1dbe f635 db3d 7c76 9fbd
00000290: ed90 0c3e b5c3 0b3c efd1 0abe 3a4d f03d
000002a0: 9c59 e5bc f222 8cbd 7d2f 2fbe c627 2ebe
000002b0: db24 84bd 0618 37bd 7ba7 44bb cf26 94bc
000002c0: 5fb1 32be d86c 8abd 3616 82bd def8 91bd
000002d0: 68d5 aabd eeae eebd 1318 253e f645 92bd
000002e0: a6ba 8c3d b16d 743d 123a 843d 450c 1bbe
000002f0: ec08 2abe 5216 b9bd a1e3 bcbc d20b 8fbd
00000300: 3b8e 103e c46d aabd 9349 0dbe 938f 3dbc
00000310: 9375 89bc 43ea 983d 9018 f6bc 29e6 083e
00000320: 2f4b 02be 1840 2cbd 4931 a03d e236 1dbe
00000330: 1672 143e da72 003e 1151 c2bb 4b51 913c
00000340: 2095 163e 9dec 573d 8ee5 cfbc d808 de3d
00000350: 5d41 54bd 2454 163e 98c0 163e 7abc 813d
00000360: 6415 2abd 1c22 183e 60d1 fa3d a04d 363d
00000370: 1f02 6f3e f4ce 86bc 4bc6 0c3e 385e 9ebd
00000380: f274 6fbd 540c 6abd 2dce b7bd a081 0abe
00000390: 772f 38be d8ce 223d 5e8c 2bbe 11a7 23be
000003a0: c785 4a3b 1f55 2b3e 4d8d d23d d7eb 423d
000003b0: 093a 543c 6b18 df3d bc9c 5fbd 026b f2bd
000003c0: 63cb 293e 3af5 03be d4d6 c6b8 a321 093e
000003d0: 876e 303e 8c3d 33be 46be 97bd 890b 19bc
000003e0: 62ff 2f3e 838a ea3d 03a9 31be a18e 25bb
000003f0: e226 763d ae8a d83c 3d88 87bd 7c3c da3d

nn_layer.4.bias f4 [32]
-0.00051092886 0.12935047 0.13323456 -0.098162025 0.034208316 -0.023686336 -0.11605437 0.07870324
-0.16522452 0.010661326 -0.15906328 0.10503314 -0.09227361 0.13512553 0.07701793 0.12589914
-0.17134336 -0.024746008 -0.038247228 -0.15744102 0.03721128 0.122818895 -0.14331865 0.014790536
-0.0127953915 0.17662163 0.052031074 -0.03835563 -0.098477796 0.076510236 0.015498562 0.087364815
00000000: dbef 05ba 7374 043e a46e 083e 2c09 c9bd
00000010: 051e 0c3d d909 c2bc eaad edbd 2a2f a13d
00000020: 9e30 29be d8ac 2e3c 7ce1 22be 9d1b d73d
00000030: f2f9 bcbd 595e 0a3e 94bb 9d3d b4eb 003e
00000040: a274 2fbe 24b8 cabc 20a9 1cbd 3838 21be
00000050: db6a 183d 7988 fb3d 20c2 12be 0154 723c
00000060: c3a3 51bc 4ddc 343e 891e 553d cb1a 1dbd
00000070: baae c9bd 66b1 9c3d aeed 7d3c 53ec b23d

nn_layer.6.weight f4 [16, 32]
0.11912712 0.112179026 -0.011752698 -0.07287549 0.08653516 0.09225084 0.2122021 0.056345418
0.13815676 0.14049055 0.14273435 0.068121396 0.13152495 0.086126775 0.08402462 0.03592226
0.14755596 0.114311665 0.05799735 -0.103434056 0.015978072 -0.13159202 -0.027794614 0.17651843
-0.004800978 0.23380044 -0.04145948 0.108159214 -0.13269337 -0.11214273 -0.15065376 0.19733137
0.11465045 -0.011593179 0.15714267 0.14033602 0.06432053 -0.1736187 -0.08528387 0.004659772
-0.088565715 0.04831082 -0.13440718 -0.01425369 -0.020340027 0.20101407 -0.08447794 0.1664441
0.0865239 0.09557303 0.11790882 -0.15316428 0.089136206 0.087395675 -0.11476097 0.12428693
-0.013066448 -0.0108178295 -0.11622121 0.15847479 0.17452122 0.17565578 0.054144867 0.14370337
0.08648413 -0.029238028 -0.14420313 0.07995126 0.13541646 -0.15719473 0.106842 0.07560618
-0.018278588 0.008211476 -0.015089352 0.0926535 0.01737529 0.12171566 0.025655542 -0.086084485
-0.14028648 0.11490007 0.169073 -0.17547368 0.05554104 0.018832983 0.09460162 -0.12790121
0.11143161 0.21106178 0.14160033 -0.102713846 -0.015610906 0.05264968 -0.23497154 0.31380776
-0.07325525 0.14938672 -0.07668218 0.04850504 0.16404429 -0.15800656 -0.04821448 0.13268474
-0.023489181 0.17041455 0.06633033 -0.15154946 0.037700757 0.14737234 -0.06119946 0.14004175
-0.09730831 0.13183872 -0.099002935 0.08499628 -0.11038563 -0.16829836 0.14039747 -0.13922964
0.030562108 -0.024231274 0.14040399 -0.07439184 -0.03977542 -0.035046708 0.024703683 -0.060506064
-0.06288743 -0.13228907 -0.14066134 -0.012779852 -0.06285842 -0.028738502 0.09560468 -0.07365866
0.011253485 0.1372565 0.047899935 0.017352045 -0.15373953 -0.015364163 -0.050029684 -0.060075343
-0.110703215 0.1631952 -0.14040859 -0.07777874 0.080104634 -0.07821018 -0.095733374 0.14525184
-0.024079688 -0.11320581 -0.14745219 0.106689714 -0.08723814 0.1531921 0.03958612 -0.023467002
0.05995111 0.010420332 0.11175921 -0.154103 0.023178345 -0.17201807 0.1348746 -0.16931742
0.15519583 0.082248755 0.07070707 -0.08151489 -0.10153818 0.03065277 -0.16502334 -0.10848865
0.13430956 0.07543853 -0.0730805 0.02995543 0.037091766 0.06332591 0.014571666 0.0072893146
-0.027492447 -0.1561119 0.14555827 -0.014856073 0.040869657 0.05971661 -0.13687646 -0.13637373
0.10063644 -0.07616201 0.07127789 0.054077934 -0.1477517 -0.07620523 -0.10320825 -0.15087499
-0.019966317 -0.14205658 -0.12631279 -0.037543107 0.122565225 -0.09140207 -0.14165665 0.103568286
-0.15739925 0.093711905 -0.01701266 0.14195716 0.051561926 -0.038412485 -0.14735885 -0.110704206
0.060548443 -0.16283906 -0.16523944 -0.008622666 -0.037316997 -0.08671757 0.07817663 0.017478636
0.01114229 0.035682123 -0.091738544 0.11944824 -0.09930556 -0.160254 0.17236282 -0.1194582
-0.08375808 -0.050995585 0.11566718 0.05458616 0.14168514 0.09305414 -0.021942748 0.058096826
0.12910105 -0.1629386 -0.06526666 -0.04310809 0.028415363 -0.18062803 -0.090725005 -0.12258729
0.081337154 0.20400506 0.10854849 -0.049922615 -0.07198155 -0.002742799 -0.12198505 0.21066533
00000000: ebf8 f33d 1ebe e53d 638e 40bc bf3f 95bd
00000010: 5939 b13d 02ee bc3d 824b 593e 74ca 663d
00000020: f778 0d3e c1dc 0f3e f428 123e 3b83 8b3d
00000030: 7aae 063e 3c63 b03d 1a15 ac3d 3823 133d
00000040: e918 173e 3c1c ea3d a18e 6d3d 3cd5 d3bd
00000050: 72e4 823c 0fc0 06be 88b1 e3bc 3fc1 343e
00000060: 8651 9dbb 6269 6f3e 6ad1 29bd 9482 dd3d
00000070: c5e0 07be 16ab e5bd fb44 1abe 3c11 4a3e
00000080: dbcd ea3d 51f1 3dbc 02ea 203e 3fb4 0f3e
00000090: 7bba 833d 1ac9 31be 4fa9 aebd 00b1 983b
000000a0: f161 b5bd 91e1 453d 09a2 09be 4f88 69bc
000000b0: 21a0 a6bc a2d6 4d3e c502 adbd 5270 2a3e
000000c0: 7133 b13d cbbb c33d 2e7a f13d 19d7 1cbe
000000d0: 0b8d b63d 81fc b23d cd07 ebbd 258a fe3d
000000e0: a814 56bc 443d 31bc 6305 eebd 3747 223e
000000f0: b1b5 323e 1cdf 333e 02c7 5d3d fa26 133e
00000100: 971e b13d 9784 efbc fca9 13be 7cbd a33d
00000110: 9daa 0a3e a8f7 20be facf da3d 6ad7 9a3d
00000120: fabc 95bc 6d89 063c 5439 77bc 1ec1 bd3d
00000130: a056 8e3c 0f46 f93d 922b d23c 104d b0bd
00000140: 42a7 0fbe ba50 eb3d 7921 2d3e 5faf 33be
00000150: 007f 633d a147 9a3c 7fbe c13d 89f8 02be
00000160: 4236 e43d 9420 583e adff 103e a35b d2bd
00000170: e3c4 7fbc 31a7 573d 619c 70be 69ab a03e
00000180: d906 96bd d5f8 183e 8c0b 9dbd 39ad 463d
00000190: 3afb 273e 79cc 21be 8c7c 45bd 82de 073e
000001a0: 626c c0bc 2781 2e3e 32d8 873d c82f 1bbe
000001b0: 1c6c 1a3d c6e8 163e 49ac 7abd 1b67 0f3e
000001c0: 9449 c7bd bb00 073e 0dc2 cabd 8812 ae3d
000001d0: dc11 e2bd 6856 2cbe 5bc4 0f3e 3792 0ebe
000001e0: 635d fa3c aa80 c6bc 10c6 0f3e c05a 98bd
000001f0: 8deb 22bd 238d 0fbd 615f ca3c 35d5 77bd
00000200: 20cb 80bd c976 07be 8709 10be 9662 51bc
00000210: eabb 80bd 026d ebbc 63cc c33d 5ada 96bd
00000220: 8a60 383c f88c 0c3e b932 443d e025 8e3c
00000230: e56d 1dbe f8b9 7bbc edeb 4cbd 9011 76bd
00000240: 5eb8 e2bd a41c 273e 45c7 0fbe 764a 9fbd
00000250: e60d a43d a92c a0bd dc0f c4bd e6bc 143e
00000260: c442 c5bc 73d8 e7bd b5fd 16be 2380 da3d
00000270: e9a9 b2bd 64de 1c3e 0e25 223d df3d c0bc
00000280: 4c8f 753d 0aba 2a3c 03e2 e43d 2dcd 1dbe
00000290: 83e0 bd3c 8125 30be 911c 0a3e 8c61 2dbe
000002a0: a8eb 1e3e 0972 a83d dece 903d 47f1 a6bd
000002b0: 40f3 cfbd 851b fb3c e1fb 28be 4c2f debd
000002c0: 7288 093e 847f 9a3d 3bab 95bd 1765 f53c
000002d0: 89ed 173d 04b1 813d ffbd 6e3c 34db ee3b
000002e0: d737 e1bc ccdb 1fbe 3a0d 153e e366 73bc
000002f0: f166 273d 6799 743d 5829 0cbe 8ea5 0bbe
00000300: 7a1a ce3d d4fa 9bbd 24fa 913d d380 5d3d
00000310: 394c 17be 7d11 9cbd d95e d3bd f97e 1abe
00000320: 6790 a3bc 4877 11be 2458 01be cdc6 19bd
00000330: 7a03 fb3d 0231 bbbd 710e 11be 9c1b d43d
00000340: 452d 21be 07ec bf3d 225e 8bbc 385d 113e
00000350: 9932 533d 6956 1dbd 3de5 16be e3b8 e2bd
00000360: a501 783d 48bf 26be 8734 29be 1546 0dbc
00000370: b5d9 18bd fb98 b1bd 121b a03d 5b2f 8f3c
00000380: 278e 363c 6b27 123d 6be1 bbbd 47a1 f43d
00000390: b760 cbbd a019 24be e17f 303e 80a6 f4bd
000003a0: 5b89 abbd bfe0 50bd eae2 ec3d bd95 5f3d
000003b0: e915 113e 2b93 be3d 47c1 b3bc f0f6 6d3d
000003c0: 1133 043e 60d9 26be 87aa 85bd 1c92 30bd
000003d0: 56c7 e83c 8ef6 38be 08ce b9bd 0c0f fbbd
000003e0: 1894 a63d b4e6 503e ac4e de3d a87b 4cbd
000003f0: 106b 93bd 88c0 33bb 4cd3 f9bd a7b8 573e

nn_layer.6.bias f4 [16]
-0.014410429 -0.13738449 0.10493785 0.11144799 0.16035882 0.080766015 -0.025311666 0.09941659
-0.016107673 -0.021389669 0.0697624 0.107254595 0.11081004 -0.15268964 0.06159576 0.05019435
00000000: b819 6cbc 85ae 0cbe a8e9 d63d d83e e43d
00000010: 1a35 243e a768 a53d 695a cfbc ed9a cb3d
00000020: 3df4 83bc 6339 afbc 97df 8e3d 4ca8 db3d
00000030: 60f0 e23d ac5a 1cbe d64b 7c3d 9798 4d3d

nn_layer.8.weight f4 [8, 16]
0.35990795 0.2762758 0.3023692 0.018772384 -0.051047735 0.21585073 0.14496619 0.11992111
0.22295307 0.048705522 0.045547385 -0.2409845 0.17351416 0.08116385 -0.02813131 0.2538373
-0.20065291 -0.1811317 0.04778398 -0.15726256 0.15992844 0.04135149 -0.11440613 0.1931479
0.16586143 -0.10896 -0.1197497 0.10979577 0.24609065 0.053490944 0.2512208 -0.0060880054
-0.21526863 -0.052442152 -0.0018731588 -0.15140991 -0.18466811 0.1350923 0.13640694 -0.14128454
0.0141636105 0.2032238 -0.15113273 -0.13393106 0.07481683 -0.18796411 -0.05085856 -0.11786141
-0.23703213 -0.19287787 -0.010096494 -0.19112337 0.022190426 0.02523546 0.00932774 0.1452573
-0.10748578 0.0020749124 -0.08809819 0.01962571 0.2606861 0.07388667 0.15187962 0.07331722
0.099825144 -0.014550337 0.15996617 -0.17642853 -0.01750042 0.22487758 -0.0047436543 -0.015284026
0.120166674 -0.015327046 -0.22546342 -0.013444737 0.10425908 -0.20670362 -0.009013086 0.112921536
-0.009576819 -0.16084984 0.20237122 -0.0049882727 -0.10412033 -0.01994954 0.20662397 0.2404205
0.12017283 0.0886414 0.10536483 0.09771068 0.03720577 0.13851964 0.17445005 0.21982053
-0.07020865 -0.05897978 -0.1108226 -0.042640112 -0.050151873 0.06875033 0.11042878 0.030576088
0.0027882827 -0.1991256 -0.12044632 0.027162902 0.009386171 0.11337507 0.18448062 -0.16796571
0.24193898 0.04590989 0.3597695 -0.072476625 -0.17600605 -0.020566793 0.017361501 0.15050016
-0.20490445 -0.08463905 -0.095167205 0.14909649 -0.28513634 0.23812371 -0.05167824 0.348411
00000000: db45 b83e 0674 8d3e 23d0 9a3e 8bc8 993c
00000010: 6e17 51bd f907 5d3e 0472 143e 3399 f53d
00000020: cf4d 643e 717f 473d e58f 3a3d a4c4 76be
00000030: b2ad 313e 3c39 a63d a273 e6bc f6f6 813e
00000040: f577 4dbe 977a 39be 22b9 433d 7009 21be
00000050: 48c4 233e 2e60 293d c34d eabd 90c8 453e
00000060: 94d7 293e 6c26 dfbd 553f f5bd 9bdc e03d
00000070: 30ff 7b3e 5219 5b3d 03a0 803e e47d c7bb
00000080: 616f 5cbe 95cd 56bd c884 f5ba 330b 1bbe
00000090: a319 3dbe a355 0a3e 43ae 0b3e e5ac 10be
000000a0: 7d0e 683c e619 503e 8ac2 1abe 3925 09be
000000b0: 9139 993d aa79 40be 1151 50bd 5361 f1bd
000000c0: 8db8 72be c781 45be c46b 25bc d8b5 43be
000000d0: b2c8 b53c 98ba ce3c 61d3 183c 54be 143e
000000e0: 8121 dcbd 41fb 073b d36c b4bd 19c6 a03c
000000f0: a678 853e e551 973d 5586 1b3e 5727 963d
00000100: 2071 cc3d 8964 6ebc 2cce 233e aea9 34be
00000110: 0a5d 8fbc 4f46 663e a870 9bbb da69 7abc
00000120: f219 f63d 4a1e 7bbc e2df 66be 5047 5cbc
00000130: c985 d53d 1daa 53be 9fab 13bc 6843 e73d
00000140: 17e8 1cbc d2b5 24be 673a 4f3e aa74 a3bb
00000150: 0a3d d5bd 386d a3bc 3c95 533e cb30 763e
00000160: 2c1d f63d 9f89 b53d 84c9 d73d 891c c83d
00000170: 1465 183d 18d8 0d3e 09a3 323e a218 613e
00000180: 8dc9 8fbd c894 71bd f6f6 e2bd 66a7 2ebd
00000190: 0d6c 4dbd f9cc 8c3d 7c28 e23d b47a fa3c
000001a0: 9fbb 363b 95e7 4bbe 8fac f6bd bc84 de3c
000001b0: 74c8 193c 3031 e83d 7de8 3c3e 34ff 2bbe
000001c0: dabe 773e 020c 3c3d b533 b83e a06e 94bd
000001d0: ee3a 34be b17b a8bc b539 8e3c b71c 1a3e
000001e0: 79d2 51be 3d57 adbd 06e7 c2bd c0ac 183e
000001f0: 64fd 91be b4d6 733e 90ac 53bd ed62 b23e

nn_layer.8.bias f4 [8]
0.058179103 -0.12860417 0.22404213 0.07427174 -0.11898153 -0.13188003 -0.044878386 -0.09144418
00000000: 364d 6e3d d0b0 03be 4d6b 653e c81b 983d
00000010: 97ac f3bd 8f0b 07be 66d2 37bd 1647 bbbd
