NQE/results/NQEClassifier/mnist/3exp/model.pt (torch, 4295 bytes, 6 tensors)

linear_relu_stack1.0.weight f4 [16, 8]
0	0xbe9555bd	-0.29166976
1	0xbdfa2efd	-0.122159936
2	0x3ec0dbff	0.37667844
3	0x3eac2952	0.33625275
4	0xbdd6c4fb	-0.1048679
5	0x3e2a2b98	0.16618192
6	0x3ec1000e	0.37695354
7	0xbeae4343	-0.34035692
8	0x3e2cdd99	0.16881408
9	0x3e605993	0.2190917
10	0xbe038557	-0.12843834
11	0xbd0934d8	-0.03349766
12	0x3d89f534	0.06736222
13	0xbea61934	-0.32441103
14	0xbc8a61cd	-0.016892338
15	0xbe3e8651	-0.18605925
16	0xbdf50b88	-0.1196509
17	0xbd3f9a24	-0.04677786
18	0xbe9f52ab	-0.31117758
19	0xbe5c0e31	-0.21489789
20	0x3e025733	0.12728576
21	0xbe83e5aa	-0.25761157
22	0xbe15ff50	-0.14648175
23	0xbc6153d3	-0.013752895
24	0xbdc56eb0	-0.096402526
25	0xbe647021	-0.22308399
26	0xbe2fb658	-0.17159402
27	0x3d2cf904	0.042229667
28	0xbe7e41d4	-0.24829799
29	0xbd90c0bf	-0.070680134
30	0xbea5a4e5	-0.32352367
31	0x3e2d7cab	0.16942088
32	0xbe5a8770	-0.21340728
33	0x3eb9bbf7	0.36276218
34	0xbdb3c682	-0.08778097
35	0xbe074ae0	-0.13212156
36	0x3e4a5c36	0.19761738
37	0x3e5537c8	0.2082206
38	0x3dcde94c	0.100542635
39	0xbe559c63	-0.20860438
40	0x3ebd0f8b	0.3692592
41	0x3d9b28d9	0.075761504
42	0x3e8eb92a	0.27875644
43	0xbe1a0a7a	-0.15043059
44	0x3ea2ca77	0.31795093
45	0x3cea27cb	0.028583428
46	0xbdee656c	-0.116404384
47	0x3e208d02	0.1567879
48	0xbec0d39a	-0.3766144
49	0xbdb47dfe	-0.088130936
50	0x3ec9793b	0.39350304
51	0x3df699c6	0.12041049
52	0xbe3c0cf0	-0.1836431
53	0x3e5e05c7	0.21681891
54	0x3e862696	0.26201314
55	0x3e880a51	0.2657037
56	0xbcfe3de6	-0.031035375
57	0x3e83b4b8	0.25723815
58	0xbe7a8cad	-0.24467726
59	0x3dd32362	0.10309483
60	0x3e0813b7	0.1328877
61	0xbea0377f	-0.3129234
62	0xbcba9761	-0.022777261
63	0xbe6b0d02	-0.22954181
64	0x3e01026d	0.12598582
65	0xbe031577	-0.12801157
66	0xbe0a4e0e	-0.13506338
67	0x3e701f30	0.23449397
68	0xbe8b5301	-0.27211764
69	0xbdf7c91d	-0.12098906
70	0x3e87e4c0	0.2654171
71	0x3e29bedb	0.16576712
72	0x3d4123b5	0.047153194
73	0xbea58d99	-0.32334593
74	0xbea39603	-0.31950387
75	0x3e87c028	0.2651379
76	0x3e8d227b	0.2756537
77	0xbe439f95	-0.19103844
78	0x3dda42eb	0.10657295
79	0x3caca7f2	0.021076176
80	0x3e1f4850	0.15554929
81	0x3ddc1c77	0.10747617
82	0xbe01dc43	-0.1268168
83	0xbdc15e25	-0.09441785
84	0xbe6e0c6b	-0.23246925
85	0x3e42e9df	0.19034527
86	0xbe9526f2	-0.29131275
87	0xbe371838	-0.17880332
88	0xbe18f608	-0.14937603
89	0xbd1b3149	-0.0378888
90	0x3ea17fa1	0.31542686
91	0x3dc736b9	0.097272344
92	0x3b83ae11	0.004018553
93	0x3c899347	0.01679386
94	0x3e0e4d8e	0.13896772
95	0xbd9d4232	-0.076786414
96	0x3e98db94	0.29855025
97	0xbe7c9f3d	-0.2467012
98	0x3e887f93	0.2665983
99	0xbdb8cd8a	-0.090235785
100	0xbd4e2e0d	-0.050336886
101	0xbe31e3fc	-0.17372125
102	0xbd8b9c9b	-0.068169795
103	0x3bfa300b	0.0076351217
104	0xbdf7768c	-0.12083158
105	0xbdde63c3	-0.10858872
106	0xbe587bfe	-0.2114105
107	0x3e3534b1	0.17695881
108	0x3e2dce60	0.16973257
109	0xbeaa59f1	-0.33271745
110	0xbe5eb83d	-0.21749969
111	0x3e8d0295	0.27541032
112	0xbd9ab7b5	-0.075545706
113	0x3e4ecfb3	0.20196418
114	0xbda317d5	-0.0796353
115	0x3e781075	0.24225028
116	0xbb90f707	-0.004423979
117	0x3e891e18	0.26780772
118	0xbebdef56	-0.3709666
119	0xbe62ce0c	-0.22148913
120	0xbe10e7f8	-0.14150989
121	0xbe84032b	-0.25783667
122	0xbe98c979	-0.2984121
123	0xbeb2f340	-0.3495121
124	0x3d046e1a	0.032331564
125	0x3e0b2f44	0.13592249
126	0x3d8e3da8	0.06945354
127	0xbe11b1d9	-0.14228

linear_relu_stack1.0.bias f4 [16]
0	0xbc85d92a	-0.016338903
1	0xbdb56002	-0.08856203
2	0xbea655a1	-0.32487205
3	0xbe557813	-0.20846586
4	0xbe8ec614	-0.27885497
5	0xbd791cc3	-0.060818445
6	0x3e8f3a7e	0.27974313
7	0x3c96013b	0.018311134
8	0xbe88a484	-0.26688015
9	0xba46f1ee	-0.0007589151
10	0xbe998fb3	-0.29992446
11	0xbdc6b3f4	-0.09702292
12	0xbe3c8d44	-0.18413264
13	0x3e7e2f89	0.2482282
14	0xbea48e6c	-0.3213991
15	0x3eb23185	0.34803405

linear_relu_stack1.2.weight f4 [16, 16]
0	0xbe5beea9	-0.2147776
1	0xbd3344b4	-0.043766692
2	0x3e098808	0.13430798
3	0xbc84aa70	-0.016194552
4	0x3e2f239f	0.17103432
5	0x3e47ff8b	0.19531076
6	0xbcc6f712	-0.024287734
7	0xbd49ba38	-0.049249858
8	0x3ded5ed3	0.11590352
9	0x3e351ffe	0.17687985
10	0xbe74c79d	-0.23904271
11	0xbe815d3c	-0.25266445
12	0x3e1536f2	0.14571741
13	0x3d5326f7	0.05155083
14	0x3e018220	0.12647295
15	0xbe6d0a6a	-0.23148504
16	0x3ed4c8c0	0.4155941
17	0xbe39e4b3	-0.18153648
18	0x3e3b88c8	0.18313897
19	0x3bcc17c0	0.006228417
20	0x3e6aaca9	0.22917427
21	0xbd64ac66	-0.055828474
22	0x3e93cc75	0.28866926
23	0xbdfce094	-0.123475224
24	0x3b186c54	0.0023257928
25	0xbd8e3c59	-0.06945104
26	0x3d869d32	0.065729514
27	0x3d991af9	0.07475848
28	0x3e531091	0.20611788
29	0x3cbc84da	0.023012567
30	0xbe0f4875	-0.13992484
31	0xbe1944fa	-0.14967719
32	0x3e2bf58a	0.16792884
33	0x3e1f5085	0.1555806
34	0xbd387f58	-0.04504332
35	0x3d94bc20	0.072624445
36	0xbe26195e	-0.16220614
37	0xbe5be3d0	-0.21473622
38	0xbe29b863	-0.16574244
39	0x3e7c0a26	0.24613246
40	0xbe357c35	-0.17723162
41	0x3e4905ea	0.19631162
42	0x3e0b22fa	0.13587561
43	0x3d46577d	0.04842328
44	0xbd71fcde	-0.059079044
45	0x3e696564	0.22792584
46	0xbe3c174d	-0.18368264
47	0xbe0e4eba	-0.1389722
48	0x3d19ecb8	0.03757927
49	0xbe60869f	-0.21926354
50	0xbe31cc8e	-0.17363188
51	0x3e3b4ffe	0.18292233
52	0xbdea4156	-0.11438243
53	0x3e321013	0.17388944
54	0x3dc86520	0.09784913
55	0x3e1801f7	0.148445
56	0x3cb23961	0.021755876
57	0x3c34b8e3	0.011030409
58	0xbda4fcc0	-0.08056021
59	0xbc58fd2f	-0.013243957
60	0x3e32a618	0.17446172
61	0xbe6119e7	-0.21982537
62	0x3e2eb5a3	0.17061476
63	0x3ddc1fb4	0.107482344
64	0xbe054c3a	-0.1301736
65	0x3e0e199a	0.13876954
66	0xbe3d5764	-0.18490368
67	0xbd0f53a8	-0.03499189
68	0xbda6b63b	-0.081402265
69	0x3d048890	0.0323568
70	0xbe0df973	-0.13864689
71	0x3e201bc6	0.15635595
72	0xbe3f5526	-0.18684825
73	0x3e335c31	0.17515637
74	0x3e525a07	0.20542155
75	0xbde933c5	-0.113868274
76	0x3e34e3c8	0.17665017
77	0xbe5275fd	-0.20552821
78	0xbdb4b6d3	-0.088239335
79	0x3e4d3f06	0.20043573
80	0x3e5345e9	0.20632137
81	0x3e6140ef	0.21997426
82	0x3d40fd38	0.04711649
83	0xbd3c1d58	-0.045926422
84	0xbe5c35d5	-0.2150491
85	0x3d58b307	0.05290511
86	0xbe50f979	-0.20407666
87	0xbd694802	-0.056953438
88	0xbe2fda16	-0.17173037
89	0xbdc4b7cd	-0.0960537
90	0x3e014a05	0.12625892
91	0x3e80286a	0.25030833
92	0x3e40c275	0.1882418
93	0x3b8e4113	0.0043412535
94	0x3a6142c1	0.0008593016
95	0x3c79e100	0.015251398
96	0xbdd295e2	-0.10282494
97	0xbe436cb4	-0.19084436
98	0x3d4b1698	0.049582094
99	0x3e6bb928	0.2301985
100	0xbe3ce7b8	-0.18447769
101	0x3e1e5455	0.15461858
102	0xbc828288	-0.015931383
103	0x3de854ff	0.11344337
104	0xbdea4fb8	-0.114409864
105	0x3e5ce960	0.215734
106	0xbe7230e1	-0.23651458
107	0x3d02a613	0.031896662
108	0x3e5dd2a0	0.21662378
109	0x3dbaa527	0.091135316
110	0xbe212e25	-0.15740259
111	0x3d7b0d58	0.061292022
112	0x3e51ed62	0.2050071
113	0x3e4d9d35	0.20079501
114	0xbd9f0fd4	-0.07766691
115	0xbe672136	-0.22571263
116	0xbded5674	-0.11588755
117	0x3c990909	0.018681066
118	0x3e9663f8	0.29373145
119	0x3ddc3b40	0.107534885
120	0xbe42c035	-0.19018634
121	0xbe55ca5c	-0.20877975
122	0x3e022ed5	0.12713178
123	0x3e6a558f	0.228842
124	0x3dd938ee	0.106065616
125	0x3e70acff	0.23503493
126	0xbe0a3416	-0.13496432
127	0x3ded6d28	0.115930855
128	0xbde98285	-0.11401848
129	0x3e03e968	0.12882006
130	0xbe7ffdcc	-0.2499916
131	0x3daa2050	0.08306944
132	0x3e1a3428	0.15058959
133	0x3e2336be	0.15938851
134	0xbd5a9f35	-0.053374488
135	0x3dfa511a	0.122225
136	0xbdcdd0fd	-0.10049627
137	0xbd58a529	-0.052891884
138	0x3d4fd73a	0.050742365
139	0x3dcd3b27	0.10021048
140	0xbe433bda	-0.190658
141	0xbd9fe534	-0.07807389
142	0x3e0e731e	0.13911101
143	0xbe34bc8a	-0.17650047
144	0xbdaa9457	-0.08329075
145	0xbe7291f1	-0.23688485
146	0xbe66b184	-0.22528654
147	0xbe4cac4a	-0.19987598
148	0x3e816d30	0.25278616
149	0xbe1d0982	-0.15335658
150	0x3d4bb715	0.049735148
151	0xbe06244b	-0.13099782
152	0xbe6f1424	-0.23347527
153	0xbe3d2e50	-0.18474698
154	0x3dac32e7	0.08408146
155	0xbdf36808	-0.11885077
156	0x3da5521e	0.08072303
157	0x3dc326a8	0.095288575
158	0xbb5a6907	-0.0033326761
159	0xbe2b3152	-0.16718033
160	0x3dd6371b	0.10459729
161	0x3e33d93f	0.17563342
162	0xbdbbc454	-0.09168306
163	0xbdac7390	-0.08420479
164	0x3e254c57	0.16142403
165	0xbe19390d	-0.1496317
166	0x3e9fd593	0.31217632
167	0xbe1cbba9	-0.15305962
168	0x3e2896c8	0.16463768
169	0xbe01707b	-0.12640564
170	0xbe04f3e8	-0.12983668
171	0xbe45479f	-0.19265603
172	0x3d127e50	0.035764992
173	0xbe55751c	-0.20845455
174	0xbdaacca3	-0.083398126
175	0xbe2ac658	-0.16677225
176	0x3d8a91b7	0.06766074
177	0x3e543136	0.20721897
178	0x3e4dac3c	0.20085233
179	0x3e4b9e90	0.19884706
180	0x3df7834f	0.12085592
181	0x3e80e026	0.25171012
182	0x3d5308af	0.051521953
183	0x3e0e6437	0.13905416
184	0x3de40f9d	0.111357905
185	0xbe430546	-0.1904498
186	0x3e272db0	0.16326022
187	0x3da0f541	0.078592785
188	0x3da858d4	0.082200676
189	0x3d519dd6	0.051175915
190	0xbe5bee7d	-0.21477695
191	0x3d9af630	0.07566488
192	0xbe61235a	-0.21986142
193	0x3e2a7b96	0.16648707
194	0xbe49d7b2	-0.19711187
195	0x3cd60dd0	0.026129633
196	0x3e27511a	0.16339532
197	0x3e2cb9cb	0.1686775
198	0xbe5a22d6	-0.21302351
199	0x3d8e4ede	0.069486365
200	0x3d639295	0.055559713
201	0x3d769883	0.06020404
202	0xbdc2809e	-0.09497188
203	0xbe31eb6c	-0.17374963
204	0x3dcf5fd2	0.10125698
205	0xbe7159fd	-0.23569484
206	0x3ce431d2	0.027855787
207	0xbe0500c0	-0.12988567
208	0x3caa44fb	0.020784846
209	0x3dc4ddc5	0.09612612
210	0x3e0e5346	0.13898954
211	0x3bbb38c0	0.0057135522
212	0x3d610278	0.054933995
213	0xbdf4b214	-0.11948028
214	0x3e4595ef	0.19295476
215	0xbe4ab36f	-0.19795011
216	0x3d6f1a61	0.058374766
217	0x3d1762cd	0.03695946
218	0xbe1c37dd	-0.15255685
219	0x3e797cc9	0.24364008
220	0x3e70b85e	0.2350783
221	0x3e26600c	0.16247576
222	0xbdfdd44d	-0.12394009
223	0xbe0f3218	-0.13983953
224	0xbe3b8770	-0.18313384
225	0x3c220980	0.00988996
226	0xbb983300	-0.0046447515
227	0x3a84a000	0.0010118484
228	0xbbda3380	-0.0066589713
229	0xbe1c7bb0	-0.15281558
230	0xbe5cfbca	-0.21580425
231	0xbe6a80ea	-0.2290074
232	0x3d17a3e0	0.037021518
233	0x3e3ed9ca	0.18637767
234	0xbe260cf2	-0.16215876
235	0x3e6332b0	0.22187304
236	0x3c8eaee0	0.017417371
237	0x3e597760	0.21236944
238	0xbe74044c	-0.23829764
239	0x3d9e2344	0.0772157
240	0xbe1c1696	-0.15242991
241	0xbe54a804	-0.20767218
242	0xbcda3390	-0.026635915
243	0x3d9bcbfc	0.07607266
244	0xbe2bb314	-0.16767532
245	0x3d1fb900	0.03899479
246	0x3b3e1d00	0.0029008985
247	0x3d3d3ff0	0.046203554
248	0x3db4e508	0.08832747
249	0xbdd685d8	-0.104747474
250	0xbd92147c	-0.07132813
251	0x3e2914d2	0.16511849
252	0xbe65214e	-0.22375986
253	0x3e2b6346	0.16737089
254	0xbe5a4ba4	-0.21317917
255	0x3e2dedd8	0.16985261

linear_relu_stack1.2.bias f4 [16]
0	0x3d825407	0.06363683
1	0x3da6922d	0.081333496
2	0x3e776666	0.24160156
3	0xbe2345a9	-0.15944542
4	0x3d39a4ac	0.04532306
5	0x3d6995dc	0.057027683
6	0xbdfbed94	-0.12301174
7	0xbe0e4ed6	-0.13897261
8	0x3ce1a1e2	0.027543012
9	0x3e84bb8a	0.2592433
10	0x3e2b7375	0.16743262
11	0xbdce0822	-0.10060145
12	0x3e2f5e8d	0.17125912
13	0x3d1b3f64	0.03790225
14	0xbd8bfa48	-0.06834847
15	0xbe3161c6	-0.17322454

linear_relu_stack1.4.weight f4 [8, 16]
0	0x3c8dcb5d	0.017308885
1	0x3e361255	0.1778043
2	0x3dcd05e6	0.10010891
3	0xbba7262d	-0.0051009865
4	0xbdb739c6	-0.08946566
5	0x3d05cb4a	0.032664575
6	0xbe42af68	-0.19012225
7	0xbd8a5148	-0.067537844
8	0xbe60d331	-0.21955563
9	0xbd475228	-0.048662335
10	0x3e0a7876	0.13522515
11	0x3e292c0c	0.16520709
12	0xbddf7319	-0.10910625
13	0xbe19bebe	-0.15014169
14	0x3e010886	0.12600908
15	0x3dfa200c	0.12213144
16	0xbe7b5889	-0.24545492
17	0x3eefe42d	0.46853772
18	0xbcdc8702	-0.026919845
19	0xbe4e6191	-0.20154406
20	0x3d2a8c24	0.041637555
21	0x3e2c04bd	0.16798683
22	0x3d41698f	0.04721981
23	0x3ea923c7	0.33035108
24	0x3ddee40d	0.10883341
25	0x3e528b66	0.20560989
26	0x3e81cda3	0.253522
27	0xbcbc0852	-0.022953186
28	0xbe442c96	-0.19157633
29	0x3e942334	0.28933108
30	0x3cc5feb0	0.024169296
31	0x3e2808b2	0.16409567
32	0xbe639801	-0.22225954
33	0xbe16bc76	-0.1472033
34	0x3e1ac791	0.15115191
35	0x3d2772ea	0.040881075
36	0x3d9398a7	0.072068505
37	0xbe2357a5	-0.15951402
38	0x3e319907	0.17343532
39	0x3dccf535	0.10007707
40	0x3bfb208a	0.007663791
41	0xbd5fa692	-0.054602213
42	0x3e50a0dd	0.20373864
43	0xbd8cb63a	-0.068706945
44	0xbdb6e9e2	-0.08931328
45	0xbdfda9be	-0.123858914
46	0x3e42ba18	0.19016302
47	0x3e625512	0.22102764
48	0x3c6f1321	0.014591963
49	0xbd1d16d8	-0.038351864
50	0xbe2567f0	-0.1615293
51	0x3db8fd8d	0.09032736
52	0xbe190a05	-0.14945228
53	0xbe05fe7e	-0.13085362
54	0xbcc563b2	-0.02409539
55	0xbe4e432d	-0.20142813
56	0x3b9d9667	0.004809189
57	0xbc783a4a	-0.015150616
58	0xbd26ff33	-0.04077072
59	0x3daeb9bc	0.0853152
60	0xbd780337	-0.06054994
61	0xbdc583f0	-0.09644306
62	0x3d57f8a0	0.05272734
63	0xbe1686d6	-0.14699873
64	0x3e312e11	0.17302729
65	0xbe85c1e4	-0.2612449
66	0x3dbc86a7	0.092053704
67	0x3c0b8809	0.00851632
68	0x3dc41c70	0.095757365
69	0xbd6a9fd1	-0.05728132
70	0xbe0f3f1a	-0.13988915
71	0xbe4b06e9	-0.19826855
72	0x3e2b57bf	0.16732691
73	0xbe76bc57	-0.24095283
74	0x3e2e017b	0.16992752
75	0xbd02d878	-0.031944722
76	0x3cd86bfe	0.026418682
77	0x3bc6fb9f	0.006072476
78	0xbe3126bc	-0.17299932
79	0xbd89e4a4	-0.06733063
80	0x3dcd4315	0.100225605
81	0xbd822816	-0.06355302
82	0x3d67acca	0.05656127
83	0x3dba9803	0.09111025
84	0x3cd22c1f	0.025655804
85	0x3e1df4a0	0.15425348
86	0xbc7cb2c6	-0.015423482
87	0xbe2b74e5	-0.1674381
88	0xbe44ee92	-0.19231632
89	0x3e11a6c9	0.1422378
90	0x3ab5afdb	0.0013861613
91	0xbd3c40b9	-0.04596016
92	0x3e6c0fd2	0.2305291
93	0xbda69ad1	-0.08134998
94	0xbda4f384	-0.080542594
95	0x3d641e88	0.05569318
96	0x3e87481c	0.26422203
97	0xbe6a1922	-0.2286115
98	0x3e614914	0.22000533
99	0xbe51bdd4	-0.2048257
100	0x3cf93acc	0.030423544
101	0xbe160635	-0.14650805
102	0x3d817adc	0.06322262
103	0xbe4b9d9a	-0.19884339
104	0xbe5256d2	-0.20540932
105	0xbcc03edd	-0.023467476
106	0x3e2b1aa9	0.16709389
107	0x3e663ead	0.22484846
108	0xbd0736fc	-0.03301142
109	0x3d418ff2	0.047256418
110	0xbdf15a1c	-0.11784765
111	0x3e5acc52	0.21367005
112	0xbc81c88b	-0.015842697
113	0x3e1346ec	0.14382523
114	0xbe1827ae	-0.14858887
115	0x3c3d1bba	0.011542255
116	0xbe3f37b3	-0.18673591
117	0x3d7f1e83	0.062284958
118	0x3e763434	0.24043351
119	0x3cef11c0	0.029183269
120	0x3deb2d16	0.11483209
121	0xbd3a3e2f	-0.04546946
122	0x3d9ae99c	0.07564089
123	0xbd344e7b	-0.044020157
124	0x3e094037	0.13403402
125	0xbd6810db	-0.0566567
126	0x3e10a2bc	0.14124578
127	0xbd453b18	-0.04815206

linear_relu_stack1.4.bias f4 [8]
0	0xbd671961	-0.056420688
1	0xbe81dbaf	-0.25362918
2	0x3d8f0202	0.06982805
3	0x3dcb25c5	0.09919313
4	0x3da236cb	0.07920607
5	0xbd8a9cbe	-0.067681774
6	0x3dae23b3	0.08502903
7	0x3d079ac4	0.03310658
