NQE/results/NQEClassifier/kmnist/1exp/model.pt (torch, 4295 bytes, 6 tensors)

linear_relu_stack1.0.weight f4 [16, 8]
000000 4f ea 8f be 1d 31 3d be b1 1d 43 be ec 8a af be
       -0.2810845 -0.18475766 -0.19054295 -0.34285676
000010 29 2c 8a 3e 22 f4 1f be 73 8c 5b be 02 5e 77 bc
       0.26986817 -0.15620473 -0.21440296 -0.015098097
000020 6c 36 25 3e 99 f7 26 bc 08 3a 26 3e 2b c9 52 be
       0.16134042 -0.010190868 0.16233075 -0.20584552
000030 39 c6 81 3e 76 fa 93 3e b7 cb 75 be 2e ff 0b 3e
       0.25346544 0.28902024 -0.24003492 0.13671562
000040 96 fb 30 be df 7a 0a bd 8d 57 26 3e 4c 1c 74 bc
       -0.17283472 -0.033808585 0.16244335 -0.014899325
000050 70 d2 e8 bd da 9f 21 be 69 74 c6 bd 50 c9 28 3e
       -0.11368263 -0.15783635 -0.09690172 0.16483045
000060 f5 98 7d bd a6 59 3d be e7 4c 5e 3d c5 8f e7 3b
       -0.06191345 -0.1849123 0.05427256 0.007066699
000070 94 e8 c0 3d b6 2c aa bd 87 95 2c 3e bd cd 93 3e
       0.09419361 -0.08309309 0.16853915 0.28867903
000080 d3 57 5b 3e 39 fd ea bc 99 36 af bd 58 bd c2 3d
       0.21420221 -0.0286852 -0.085553356 0.09508771
000090 6a 1f b0 3e f7 ad 72 3e dc 7c 79 3e b0 40 8f bd
       0.34398967 0.23699175 0.24364036 -0.0699476
0000a0 70 bf d2 3e 0a 45 c3 be ec f3 62 3e ed 0c 1b 3e
       0.4116168 -0.3813861 0.22163361 0.1514165
0000b0 bf 85 85 3e 05 e9 22 3e e0 f0 49 3e c2 9f c8 bc
       0.26078603 0.15909202 0.19720793 -0.024490241
0000c0 d9 6e 15 be 93 0e bf bd 1f bf be 3e 69 4f 82 bc
       -0.14593066 -0.09328952 0.3725519 -0.015907006
0000d0 a6 f5 fc 3b 27 3d 7f 3e c6 74 9e 3e 32 00 b3 bd
       0.0077197133 0.24925672 0.30948466 -0.08740272
0000e0 96 28 8e 3d 78 5f ba bd d1 af 39 3e cc e4 3f be
       0.06941335 -0.091002405 0.18133475 -0.18739623
0000f0 51 29 89 3e 1a 92 b8 be 0e f6 3c be bf 1e 81 be
       0.26789334 -0.36048967 -0.18453237 -0.2521877
000100 ef 17 d9 bd e9 48 80 3e ac c8 77 bd d2 2d 97 3e
       -0.10600268 0.25055626 -0.06049411 0.29527146
000110 a9 de 74 be c0 c0 ad 3d 0d 3a 7c be 68 bf 27 be
       -0.23913063 0.0848403 -0.2463152 -0.1638161
000120 69 fe 1f 3e c6 0e 1e 3e d9 6c 70 be f2 3a 6f 3e
       0.15624394 0.15435323 -0.23479022 0.2336233
000130 06 f4 0e bd 55 f6 7a be 90 9a a0 be 4d 2b 23 be
       -0.034900688 -0.2450803 -0.31367922 -0.15934487
000140 b6 5f 70 be 86 46 fa 3d 54 31 7b be 8c d7 5f be
       -0.23474011 0.122204825 -0.24530536 -0.21859568
000150 72 96 96 be a8 0f a0 be 17 dc 04 be 36 ca 8b 3d
       -0.29411656 -0.31261945 -0.12974583 0.06825678
000160 a6 ac 2f 3e e1 02 2c be 20 b1 33 be fe 42 20 be
       0.17155704 -0.16797973 -0.17548037 -0.15650555
000170 b7 2f 69 be ec d7 9b 3e a5 64 97 3d a8 f1 2b be
       -0.22772108 0.30438173 0.07392243 -0.16791403
000180 b8 8d d7 3e 38 98 28 3e 34 34 05 3e 9b 69 51 be
       0.4210031 0.16464317 0.13008195 -0.20450442
000190 3c 58 7b bd d5 52 cf bc 42 fe 25 be 55 15 19 3e
       -0.061363444 -0.025308052 -0.16210273 0.14949544
0001a0 da 10 25 be 6c f5 5d be d0 78 01 3e e1 00 1d 3e
       -0.1611971 -0.21675652 0.12643743 0.15332367
0001b0 02 a9 fa bd 66 f0 11 3e ea 18 95 be df 4d cd bc
       -0.12239267 0.14251861 -0.2912057 -0.025061546
0001c0 31 89 2f 3f b3 d0 72 3d 89 06 d5 be 7e 09 bd bb
       0.6856871 0.059281062 -0.41606548 -0.005768954
0001d0 f5 68 d2 3d cf 9f 2a bd 3f 62 46 3e dc fd 07 be
       0.10273925 -0.04165631 0.19373415 -0.13280433
0001e0 7e 71 12 3e ca 2a c1 bd 67 63 55 bd 77 b1 3e be
       0.14301106 -0.094319895 -0.05209675 -0.18622385
0001f0 2c 67 9a be 7f bc 71 3e f2 7d 28 3e d0 52 83 be
       -0.3015684 0.23607062 0.16454294 -0.25649118

linear_relu_stack1.0.bias f4 [16]
000000 d3 3c 7a bd ad dc 9a 3e 76 fd 53 be 3f eb 16 3d
       -0.061093163 0.30246487 -0.20702156 0.036845442
000010 12 6f 20 be 5c df 12 be 8a 0d 96 bd b2 16 a9 ba
       -0.1566737 -0.14343017 -0.07326801 -0.001290044
000020 fc 08 1b be 19 9a a3 be 36 77 af be 1a b2 f1 3d
       -0.15140146 -0.31953505 -0.34270638 0.11801548
000030 b1 d9 9a 3e df d5 3e be ff 36 c0 bd 4d 38 72 be
       0.3024421 -0.18636273 -0.0938549 -0.2365429

linear_relu_stack1.2.weight f4 [16, 16]
000000 f8 77 48 3e c9 2b 25 bc 76 26 88 bc 1e 22 49 3c
       0.19577014 -0.01008124 -0.016619902 0.012276201
000010 c9 00 53 3c 5e 3b 44 3d e2 b1 6c 3e d9 82 4d be
       0.012878605 0.04790818 0.23114732 -0.20069446
000020 8f 1f 7a 3e b2 37 12 bc e4 50 d4 3d c2 1d d8 bd
       0.24426101 -0.008924412 0.10366991 -0.10552551
000030 46 ac 26 3e 59 05 13 bd f0 78 82 be bc cc c4 bc
       0.16276655 -0.03589377 -0.25482893 -0.024023406
000040 00 2c 3e bd 0c 8d 2c be e6 6e 17 3e 1f e1 38 be
       -0.04642868 -0.1685068 0.14788398 -0.18054627
000050 01 d9 b1 bd 31 47 2e 3e b6 73 d7 bd 9a 8a e6 bd
       -0.08683968 0.17019345 -0.10520117 -0.11256905
000060 71 18 0e 3d ef c4 39 be 6a 13 50 3e 2f 88 22 3e
       0.034691278 -0.1814153 0.20319906 0.15872262
000070 5a ce e2 bd ba 47 43 3e 38 08 61 be a6 1c 18 be
       -0.11074515 0.1907033 -0.21975791 -0.14854679
000080 3e 36 63 3e ce d9 4e be 94 9f 28 bd 81 42 63 be
       0.2218866 -0.20200273 -0.04116781 -0.22193338
000090 43 79 0d bd 31 a1 7c be dd 38 16 3e b5 93 a8 bd
       -0.034539472 -0.24670865 0.14670129 -0.08231298
0000a0 78 cc 18 3e b8 56 b5 bd 00 7f 92 3b 50 b7 06 3e
       0.14921749 -0.08854431 0.004470706 0.13155866
0000b0 0b 14 3c 3e f0 84 67 3d 26 85 d7 bd f0 3b 7f bd
       0.18367021 0.056523263 -0.10523443 -0.06231302
0000c0 80 38 90 bc 8a 5f ad bc ed 43 cf bc c9 5c 51 be
       -0.017605066 -0.02116372 -0.025300944 -0.20445551
0000d0 08 51 13 bd 11 ce dd 3c f7 92 5d 3e b0 3c dd 3c
       -0.03596595 0.0270758 0.21638094 0.027006477
0000e0 98 7c bd bc eb 97 77 3e da c3 23 3e 09 a7 48 be
       -0.0231307 0.24179046 0.1599268 -0.19594969
0000f0 ee 94 b5 3d 48 8a a0 3d b4 23 14 be cb 23 86 ba
       0.08866297 0.07838875 -0.14466745 -0.0010234056
000100 40 59 1c 3d d0 0e ea 3c 21 fa cf 3c 65 29 07 bc
       0.038171053 0.028571516 0.025387825 -0.008249615
000110 e5 c6 de bd 2e 89 a2 bd ec 98 a2 bd 6c 2e d1 3d
       -0.1087778 -0.07936321 -0.07939324 0.102139324
000120 01 c2 6f 3e f6 16 7e 3e 7c fc 1b be 80 b7 19 3b
       0.2341385 0.24813446 -0.15233034 0.0023455322
000130 8d 21 8f bd b8 e3 77 bd 80 61 27 be 70 16 e7 bc
       -0.06988821 -0.060519904 -0.16345787 -0.028208941
000140 7c 58 52 3e 4b ba 09 3e 3a b6 5f be ca 3f 29 be
       0.20541567 0.13449971 -0.21846858 -0.1652824
000150 5b 0e 7b bd 4f b4 41 3e 2b 14 3d 3d 5f 34 ab bd
       -0.061292987 0.18916439 0.04616181 -0.08359598
000160 90 6e 35 bd 7e e4 5d be 76 b8 0b 3e 35 95 0a 3e
       -0.044294894 -0.21669194 0.13644585 0.1353348
000170 23 64 ec bc 93 81 74 3e 58 7f 37 3e 63 42 56 bd
       -0.028856343 0.23877554 0.17919672 -0.052309405
000180 2e 4f 03 be d4 8d 71 3e e7 40 7b 3e c8 e3 28 be
       -0.12823173 0.2358926 0.24536477 -0.16493142
000190 b6 d2 06 3e b5 58 8e 3c cb 2f 0c be fc ac f8 3d
       0.13166317 0.017376283 -0.13690107 0.12142369
0001a0 83 a8 ca bc b7 2e c1 3d 4c 74 27 3e 71 1a 06 bd
       -0.024738556 0.09432738 0.16352957 -0.03274006
0001b0 55 a0 df 3d 3c 54 61 be 1c 85 1a bd 2e 66 43 bd
       0.10919253 -0.22004789 -0.0377246 -0.047704868
0001c0 ce ae 25 be b4 95 4d be 85 cc 5e be bc 24 96 bc
       -0.16179964 -0.20076638 -0.21757706 -0.018328063
0001d0 82 65 3b 3e 8a 61 39 3e 81 be 0c 3e fa df b2 3d
       0.18300441 0.18103614 0.13744546 0.087341264
0001e0 3d 6f 08 3e 66 57 68 be 28 c9 31 3e 64 0c 80 3d
       0.13323684 -0.2268959 0.17361891 0.06252363
0001f0 ed 6c d6 bd ba c8 49 be c7 6a 8e 3e c1 da 04 3e
       -0.10469995 -0.19705477 0.2781584 0.12974073
000200 78 e8 47 bd e4 be 61 be d8 bf 60 be 6b 5a 1e bc
       -0.048805684 -0.22045475 -0.21948183 -0.009665112
000210 7c a7 1a 3d 01 93 13 3e 3c b1 cc bd 68 94 9f 3d
       0.03775738 0.14411546 -0.09994742 0.07791978
000220 f8 f6 ef 3d 80 a3 f0 bc 78 e3 9b bd 29 17 53 bd
       0.117170274 -0.029374838 -0.076117456 -0.05153576
000230 45 8c a7 bd 9a 28 01 be 2a 2c 13 be 96 f1 51 bd
       -0.08181051 -0.12613145 -0.14372316 -0.051255785
000240 20 0b 80 3c 1c 79 30 3e cf 8c 00 be 5d e7 a5 bd
       0.015630305 0.172337 -0.12553714 -0.0810077
000250 3b 56 13 3e f2 d9 be 3c a4 09 d1 3d e6 97 40 3e
       0.14388363 0.023297284 0.10206917 0.18807945
000260 e5 1f 4b bd 45 5e 2a 3e 00 42 47 3b a3 6c 9e 3d
       -0.049590964 0.16637523 0.003040433 0.077355646
000270 9c da ed bd 70 29 0f be cf 77 bc be 78 22 cc bd
       -0.11613962 -0.13980651 -0.36810157 -0.09967512
000280 bc 65 22 3e 50 d2 0c 3e 04 1d c7 bd 78 a9 bc bd
       0.15859121 0.13752103 -0.09722331 -0.09212011
000290 71 08 19 be 00 8a 1b be 41 97 5f be 68 f0 cf 3d
       -0.14944626 -0.15189362 -0.21835043 0.10153276
0002a0 cc d4 93 bd 6a cc 1b be a2 ea 20 be 33 e4 e4 3d
       -0.07218322 -0.15214697 -0.15714505 0.11176338
0002b0 06 bf 32 be 60 b7 d1 3d 61 80 17 3e ce 2c 9a bd
       -0.17455682 0.10240054 0.14795066 -0.07528077
0002c0 b4 fb f5 3d 80 55 7e bd fc cd 02 3e f4 b7 9e bd
       0.12010899 -0.062093258 0.1277389 -0.0774993
0002d0 be 62 57 be bc 40 87 bd 18 fa 36 3e 70 0e 05 be
       -0.21033761 -0.06604144 0.1786884 -0.12993789
0002e0 6e 93 37 3e 28 16 0c be f0 24 0c 3d 5a fa 55 3e
       0.17927334 -0.13680327 0.034214914 0.20896283
0002f0 8e 5a 54 be 60 79 36 3e 8c 2b 93 bd 1a 88 31 3e
       -0.20737669 0.17819738 -0.0718604 0.17337075
000300 b0 0c 0e be 99 8f 2a be ee a3 42 3e 53 21 35 be
       -0.13872027 -0.1665634 0.19007847 -0.17688493
000310 36 c6 7a bd 2a 28 73 3e c7 cb 74 3d a2 25 ab 3d
       -0.061224185 0.2374579 0.05976465 0.08356787
000320 78 5a 31 be 99 c0 5c be 38 7e ad bd f7 0d 66 bd
       -0.17319667 -0.21557845 -0.0847134 -0.05616566
000330 4e b3 64 3e 26 dc 3f 3e 4f 9e a7 3e 89 39 ad bc
       0.22334024 0.18736324 0.32737967 -0.021145599
000340 f8 78 76 3d 0b a4 b9 3d 44 61 3d 3e db 42 01 3e
       0.06017396 0.09064492 0.18494135 0.1262316
000350 91 f8 4c 3e a2 d2 00 3e 53 0c 03 be 04 58 bb bd
       0.20016696 0.1258035 -0.1279767 -0.09147647
000360 e8 43 0f be 37 cc 31 be 6c 01 8e bd f1 7b 67 3d
       -0.13990748 -0.17363058 -0.06933865 0.056514684
000370 98 9b 55 3e 87 c1 7c be 96 a0 93 3e 19 4e d9 bd
       0.20860136 -0.246832 0.28833455 -0.10610599
000380 8c f3 9c 3d ed 8f 49 be c5 9c 53 3d 7d 63 d5 bd
       0.076636404 -0.1968381 0.05166318 -0.104193665
000390 62 85 31 be 3d 88 33 3e 62 38 aa bd f6 f9 43 be
       -0.17336038 0.1753244 -0.083115354 -0.19138321
0003a0 c4 a3 12 3e c4 93 74 3e e0 18 b6 3c 50 73 86 bd
       0.14320284 0.23884493 0.022228658 -0.06564963
0003b0 88 2a 35 3e 47 18 19 be 93 b1 02 be 3c 28 8e 3d
       0.17692006 -0.14950667 -0.12763052 0.06941268
0003c0 30 e6 b1 3d c9 c8 4f 3e 8b 45 f7 3c 8c 3b 6d be
       0.08686483 0.20291437 0.030184528 -0.23167247
0003d0 5b 4c 8a 3d d9 51 78 3d 21 7b 1a be c7 5e 0c be
       0.06752845 0.06062493 -0.15086032 -0.1370803
0003e0 d1 b2 76 be db c2 47 bb 7a 37 6f 3e 94 a7 1f be
       -0.2409165 -0.0030481133 0.23361006 -0.1559127
0003f0 32 c6 20 3e d9 ce 6f 3d 62 98 b8 3e 09 ae d1 bd
       0.15700606 0.058546875 0.3605376 -0.10238273

linear_relu_stack1.2.bias f4 [16]
000000 b8 0e 46 bd 6c 30 11 3e fa 84 e7 3c 0a f1 9d 3d
       -0.04835388 0.14178628 0.02826165 0.0771199
000010 e1 f5 39 3e 45 6f 05 be 7f ad 24 3e c9 fc cc 3d
       0.18160202 -0.13030727 0.16081809 0.100091524
000020 6b f2 74 be 0b 4c 8d 3d 0b fa ac 3d 30 db 6a be
       -0.239206 0.0689927 0.084461294 -0.22935176
000030 bc 6a 2b 3e f5 3f de 3d f5 d9 cf bd 9b 53 13 ba
       0.16739935 0.108520426 -0.10148994 -0.0005620063

linear_relu_stack1.4.weight f4 [8, 16]
000000 11 21 6e be ef af 35 3d 5a 6e 7c 3e 42 03 5d bc
       -0.23254801 0.044357236 0.24651471 -0.013489546
000010 e4 29 10 3e 59 02 41 3e 54 cb 39 be 81 46 2f 3d
       0.1407848 0.18848552 -0.1814397 0.042791847
000020 2e 53 fe 3d 7e c8 a6 be 29 10 41 be da 21 34 3e
       0.12418209 -0.32574838 -0.18853821 0.17591038
000030 74 cf 92 3e 06 83 96 3e 26 43 95 3d 51 73 aa 3e
       0.286739 0.29396838 0.07288198 0.33291104
000040 d8 78 06 3e 8e ca 45 3e 06 32 b5 ba 6f e9 3c 3e
       0.13132036 0.1931555 -0.0013824112 0.18448423
000050 1a 2a 77 3e 43 68 02 3e c7 99 c1 bd 34 df 82 be
       0.24137154 0.12735085 -0.09453159 -0.25560915
000060 6f 74 c1 3c db df e5 3d f3 a9 29 3e d8 81 dd bd
       0.02361509 0.11224338 0.16568737 -0.10815781
000070 32 a4 6d be 26 b4 80 3e 1c 92 f3 3d 68 eb 0f 3e
       -0.23207167 0.25137442 0.118931025 0.14054644
000080 3a 3b 8d be 46 b7 2c 3e d2 19 7f be 8e 32 8c bc
       -0.2758425 0.16866788 -0.24912193 -0.01711395
000090 cc b1 7c 3e c8 d4 90 3d 2f 83 1f 3e e9 08 b1 3d
       0.24677199 0.07071835 0.15577386 0.086442776
0000a0 6d 98 57 3e 25 8f 32 be 75 cc 9c bb 28 90 4b 3d
       0.2105424 -0.17437418 -0.0047851154 0.049698025
0000b0 cb 4e e3 3d 94 c4 86 3e 5b 18 d6 3d b6 d1 a6 3d
       0.11099013 0.26321852 0.10453864 0.08145468
0000c0 ee 50 a0 3d 86 36 bd bd 8f 95 6d 3e 0c 44 85 3d
       0.07827936 -0.09238915 0.23201583 0.065071195
0000d0 ac 55 80 be 84 0c 81 be 4a 07 fc bd 59 ae 32 3e
       -0.25065362 -0.2520486 -0.12306078 0.17449321
0000e0 2a 41 02 bd 06 10 25 bd 2f 72 38 3e 0c 2e e0 bd
       -0.031800427 -0.040298484 0.18012308 -0.10946283
0000f0 3e c2 51 bd 4f 6c a7 bd 5e e0 83 bd c1 74 13 be
       -0.051210634 -0.08174955 -0.06439279 -0.14400007
000100 df ef a2 bd 1d ba d8 bd cb c4 a7 3c 5f 02 5f be
       -0.07955908 -0.10582373 0.02047958 -0.21778248
000110 7a ac 15 3e ce bf ff bd 8d ed 9f 3d 98 56 03 bd
       0.14616576 -0.12487756 0.07808981 -0.032065004
000120 59 67 5e 3e ad c3 7f bd 8e e2 56 bc 74 a7 5d 3e
       0.21719112 -0.06244247 -0.013115538 0.2164591
000130 2e 7f c3 3d ac 8f eb bd 6e ae 7b be 6e 1b 6d be
       0.09545742 -0.115020126 -0.24578258 -0.23154995
000140 8d 3a 91 3e 48 2e 1b 3e e3 df 58 be 27 13 63 3e
       0.28364983 0.15154374 -0.21179156 0.22175275
000150 3e c2 92 bb b4 14 5b be 7c 27 f1 bb 0d ad 9b bd
       -0.004478722 -0.21394616 -0.007359443 -0.07601366
000160 0e fd 68 3e d4 71 64 be ae 62 c0 bd d4 1e 05 3e
       0.22752783 -0.22309047 -0.09393822 0.13000041
000170 41 99 56 3e e5 50 42 be 01 c5 70 3d e3 7f 26 3c
       0.20956899 -0.18976171 0.058781628 0.0101623265
000180 f2 dd 3f 3e 17 da c5 3d 76 65 44 be 14 d7 08 3e
       0.18737009 0.09660738 -0.1917933 0.13363296
000190 9a 7e 47 3d e2 bf 7c be b1 06 7c bd 4b 1b 29 3d
       0.04870472 -0.24682572 -0.06152982 0.041285794
0001a0 72 94 24 be 91 45 7d be 58 86 ab bd c8 89 d6 bd
       -0.16072252 -0.24733569 -0.083752334 -0.104754984
0001b0 97 65 5e be b6 88 6e 3e 5d 85 38 bd ea c9 fe bd
       -0.21718441 0.23294339 -0.04504906 -0.12440856
0001c0 f0 c3 48 3e fd 96 60 3e 08 bd f3 bd 50 12 6a 3e
       0.19605994 0.21932597 -0.11901289 0.22858548
0001d0 9d b5 47 3e a3 5e 29 be 1d e4 3d be fc 6b d6 bd
       0.19502874 -0.16540007 -0.1854405 -0.10469815
0001e0 5e 40 c8 bd 0e cd c0 bd c9 11 6c 3e e8 c6 08 3e
       -0.09777902 -0.09414111 0.2305366 0.13357127
0001f0 80 58 35 bd c4 c1 83 be f4 f3 1a be cd 74 aa 3d
       -0.044273853 -0.2573377 -0.15132123 0.08323059

linear_relu_stack1.4.bias f4 [8]
000000 b9 c7 59 be 21 e5 61 3e 3b 04 71 be 04 fc 29 bd
       -0.21267594 0.22060062 -0.2353677 -0.041500106
000010 2c 7b 14 3e 73 ef 01 bd 4a 37 2e 3e db e4 6b be
       0.14500111 -0.031722497 0.17013279 -0.2303652
