NQE/results/NQEClassifier/fashion/4exp/model.pt (torch, 4295 bytes, 6 tensors)

linear_relu_stack1.0.weight f4 [16, 8]
000000 d0 3f 2b be 7e b5 b8 3d 6a 54 60 be ec 12 13 3e
       -0.16723561 0.09018992 -0.21907201 0.14362687
000010 7c 66 49 3e 32 6f bd bd ca b9 9d be 7b 53 8a 3e
       0.19668001 -0.092497244 -0.30805808 0.27016816
000020 19 0e db 3d 3d 93 4e 3e a2 2b e8 bd c5 9d 1e be
       0.10696048 0.20173354 -0.11336447 -0.15489872
000030 a0 74 8a 3d 20 f7 69 be b2 e4 a9 be 47 2c 4b bd
       0.06760526 -0.22848177 -0.33182293 -0.049602773
000040 ca dc f8 3d df 64 7d 3d af 95 6a be a3 ee 23 3e
       0.12151487 0.061863776 -0.22908662 0.16009001
000050 eb e6 14 be 9c 67 8c be f0 f7 82 bd 1b 34 88 3e
       -0.14541213 -0.27422798 -0.063949466 0.26602253
000060 b4 1e b3 bc 14 ec e2 be c1 30 ba 3e 39 93 92 3e
       -0.021865226 -0.44320738 0.3636532 0.28627947
000070 10 2d a1 3e a9 a4 50 3e e9 88 20 3e 12 d4 9a 3c
       0.31479692 0.20375313 0.15677227 0.018899951
000080 4e 41 99 bd 51 cd 69 be 73 8f 3a be ec 8b b0 3e
       -0.07483159 -0.22832228 -0.18218784 0.34481752
000090 28 a1 96 3e 5f f7 62 3e af cc 60 3e 2d 58 62 bd
       0.29419827 0.22164677 0.2195308 -0.055259872
0000a0 08 7a 93 3e e7 cc 9a bd 96 10 95 3e da 08 5b 3e
       0.2880404 -0.07558613 0.29114217 0.21390095
0000b0 47 ef 5b be 9e 0a 37 be c2 b9 22 be 0e c8 85 3e
       -0.21477996 -0.17875144 -0.15891173 0.26129192
0000c0 d6 eb 6b be f9 4f aa bc 29 84 80 be c4 bd 12 3e
       -0.23039183 -0.020790087 -0.2510083 0.14330202
0000d0 60 cb 4d bd 9c 02 96 bd 46 57 9f 3e 27 c2 91 be
       -0.05024278 -0.073247164 0.31121272 -0.2846844
0000e0 f3 fc f2 3d 87 17 ca 3d 88 cb a8 3e 10 c8 c0 bc
       0.118646525 0.09867769 0.32967782 -0.023532897
0000f0 c5 89 91 be 5c 76 86 be 5b 7d 0c be 5f 6a a2 be
       -0.28425422 -0.26262176 -0.13719694 -0.3172178
000100 b4 ce 9a be fc 1d 1e be ca e8 07 be dd fa 7c be
       -0.30235827 -0.15441126 -0.13272396 -0.24705072
000110 84 df 96 bd 84 1e 32 3e 1f 39 14 3e 15 5c a4 3e
       -0.07366851 0.17394453 0.14474915 0.32101503
000120 fd ca 9b be 3d 4c 92 bd 73 3e 99 be c2 05 7b 3e
       -0.30428305 -0.071434475 -0.29930457 0.24513915
000130 4b 8f aa be 14 10 1c be 5e ea bd 3d 94 c2 98 3e
       -0.3331245 -0.15240508 0.092732176 0.2983595
000140 81 64 5d be ca 6d 7a 3e f2 99 32 be 98 8f 99 bc
       -0.2162037 0.24455944 -0.17441538 -0.018745229
000150 df f6 11 3e 11 2e 17 3e 7a 2f 55 3e 69 fc 91 bd
       0.1425433 0.14763667 0.20818892 -0.071282215
000160 96 b7 0e be 80 3a 8a bd 74 43 84 3e 49 da c5 3e
       -0.1393722 -0.06749439 0.25832713 0.386431
000170 20 4c 07 3e 02 18 40 be b4 32 16 3e 08 ce 74 3e
       0.13212633 -0.18759158 0.14667779 0.2390672
000180 7d d8 9d 3e 0e a9 94 be 5d 49 49 be 51 6d 83 be
       0.3082923 -0.29035228 -0.19656892 -0.2566934
000190 13 9d 58 bd 44 f7 9d 3d c7 a5 bc bd a8 5f 40 be
       -0.052884173 0.07713178 -0.09211307 -0.1878649
0001a0 b4 2c 37 bb 66 e2 ac 3d 1a 59 98 3e 42 e2 c5 3d
       -0.002795023 0.084416196 0.2975548 0.09662296
0001b0 2e 72 15 be a5 93 cc bd 56 43 99 3c 8e c8 e4 3d
       -0.14594337 -0.099890985 0.018708866 0.11171065
0001c0 a5 ee 75 3e 87 8f 02 be 72 1d eb 3d 7d fe e8 3d
       0.24016817 -0.12750064 0.114802256 0.11376665
0001d0 c5 a6 82 3e 7c be e6 3d 2c 3a 57 be 9c 79 4f 3e
       0.2551786 0.11266801 -0.21018285 0.20261234
0001e0 ee 8d 41 3e 78 6c a8 bd 54 5d 7a 3e 20 83 b3 bd
       0.18901798 -0.08223814 0.24449664 -0.087652445
0001f0 97 08 85 bd ee 8d 99 bd e2 5b b4 3d 82 b2 5a be
       -0.06495779 -0.07497774 0.08806588 -0.21357158

linear_relu_stack1.0.bias f4 [16]
000000 37 cc a9 bd 61 99 cd bd b4 82 66 bd d9 c6 04 be
       -0.08290904 -0.1003902 -0.056276992 -0.1296648
000010 2d 04 02 3e 57 a6 a6 be 8b 8b a7 be d7 ef 33 3e
       0.12696905 -0.32548782 -0.3272365 0.1757196
000020 26 55 86 3d ea e6 cb bd d7 cf 7d 3e 54 83 68 bd
       0.065592095 -0.09956153 0.24786316 -0.05676587
000030 4e b4 19 be ac b5 8d 3d 86 7b a2 3e da 34 b6 be
       -0.15010187 0.06919417 0.31734866 -0.35587198

linear_relu_stack1.2.weight f4 [16, 16]
000000 65 c1 18 be 5f a2 80 3c c9 00 0b 3e 5c d7 6d be
       -0.14917524 0.015702425 0.13574518 -0.23226684
000010 4e 5a e6 3c dc be 99 3d c8 29 83 bd 4f 68 8c bc
       0.028119233 0.07507107 -0.064044535 -0.017139582
000020 64 59 07 be 76 2b 78 bc b9 62 50 3e 76 3b 04 be
       -0.13217694 -0.015147081 0.2035016 -0.12913308
000030 81 61 d5 3d af 97 05 be 7a 26 76 3e a6 d7 ad 3d
       0.10418988 -0.13046144 0.24038115 0.08488397
000040 90 d6 4c 3e b2 45 14 3e d0 e2 8f bd 0a 08 6f 3e
       0.20003724 0.14479712 -0.07025683 0.2334291
000050 9c 1e 67 3d 29 ab 57 be 60 40 73 be dd 8e 80 bd
       0.056425676 -0.21061386 -0.23755026 -0.06277249
000060 eb 20 f0 bd 3d 28 2d 3e 91 6c 94 3d 38 6e 1f be
       -0.117250286 0.16909881 0.0724727 -0.15569389
000070 87 7b b9 3c 6d 60 07 3e ac 26 79 3e 1d 28 62 be
       0.02264191 0.13220377 0.24331158 -0.22085615
000080 d4 7d 5f 3e f0 2c 4a be c1 eb 8d be 7e be af 3e
       0.21825343 -0.19743705 -0.27718928 0.34325022
000090 c0 dd 80 3e bc 26 ed 3d 10 a7 e9 bd 3c 1f 3f 3e
       0.25169182 0.115796536 -0.11408818 0.18664259
0000a0 22 f1 d3 bd a1 8c 5d be 82 81 76 be 98 d2 4d 3e
       -0.10348727 -0.21635677 -0.24072841 0.20099866
0000b0 92 ac 5a be 00 a6 73 bc 2b c3 06 be 2a 62 6d 3e
       -0.21354893 -0.01487112 -0.13160388 0.23181978
0000c0 a2 ae 93 3d 54 56 74 be fd a5 23 bd 1c 9b 38 be
       0.07211043 -0.23861057 -0.03995322 -0.1802792
0000d0 b3 e2 96 3d aa c6 b0 3d 27 13 4a be a5 fc 1a be
       0.07367458 0.08631642 -0.19733869 -0.15135439
0000e0 31 a3 45 be 00 64 c8 3d 1a 73 63 bd 08 35 e6 bd
       -0.19300534 0.097846985 -0.05552969 -0.11240584
0000f0 eb 03 ff bd 77 f7 0e 3e 83 ec e4 3d 37 9b 25 3e
       -0.12451919 0.13961588 0.111779235 0.16172491
000100 d8 11 7c 3e cd 1b 2f 3e a3 2a 09 be 90 af 62 be
       0.24616182 0.17100449 -0.13395171 -0.22137284
000110 a6 e8 93 3d 4b f8 a0 bc ce 65 5e bd 5a 1c ef bd
       0.072221085 -0.019649645 -0.054296307 -0.116753295
000120 48 64 60 be 93 6f b8 3c 47 ee 17 be 09 c4 1a 3e
       -0.21913254 0.02251414 -0.1483699 0.15113844
000130 c8 fb 85 3d de 09 fc 3c a4 23 24 be f8 1e 75 be
       0.06542164 0.030766424 -0.16029221 -0.23937595
000140 66 0b 2c 3d ac d9 20 3d 7a d3 84 3d 1f 64 82 3e
       0.042003058 0.039270088 0.064856485 0.2546701
000150 1a 6b 6e bc 08 c3 ca 3d fe 60 74 3d d1 8c 29 be
       -0.014551902 0.099004805 0.05966281 -0.16557623
000160 27 22 65 be 3b 06 74 be ae 12 30 be dc 4c 73 3e
       -0.2237631 -0.23830502 -0.17194626 0.23759788
000170 7b 57 a2 3d a4 f1 46 be e0 8b b7 3d 3d be 99 3d
       0.07926842 -0.19428116 0.08962226 0.07506988
000180 2c f0 4d 3d 10 95 d0 bd 36 1a cc bd b7 26 2e 3e
       0.050277874 -0.101846814 -0.09965937 0.17006956
000190 80 be 58 3d 08 69 f2 bd 91 ec 05 3d 79 60 e1 bd
       0.05291605 -0.11836439 0.03269631 -0.11004729
0001a0 48 b0 cd 3d 92 d1 59 be e9 b2 d5 3d 03 48 d6 3d
       0.100433886 -0.21271351 0.10434515 0.10462954
0001b0 90 b5 8e 3d 67 b1 80 3d e6 bc 42 be 3f d8 0b bd
       0.06968224 0.06283837 -0.19017372 -0.034141775
0001c0 a0 cc 00 be 52 c0 31 be 1a 9d 13 3e 62 e0 5b 3e
       -0.12578058 -0.1735852 0.14415398 0.21472314
0001d0 a8 77 e2 bd f0 3e 47 be 40 64 dc 3d 20 92 51 be
       -0.11057979 -0.19457603 0.10761309 -0.20465899
0001e0 3e fb 7c be 38 5c ea bd 40 4b 1d be 88 5e c3 bd
       -0.24705216 -0.114433706 -0.15360737 -0.09539515
0001f0 ec a9 b4 3d 44 0a 4d be 60 db be bd 90 11 a9 3c
       0.088214725 -0.20023447 -0.09319186 0.020638257
000200 51 29 65 be f2 b5 c2 3c d3 27 16 3e 7e 39 25 bc
       -0.22379042 0.023768399 0.14663629 -0.010084508
000210 0f 12 77 be 92 18 32 bb a4 09 23 3e af 53 7a 3e
       -0.24127983 -0.002717529 0.15921646 0.24445985
000220 56 72 06 be 66 01 d2 bd 06 a9 fb bd 5c 11 2f 3e
       -0.13129553 -0.10254173 -0.12288098 0.17096466
000230 fa e6 76 be 7d 53 25 be 15 71 16 3e e6 49 3b 3e
       -0.24111548 -0.1614513 0.14691575 0.18289909
000240 8b 99 b2 3d 40 52 18 3e a8 c1 15 3d 3b 6c 0d 3d
       0.08720692 0.14875126 0.036561638 0.034527045
000250 ea 2b ac bd cf d2 c2 3d 23 dc 25 3e 06 2f 54 be
       -0.084068134 0.09512865 0.16197257 -0.20721063
000260 48 7b 4a be b2 7d 9a 3c a8 c0 75 3e a4 0a 11 be
       -0.1977359 0.018858764 0.23999274 -0.14164215
000270 f4 67 98 3c db 35 89 3c bc 16 13 be ec 48 88 3d
       0.018604256 0.016749313 -0.14364141 0.06654534
000280 e8 d0 10 3d c7 e6 61 3d 06 86 04 3e 5e f6 3f 3d
       0.03535548 0.055151727 0.12941751 0.046865813
000290 47 86 39 3d 07 23 4b 3e 25 28 8e 3d 31 75 08 be
       0.045294072 0.1983758 0.06941251 -0.13325955
0002a0 53 24 15 be f2 48 74 3e 12 5c be bd 1f e9 6b 3c
       -0.14564638 0.23855951 -0.09294905 0.014398842
0002b0 2b 8b 49 3e 4f 31 15 3e c3 52 3f be c0 59 86 3c
       0.19681995 0.14569591 -0.18683915 0.016400218
0002c0 df 11 cc bc 29 da 3f 3e 72 62 0a be 84 a2 82 3e
       -0.024910865 0.18735565 -0.13514116 0.25514615
0002d0 b3 20 9c 3e 8d 7b f6 3d 89 82 d4 3d 6c ac 00 be
       0.30493698 0.12035284 0.1037646 -0.12565774
0002e0 b8 69 02 3e 75 54 74 bd 13 cc c4 3c 98 20 14 3e
       0.12735641 -0.059650857 0.024023091 0.14465559
0002f0 b7 d4 a0 bd bb 86 2b 3e ef d1 a1 3c e7 97 3d be
       -0.07853072 0.16750614 0.019753424 -0.18514977
000300 55 1c a9 bb 9e 3d 83 3d ae b3 28 be de 77 03 3e
       -0.005160848 0.06408237 -0.16474792 0.12838694
000310 3a 97 9c 3d 60 05 d3 3d bf 8c 22 3e d1 2b 8d 3d
       0.07646032 0.103037596 0.15874003 0.06893123
000320 43 a2 d6 3c 4a 63 67 be 96 26 bf 3d e1 b9 14 be
       0.02620042 -0.2259647 0.093335316 -0.14524032
000330 e2 c8 0c 3e 83 87 a3 3d fc 12 32 3e 0b 07 3f 3e
       0.13748506 0.07984831 0.17390054 0.1865503
000340 8d d7 af 3d 68 c9 3f be 49 cb d3 3d 93 1c 02 3e
       0.08586035 -0.18729174 0.10341508 0.12706213
000350 3e b6 6f 3d 13 2a 35 3e 80 60 0e 3e eb 26 fd bc
       0.05852341 0.17691831 0.13904 -0.030902347
000360 b2 92 02 bd 57 93 a2 bd 9c 93 94 3d c7 2e 57 3d
       -0.03187818 -0.07938259 0.07254717 0.052534845
000370 a4 8e 42 3e 06 39 b5 bd ac 17 29 be a5 cc 70 be
       0.18999726 -0.08848767 -0.16512936 -0.23515566
000380 b9 26 05 be 2b 0a 37 3e 15 5b c8 bd 88 82 28 be
       -0.13003053 0.17874973 -0.097829975 -0.16456044
000390 ff ae cb bd a7 a0 4d 3e 20 79 b1 3d ef a0 0e 3d
       -0.09945487 0.20080815 0.08665681 0.034821447
0003a0 13 b4 2d bd c2 be 73 3e 0f 48 4d 3e ae b7 03 3d
       -0.04240806 0.23803237 0.2004702 0.032157592
0003b0 45 22 70 be f4 e0 19 be 28 d7 03 3e 15 8d 0e bd
       -0.23450573 -0.15027219 0.12875044 -0.034802515
0003c0 b1 64 38 3e d7 0a 1d 3e d4 c0 01 3e d2 1f 1d 3d
       0.1800716 0.15336166 0.12671214 0.038360424
0003d0 4a e7 e6 bd 77 77 21 be 8d 3c 5a 3e 77 d2 87 bd
       -0.11274584 -0.15768228 0.21312161 -0.0663194
0003e0 9a 6c 49 be 35 f4 15 be fa 99 70 3e 4e d7 8e bd
       -0.19670334 -0.14643939 0.23496237 -0.0697466
0003f0 c0 fa d6 bc c7 62 2e be 80 4d 5f be 94 96 9f 3d
       -0.026242614 -0.17029868 -0.21806908 0.077923924

linear_relu_stack1.2.bias f4 [16]
000000 76 37 97 bd 5e 1c 65 be 09 45 c7 3d 1e 30 0a 3e
       -0.07383625 -0.22374102 0.09729964 0.13494918
000010 f6 fd ce bd 58 9a 35 bd fb 19 4f 3e 00 bc 25 bd
       -0.10107033 -0.044336647 0.20224755 -0.040462494
000020 ed 91 3d 3d 9d 18 06 3e 2f ad 9e bb 97 c9 41 3e
       0.046281744 0.13095327 -0.0048424224 0.18924557
000030 74 88 66 3d 0f 7e 6b 3e 5e 41 84 3d b5 58 7a 3e
       0.056282476 0.22997306 0.0645778 0.24447902

linear_relu_stack1.4.weight f4 [8, 16]
000000 cf 21 13 3e 08 bd 50 be 67 25 f2 bd 28 ef 55 be
       0.14368366 -0.2038461 -0.1182354 -0.20892012
000010 f1 02 55 3e e9 11 4d 3e db b8 30 3e a0 5e b0 bd
       0.20801903 0.20026363 0.17258017 -0.08611798
000020 17 a0 0e 3d dd fc 3a 3e db 4e 2b be ec 1f f3 3c
       0.034820642 0.18260522 -0.167293 0.029678307
000030 91 5e 70 be 9e 95 3a be d9 c5 12 3e eb fd 15 3e
       -0.23473574 -0.18221137 0.14333285 0.14647643
000040 72 aa d5 3c 52 2b 27 be a5 79 54 3e 11 3b 37 bd
       0.026082251 -0.16325119 0.20749529 -0.044734064
000050 9b cf 5a 3e 46 e3 0b be 7f ac 5a 3d e8 69 cb 3d
       0.21368258 -0.13660917 0.05338716 0.099323094
000060 0f bd 62 be b0 52 3a be c5 41 86 bd 66 ad ce bd
       -0.22142433 -0.18195605 -0.06555513 -0.10091667
000070 1f 6e eb bd 6d b0 db 3a f4 40 d0 bd b7 bc 75 be
       -0.11495613 0.0016760953 -0.10168639 -0.2399777
000080 ed 2f af 3c a8 db ad bd fe 65 a5 3d 06 c8 06 3e
       0.021385157 -0.08489162 0.08076094 0.1316224
000090 96 00 ec bd 79 4e f1 bd a0 9e 80 be 84 71 06 3e
       -0.11523549 -0.117825456 -0.2512102 0.1312924
0000a0 72 0f 36 3e d0 45 52 3d e1 ac 63 3d 64 cc 5b 3e
       0.1777933 0.05133611 0.055584792 0.21464688
0000b0 72 a1 df bd 30 66 25 3e e2 9d ee bd fd 13 f2 3d
       -0.10919465 0.16152263 -0.116512075 0.11820219
0000c0 54 58 f3 bd 60 f2 af 3c cd 15 ab 3e d7 f3 51 be
       -0.11882082 0.021477878 0.3341507 -0.20503174
0000d0 a1 99 04 be 1f 0d fb 3d eb fd 16 3c 0c 03 cf 3d
       -0.1294923 0.12258362 0.009215812 0.10108003
0000e0 42 91 03 3e 50 8d be 3c 9a fb 6e be 47 64 3c 3d
       0.1284838 0.023260742 -0.23338166 0.04599407
0000f0 17 3d 05 3d 20 8a 49 3e 5c d2 e2 3d 25 cf 8e bd
       0.032528963 0.19681597 0.11075279 -0.069731034
000100 c3 73 91 be ee b7 31 3e 25 0e 84 3e c6 23 cf 3c
       -0.28408632 0.1735532 0.2579204 0.025285613
000110 77 62 51 3e 0e be 58 3e f3 c8 d6 3c 78 69 d6 bd
       0.20447718 0.2116625 0.026218867 -0.10469335
000120 b1 d4 91 bd 43 93 b7 bc 7b 85 63 3e c0 2d 8a 3e
       -0.07120646 -0.022409087 0.22218888 0.2698803
000130 b7 e8 c5 bd 8b a6 0c be 1e 2e 88 be 40 b8 9d bd
       -0.096635275 -0.13735406 -0.26597685 -0.077011585
000140 95 da 25 3e cf 34 85 3e 90 e6 13 3e d9 d7 63 3c
       0.16196664 0.26016852 0.14443421 0.013906443
000150 21 9e b5 3d c3 df 5c 3e 10 45 08 bd c4 8c fe bd
       0.08868051 0.21569733 -0.033268988 -0.12429193
000160 7b 2a 6b bd 6d e2 82 be 78 ea 9a 3d 17 7d 54 ba
       -0.05741356 -0.25563374 0.075642526 -0.0008105798
000170 c5 f8 d4 3c 92 e5 56 be 21 eb 59 be fd 2b 6c 3e
       0.025997529 -0.20986012 -0.21281101 0.23063655
000180 56 1b 03 3e a2 3c 14 3e c4 76 80 3e 32 6e 01 bc
       0.12803397 0.14476255 0.2509061 -0.007899808
000190 c0 4d 15 3c 78 b8 80 3e 81 54 e4 bc f0 a7 4d 3e
       0.009112775 0.25140738 -0.027872326 0.20083594
0001a0 a7 3d cd bd 61 69 dc bc e7 75 c9 bd ba 69 df 3d
       -0.10021525 -0.026905717 -0.09836941 0.109088376
0001b0 f5 e2 49 3c c7 0e 59 3e 3f 2f 2f 3e a8 5f 1d be
       0.012322177 0.21197043 0.17107867 -0.15368521
0001c0 52 50 ae 3d bd 99 33 3c d1 a6 2b be 46 b9 20 be
       0.08511414 0.010961947 -0.16762854 -0.15695676
0001d0 da f9 ca bd 12 a6 9d 3d 10 78 ff bc 84 53 9e 3d
       -0.09910937 0.07697691 -0.03118518 0.07730773
0001e0 aa c1 13 be 0c e5 47 3d 3d e4 16 be f5 3c d4 bb
       -0.14429346 0.04880242 -0.14735503 -0.006476993
0001f0 d1 90 49 3e e4 d5 fa 3c 1e 30 66 be 71 d7 d2 3d
       0.1968415 0.03061957 -0.22479293 0.102949984

linear_relu_stack1.4.bias f4 [8]
000000 07 b8 d8 bc df dd 0d be ec 7d 32 3e ef 84 be 3d
       -0.026454939 -0.13854168 0.17430848 0.09302699
000010 aa 44 00 3e 32 cd 05 be d9 18 fc bd e0 31 09 be
       0.12526193 -0.13066557 -0.12309427 -0.13397932
