NQE/results/NQEClassifier/fashion/0exp/model.pt (torch, 4295 bytes, 6 tensors)

linear_relu_stack1.0.weight f4 [16, 8]
0	0x3e8b6cd9	0.27231482
1	0x3d91717c	0.071017236
2	0xbd63759e	-0.05553209
3	0xbe302dec	-0.17205018
4	0x3e61a474	0.2203539
5	0xbd3886f7	-0.045050588
6	0xbdeb9ce4	-0.11504534
7	0x3e8d030b	0.27541384
8	0x3cd5c810	0.026096374
9	0xbe577e0c	-0.21044177
10	0xbdc43205	-0.09579853
11	0xbcdd18db	-0.026989391
12	0x3eaa9d16	0.33322972
13	0x3e72f639	0.23726739
14	0x3e28054f	0.16408275
15	0x3e8bc267	0.27296755
16	0xbe287ea1	-0.16454555
17	0x3da83fe2	0.0821531
18	0x3ea836fa	0.32854444
19	0x3ebd10eb	0.3692697
20	0x3e8dd620	0.27702427
21	0x3e2e2ed8	0.17010057
22	0x3e015f42	0.12633994
23	0x3988824d	0.00026037023
24	0x3da6d860	0.08146739
25	0xbd120ecd	-0.035658646
26	0x3e832cc4	0.2562009
27	0xbe6a11a1	-0.22858287
28	0x3c0c647b	0.008568878
29	0x3e4dc5a8	0.20094931
30	0x3e993b8b	0.2992824
31	0xbd3c1c8c	-0.045925662
32	0xbdc9a950	-0.09846747
33	0x3e95ca63	0.2925597
34	0x3d19ec85	0.03757908
35	0x3e59f125	0.21283396
36	0xbe9c32d9	-0.30507544
37	0xbdaf7c39	-0.085686155
38	0x3d106a00	0.03525734
39	0x3d1e0448	0.0385783
40	0x3e9dbc8c	0.30807912
41	0x3e8d479a	0.2759369
42	0x3d6172fb	0.055041295
43	0x3da1b881	0.078965195
44	0xbd803110	-0.06259358
45	0xbe8d5d00	-0.27610016
46	0x3d97bd7a	0.07409187
47	0x3e895e0c	0.26829565
48	0x3d075930	0.03304404
49	0xbe42ea93	-0.19034795
50	0xbd25afcc	-0.040450856
51	0xbd993372	-0.074805155
52	0x3e776a81	0.24161722
53	0x3e793c1f	0.2433934
54	0x3ddc9942	0.10771419
55	0xbd7619a3	-0.060083043
56	0x3ea8adb3	0.32945022
57	0x3ea2188d	0.31659356
58	0xbdc3c9e2	-0.095599905
59	0xbe57536b	-0.21027915
60	0x3e52c2f9	0.20582189
61	0x3e035fbf	0.12829493
62	0xbe66686a	-0.22500768
63	0xbe986da6	-0.29771155
64	0x3e0b5e2d	0.13610144
65	0xbeb3931c	-0.35073173
66	0x3eb964ca	0.36209708
67	0x3e9b144d	0.30288926
68	0x3e81d819	0.25360182
69	0x3e408bbc	0.18803304
70	0xbea49b60	-0.32149792
71	0x3e037445	0.12837322
72	0xbe2467d2	-0.1605523
73	0xbea4a32b	-0.32155737
74	0x3d9e1354	0.0771853
75	0xbdb980db	-0.0905778
76	0x3eac2314	0.33620512
77	0xbe66727c	-0.2250461
78	0xbe96a214	-0.2942053
79	0x3e15bd12	0.14622906
80	0xbe9fbef3	-0.3120037
81	0xbe66b95c	-0.22531646
82	0xbd44fdb5	-0.048093516
83	0xbe5adf1a	-0.21374169
84	0xbe8473cf	-0.25869605
85	0x3e36c3e3	0.17848162
86	0x3e867da1	0.26267722
87	0x3dbbd659	0.09171743
88	0x3e717bca	0.23582378
89	0x3eabd9d7	0.33564636
90	0x3e9b81ca	0.3037246
91	0x3c621b5b	0.013800467
92	0x3e688ba6	0.22709522
93	0xbe763434	-0.24043351
94	0x3e7b77de	0.24557444
95	0x3e699f60	0.22814703
96	0x3e8f05c1	0.27934077
97	0xbc850793	-0.016238963
98	0xbe003aad	-0.12522383
99	0x3ddbfc23	0.10741451
100	0x3ea34011	0.31884816
101	0xbe40c186	-0.18823823
102	0x3dbfb987	0.093615584
103	0x3e28b4ad	0.16475172
104	0xbd15470f	-0.03644472
105	0x3ec1c577	0.37845966
106	0xbaabe7cb	-0.0013115344
107	0xbd540519	-0.051762674
108	0xbdec5779	-0.115401216
109	0xbe0551f9	-0.13019551
110	0x3ebbd4e7	0.3668587
111	0xbe155ae8	-0.14585459
112	0xbea89439	-0.32925585
113	0x3d8e7018	0.06954974
114	0xbe2c7101	-0.16839983
115	0xbe8bc22f	-0.27296588
116	0xbdccfcc1	-0.100091465
117	0xbdb304f4	-0.08741179
118	0x3d4b9893	0.049706053
119	0x3e3f2c95	0.1866935
120	0xbeb3c45e	-0.35110754
121	0xbeb00107	-0.34375784
122	0xbe59b04d	-0.2125866
123	0x3e423f86	0.18969545
124	0x3e13c595	0.1443084
125	0xbe9e84cd	-0.30960694
126	0x3e36f448	0.17866623
127	0xbe11e5ff	-0.14247893

linear_relu_stack1.0.bias f4 [16]
0	0xbdffe5a8	-0.12494975
1	0x3ea720e8	0.32642293
2	0x3d32ff7a	0.043700673
3	0xbdadf043	-0.08493092
4	0xbd89eb39	-0.06734318
5	0xbe7d99b5	-0.24765666
6	0xbe0f0e05	-0.13970192
7	0x3e0d82d0	0.13819432
8	0x3eb1348b	0.346104
9	0x3e572898	0.21011579
10	0xbd610f0c	-0.05494599
11	0x3e18a9df	0.1490855
12	0x3e6a1443	0.22859292
13	0xbe37662b	-0.17910068
14	0x3e9e07f1	0.30865434
15	0x3da5c206	0.08093648

linear_relu_stack1.2.weight f4 [16, 16]
0	0xbd2e7ef8	-0.042601556
1	0x3e34f39a	0.17671052
2	0x3e030b4c	0.12797278
3	0xbe517c9e	-0.20457694
4	0x3cdc6be0	0.026906908
5	0xbe5c530c	-0.21516055
6	0x3e2fc31c	0.17164272
7	0xbe5f951c	-0.21834224
8	0xbe6a3ef8	-0.22875583
9	0xbcc6c980	-0.024266005
10	0xbe3d6da6	-0.18498859
11	0xbe1619ae	-0.14658234
12	0xbe0c2936	-0.13687596
13	0xbd944a98	-0.0724079
14	0xbe7387da	-0.23782292
15	0x3e1dbf68	0.15405047
16	0xbe428926	-0.1899763
17	0x3e4c7846	0.19967756
18	0x3e4971ae	0.19672272
19	0xbd30dc38	-0.043178767
20	0xbd8a5ea2	-0.06756331
21	0xbdef5b61	-0.11687351
22	0xbddb443a	-0.107063726
23	0x3dc0d649	0.09415872
24	0x3e6bfd37	0.23045813
25	0x3c1e1e9a	0.009650851
26	0xbd1fd37d	-0.03902005
27	0xbe516783	-0.20449643
28	0xbe4378a7	-0.19088994
29	0x3e7133a5	0.23554857
30	0xbdff881b	-0.12477132
31	0xbd874f77	-0.066069536
32	0xbe790d2f	-0.24321435
33	0x3e5194bd	0.20466895
34	0x3d417e45	0.04723956
35	0xbe4c1366	-0.19929275
36	0xbce83257	-0.028344316
37	0x3cb1371f	0.02163273
38	0x3e5099b0	0.20371127
39	0xbd0117a2	-0.03151668
40	0x3e414cde	0.18876979
41	0x3e6705e5	0.22560842
42	0x3ddc3391	0.10752023
43	0xbddeebd1	-0.10884822
44	0xbe6905ef	-0.2275617
45	0xbe64ff6b	-0.22363059
46	0xbe175e9b	-0.14782183
47	0x3e0112ec	0.12604874
48	0xbe23e2e8	-0.16004527
49	0xbcfcb351	-0.030847223
50	0x3e460227	0.19336759
51	0x3e774ce8	0.24150431
52	0xbe2bf0ec	-0.16791123
53	0x3da5dc32	0.080986395
54	0x3bd6ecaf	0.0065589766
55	0xbd84eef7	-0.064908914
56	0xbd67e509	-0.05661491
57	0xbe8b1e34	-0.2717148
58	0x39ac522c	0.0003286762
59	0xbbfbb12d	-0.007681033
60	0x3d8893ff	0.06668853
61	0xbcf7fc32	-0.030271623
62	0xbe43f2ae	-0.19135544
63	0x3dadd3bb	0.0848765
64	0xbdd6dc44	-0.10491231
65	0x3e64d950	0.22348523
66	0xbdb19498	-0.0867092
67	0x3e414228	0.18872893
68	0xbe6817b4	-0.22665292
69	0x3e6619ba	0.22470751
70	0x3df2746c	0.11838612
71	0x3e097360	0.13422918
72	0xbe787152	-0.24261978
73	0x3d26eef0	0.040755212
74	0x3dcc2990	0.09968865
75	0xbe31267a	-0.17299834
76	0xbe23cfae	-0.15997192
77	0xbe2c0426	-0.16798458
78	0xbe7d18b4	-0.24716455
79	0x3e1b33b2	0.15156439
80	0x3de2f86b	0.11082538
81	0xbe123521	-0.1427808
82	0xbe8c6aba	-0.27425176
83	0x3e281ec3	0.16417985
84	0x3daf12da	0.085485175
85	0x3e135ee0	0.1439166
86	0xbe7e6a24	-0.24845177
87	0x3d5edbe5	0.054408927
88	0xbe1ea6ba	-0.15493289
89	0x3e77b785	0.24191101
90	0xbd045fa9	-0.03231779
91	0x3e4d67b7	0.20059095
92	0x3e2f113e	0.17096421
93	0x3db23e94	0.08703342
94	0xbca242c2	-0.019807223
95	0xbe45cb48	-0.19315827
96	0x3e5055a5	0.20345171
97	0xbe325552	-0.1741536
98	0x3e827980	0.25483322
99	0x3e07467d	0.13210483
100	0xbe7b45d6	-0.24538359
101	0xbd508f14	-0.0509177
102	0xbe21b406	-0.1579133
103	0x3e29ddea	0.1658856
104	0x3e2bdd48	0.16783631
105	0xbe09da7b	-0.1346225
106	0x3b720aeb	0.0036932777
107	0x3d1142f2	0.035464235
108	0x3ddae2b4	0.106877714
109	0xbe4bc667	-0.19899903
110	0x3df32399	0.11872024
111	0xbe135d52	-0.14391068
112	0xbe46ec87	-0.19426166
113	0x3d8dc6b3	0.069226645
114	0x3e88d10c	0.2672199
115	0x3e42da3a	0.1902856
116	0xbe542e26	-0.20720729
117	0xbe029a88	-0.12754261
118	0xbe153190	-0.14569688
119	0xbdb40f97	-0.08792036
120	0x3e7c4e3a	0.24639216
121	0x3de8dcff	0.11370277
122	0x3bd3009a	0.0064392807
123	0xbd85f25a	-0.065403655
124	0x3da89147	0.082308345
125	0x3db452be	0.08804844
126	0x3e0b26fd	0.13589092
127	0xbe7dfd41	-0.2480364
128	0x3e2c2996	0.16812739
129	0xbb8efc49	-0.004363571
130	0xbe44823d	-0.19190307
131	0xbe3d24eb	-0.18471114
132	0xbe7c7529	-0.24654068
133	0x3d47a764	0.04874362
134	0xbc7bc620	-0.015367061
135	0xbdc2b259	-0.09506673
136	0x3afc286c	0.0019238121
137	0x3e0aefb2	0.13567999
138	0xbdaf580c	-0.085617155
139	0x3da2deb8	0.079526365
140	0xbe084517	-0.13307606
141	0xbe2504f7	-0.16115175
142	0xbcad0509	-0.021120565
143	0x3e67f720	0.22652864
144	0x3e49236d	0.1964242
145	0x3df08863	0.11744764
146	0x3d8dcfa1	0.06924368
147	0x3dc5c5db	0.096568786
148	0xbe4da526	-0.2008253
149	0xbe387c80	-0.18016243
150	0xbe6e3e30	-0.2326591
151	0xbda817e6	-0.08207683
152	0x3d9e4ff7	0.07730096
153	0x3d069bf1	0.03286356
154	0xbe3227ed	-0.17398043
155	0x3d92eafb	0.07173725
156	0x3ceb1928	0.028698519
157	0xbb958926	-0.0045634685
158	0x3e2dfee9	0.16991772
159	0xbddc90a5	-0.10769776
160	0xbe1ceea4	-0.15325409
161	0xbddcf534	-0.10788956
162	0x3e46ee48	0.19426835
163	0xbe794182	-0.24341395
164	0xbe6b9f88	-0.23010075
165	0xbcca8c70	-0.024725169
166	0xbd252220	-0.040315747
167	0xbde504f4	-0.11182585
168	0xbdd905c8	-0.10596806
169	0xbdaf3c40	-0.08556414
170	0xbe40b48c	-0.18818873
171	0xbe7211b2	-0.23639563
172	0xbd5ed540	-0.05440259
173	0xbccc51d0	-0.024941355
174	0x3e7b4134	0.24536592
175	0xbe729b8e	-0.23692152
176	0x3e7ec144	0.24878412
177	0x3d3d4ea5	0.04621758
178	0xbd1d5d5a	-0.038419105
179	0xbe5d502c	-0.21612614
180	0x3ce6881b	0.028141072
181	0xbe02453c	-0.12721723
182	0xbe43bf68	-0.19115984
183	0x3e69de8b	0.228388
184	0x3cdd50db	0.027016094
185	0xbe24ca3f	-0.16092776
186	0xbd98a475	-0.07453243
187	0x3d8fb796	0.07017438
188	0xbd10ee75	-0.03538366
189	0x3e4b667a	0.1986331
190	0xbde11703	-0.10990717
191	0xbbe8f695	-0.007109473
192	0x3d676707	0.05649474
193	0xbe0c10ec	-0.1367833
194	0x3cb7517e	0.022377726
195	0x3e7b46d4	0.24538738
196	0x3e4c341d	0.19941755
197	0xbd82a093	-0.06378283
198	0x3e1b6a74	0.15177327
199	0xbea0aca0	-0.31381702
200	0x3ca6d76a	0.02036639
201	0xbe0469b1	-0.12930943
202	0xbe69ccdf	-0.22832058
203	0x3e61da9d	0.2205605
204	0xbd86a5b9	-0.06574578
205	0xbdc0d669	-0.094158955
206	0x3de77c29	0.113029785
207	0xbe6c7af3	-0.23093776
208	0xbbdfa8a7	-0.006825525
209	0xbe7bc6d7	-0.2458757
210	0x3dfcd75b	0.12345763
211	0xbdb02460	-0.08600688
212	0xbe3daca3	-0.18522887
213	0x3e18c723	0.14919715
214	0x3d0798e8	0.033104807
215	0x3d1271f2	0.035753198
216	0x3ddd8f48	0.10818344
217	0xbbfd9faa	-0.0077399807
218	0x3d1e497d	0.038644303
219	0xbd56bb21	-0.052424554
220	0xbc85b2cf	-0.016320614
221	0xbe0a1e45	-0.1348811
222	0xbe3c6675	-0.1839846
223	0xbb8cf5e3	-0.004301773
224	0x3d8a2998	0.06746215
225	0xbd76fa40	-0.06029725
226	0xbce0f9b0	-0.02746281
227	0x3da80a74	0.08205119
228	0xbe1cf3f0	-0.1532743
229	0xbe5d2d66	-0.2159935
230	0xbdf3fb74	-0.11913195
231	0xb9c58c00	-0.00037679076
232	0xbe396ac6	-0.18107137
233	0x3d2fb260	0.04289472
234	0x3df3c384	0.11902526
235	0xbe54c8ae	-0.20779678
236	0xbe17269c	-0.14760822
237	0x3cb112e0	0.021615446
238	0x3e2f78ea	0.17135969
239	0xbccb2ab0	-0.024800628
240	0x3da7da14	0.08195892
241	0x3e5210bc	0.20514196
242	0x3e94601d	0.2897958
243	0xbe202887	-0.1564046
244	0xbdf4e1ec	-0.11957154
245	0x3c5daa4b	0.013529371
246	0xbe61c3a9	-0.22047295
247	0xbea3a7b6	-0.3196389
248	0x3e8002c0	0.25002098
249	0x3d386480	0.04501772
250	0xbcb0e32c	-0.021592699
251	0xbe0e79c4	-0.13913637
252	0xbe698be1	-0.22807266
253	0xbe9092cc	-0.28236997
254	0xbaf59709	-0.0018737029
255	0x3db1ae64	0.086758405

linear_relu_stack1.2.bias f4 [16]
0	0xbd039430	-0.032123744
1	0xbdfd89c3	-0.123797916
2	0xbe415b3a	-0.18882456
3	0x3d4a8ff1	0.04945368
4	0xbe60b8f2	-0.21945551
5	0x3e26f244	0.16303355
6	0x3e11c3cd	0.14234848
7	0xbe5c206b	-0.21496741
8	0x3dc9c98e	0.09852897
9	0xbd88ab42	-0.0667329
10	0xbe1ec430	-0.15504527
11	0x3cadeccb	0.021231076
12	0x3e2b4ccd	0.16728516
13	0x3e7b1162	0.2451835
14	0xbda23d84	-0.079218894
15	0x3e394007	0.1809083

linear_relu_stack1.4.weight f4 [8, 16]
0	0xbd3426c0	-0.043982267
1	0xbc6c941d	-0.01443961
2	0x3cbcf543	0.023066169
3	0x3e210ac1	0.15726759
4	0x3d0f96e8	0.035056025
5	0x3e4c8c18	0.19975317
6	0xbe1d325c	-0.15351242
7	0xbd0b3afb	-0.033991795
8	0x3e4e6879	0.2015704
9	0xbdc14068	-0.09436113
10	0x3dbe1a38	0.092823446
11	0xbd8d4a40	-0.06898928
12	0xbd5cdbe7	-0.053920653
13	0xbcd78269	-0.026307302
14	0xbe1c4fce	-0.15264818
15	0xbe0f2492	-0.13978794
16	0xbe692932	-0.22769621
17	0xbdc7e8ad	-0.09761176
18	0x3e26ac4f	0.16276668
19	0x3e54b8cd	0.20773621
20	0xbd41eb80	-0.04734373
21	0x3dcea88f	0.10090744
22	0xbd4ac913	-0.049508166
23	0x3e34f61a	0.17672005
24	0x3e0ae798	0.13564909
25	0xbe40bcce	-0.18822023
26	0x3e4194c0	0.189044
27	0x3dc24ae6	0.09486942
28	0xbe16ab05	-0.14713676
29	0xbbb9dc2c	-0.0056719985
30	0x3ad3ef00	0.001616925
31	0xbe158c9d	-0.14604421
32	0xbdc70cf4	-0.097192675
33	0xbdca0ac5	-0.098653354
34	0xbd83357e	-0.06406687
35	0x3e481e53	0.19542818
36	0xbe095054	-0.13409549
37	0xbccf8739	-0.025333034
38	0xbc2c45ef	-0.01051472
39	0x3e529596	0.20564875
40	0x3e48961f	0.19588517
41	0x3e701510	0.23445535
42	0x3de77718	0.11302012
43	0xbe0fc9d5	-0.14041837
44	0x3d8b5ba9	0.06804592
45	0x3e3cdda8	0.1844393
46	0x3e77bdae	0.24193451
47	0x3d3b28af	0.045693096
48	0x3deb96d4	0.115033776
49	0x3e45fa4d	0.19333763
50	0x3d92679b	0.071486674
51	0x3e0fc76d	0.14040919
52	0x3dbdb9f0	0.092639804
53	0xbd0fe272	-0.035128064
54	0x3e0c2dea	0.1368939
55	0xbe6855f3	-0.22689037
56	0x3d18a88c	0.037270114
57	0x3e3befe7	0.18353234
58	0xbe3d6ede	-0.18499324
59	0x3d6a223c	0.057161555
60	0xbca25a26	-0.019818377
61	0x3d3444b1	0.04401082
62	0xbe29d62a	-0.16585603
63	0x3e673ebe	0.22582528
64	0xbc70d0c0	-0.014698207
65	0xbe082461	-0.13295127
66	0x3e3b2326	0.18275127
67	0x3e53a820	0.20669603
68	0x3e359968	0.17734301
69	0x3e060914	0.130894
70	0x3d886989	0.06660754
71	0x3ccfbbc4	0.025358088
72	0x3d900182	0.070315376
73	0xbe1ddffe	-0.15417477
74	0xbdcab118	-0.09897059
75	0xbe637ab0	-0.2221477
76	0x3e3e1d7a	0.18565932
77	0x3df466c3	0.11933663
78	0xbe7347a2	-0.23757794
79	0x3e67364a	0.22579303
80	0xbd043950	-0.03228122
81	0xbd9e470a	-0.077283934
82	0x3d52ec60	0.051494956
83	0x3e3a1507	0.18172084
84	0xbe12dab2	-0.14341238
85	0x3e5af0b1	0.21380879
86	0xbd344a18	-0.044015974
87	0x3d88c44b	0.06678065
88	0x3d18fdf7	0.037351575
89	0x3e0210aa	0.1270167
90	0x3e1e988e	0.15487882
91	0x3e1a3d28	0.15062392
92	0xbdf3aa93	-0.11897769
93	0xbd05bf77	-0.0326533
94	0x3ddee90c	0.10884294
95	0x3b486972	0.0030580428
96	0x3e13695a	0.14395657
97	0xbd9adcb0	-0.07561624
98	0xbdf1c93c	-0.118059605
99	0xbe085c03	-0.1331635
100	0xbe3bb1f4	-0.18329602
101	0x3e7c58ba	0.24643221
102	0xbdafb090	-0.085785985
103	0x3e4f5b2f	0.20249628
104	0x3e4a0fbe	0.19732568
105	0xbddc07a4	-0.10743645
106	0xbdacf278	-0.08444685
107	0x3d2ed821	0.042686585
108	0xbe12745f	-0.14302205
109	0x3d23a700	0.039954185
110	0xbe76114e	-0.24030039
111	0xbc68c1af	-0.014206334
112	0xbe72a6fe	-0.23696515
113	0x3e5b2eb6	0.21404538
114	0xbe82412b	-0.25440344
115	0x3e666f9a	0.2250351
116	0x3e602bc8	0.21891701
117	0xbe5aa760	-0.21352911
118	0x3de1f28a	0.11032589
119	0x3ea4402c	0.3208021
120	0x3e0799f9	0.1324233
121	0xbdadd53e	-0.08487938
122	0xbca78750	-0.020450264
123	0xbd8ce2f7	-0.068792276
124	0x3e7a26f7	0.24428926
125	0xbdf14cd8	-0.11782235
126	0x3d454ee0	0.048170924
127	0x3ed03bdb	0.40670666

linear_relu_stack1.4.bias f4 [8]
0	0x3e424b7c	0.18974108
1	0xbdbc5678	-0.0919618
2	0xbd2927fa	-0.04129789
3	0x3e19b0ad	0.15008803
4	0x3e36bc7a	0.17845336
5	0xbd3735a3	-0.044728886
6	0x3e072254	0.13196689
7	0xbe1135db	-0.141807
