NQE/results/CNN_NQEClassifier/mnist/1exp/model.pt (torch, 10171 bytes, 6 tensors)

nn_layer.0.weight f4 [1, 1, 3, 3]
0.08764094 0.4629297 0.40063855 0.07606003 -0.104035825 0.20624697 0.21450439 0.22167903
-0.20296374
00000000: 187d b33d 1f05 ed3e 7f20 cd3e 5cc5 9b3d
00000010: bc10 d5bd 6832 533e 0aa7 5b3e d4ff 623e
00000020: bad5 4fbe

nn_layer.3.weight f4 [1, 1, 3, 3]
0.36397475 0.17571858 0.035870932 -0.030869758 -0.31680632 0.27517605 0.17555262 -0.30314663
-0.24729152
00000000: e65a ba3e 92ef 333e 66ed 123d 93e2 fcbc
00000010: 7034 a2be e0e3 8c3e 11c4 333e 0936 9bbe
00000020: fd39 7dbe

nn_layer.7.weight f4 [32, 49]
0.044503793 0.14692368 0.037452348 -0.1108252 0.008535794 -0.039145537 -0.13547386 -0.0023600282
0.12215044 -0.06876263 0.015995098 -0.11070415 -0.061786182 -0.105249844 -0.05759545 0.011941997
-0.069835976 0.17042986 0.005663901 0.0917938 -0.08941309 0.10214452 0.086674415 0.08219185
0.1154064 -0.16783318 0.01712241 0.08014406 0.06046153 0.018286167 -0.06497586 0.1198991
0.10764433 0.22854148 0.081868276 -0.12336476 0.10770543 9.826606e-05 -0.08716467 0.10590754
0.09456344 0.15069571 0.057700284 0.118793525 -0.1253956 0.024125248 -0.011617427 -0.046573922
-0.105167024 0.068956435 0.11174384 -0.13780242 0.02369983 0.07154961 0.122259125 -0.058665168
0.068546355 -0.00027068236 -0.042577483 -0.07647658 0.10741761 0.10244291 0.03168469 -0.0734974
0.00041349183 -0.06478244 -0.14949588 -0.11211456 0.009373967 0.047549073 0.0869878 0.034180835
-0.08927778 -0.12580462 0.09744869 -0.053156983 -0.048438754 -0.11566092 -0.02372484 -0.07203532
-0.10735704 -0.039777014 -0.10046006 -0.1279544 0.0017236719 -0.0665087 0.04673568 -0.100259334
-0.08575086 0.0020081743 0.053616032 0.08864402 0.1063658 0.10955429 -0.09504863 -0.10051318
-0.06159321 -0.10012392 0.09871184 -0.017829016 0.07679036 0.02220644 0.12772089 -0.1000808
-0.08144639 -0.02003126 0.10334063 -0.12465535 -0.111225784 0.003370857 0.059284914 0.11318842
-0.019552896 -0.0050077485 -0.12524085 -0.087612264 -0.004732497 -0.061821055 -0.13291621 0.08188385
-0.01788627 0.005237622 -0.10861951 -0.04051697 -0.035873745 -0.014264887 -0.013278635 -0.0020959922
-0.08451135 -0.059769884 0.041655086 -0.13399917 0.13081492 -0.0074674855 0.10107204 -0.06155527
0.004781619 0.028976595 -0.09668604 0.08466121 0.08862806 -0.04187311 0.09484497 0.07340371
0.024651567 0.082094304 0.08096267 0.056909293 0.018420689 -0.07257676 0.024542224 0.028543368
0.096114784 -0.12672742 0.1002408 -0.13979211 -0.059296235 0.05737781 -0.039816886 0.08224716
0.053038575 0.017433615 0.024319835 -0.0024031063 -0.07669551 -0.04757978 -0.04954208 0.117370464
0.06813446 -0.008832694 0.024679199 0.03736791 -0.14335722 0.069022484 -0.116099335 -0.14368054
0.030718463 0.10835283 0.018941712 -0.04616004 0.068805926 0.12203751 0.02591063 0.012310579
-0.10536035 0.027374346 -0.11677327 -0.073550984 -0.013782585 -0.028455758 -0.13030344 0.13653798
0.04655012 -0.123423636 -0.06315285 0.096892335 0.025776075 -0.086498775 -0.034802355 -0.13539907
-0.0014649612 -0.039385132 0.019825317 -0.07154962 0.117418684 -0.04454754 -0.008980067 0.12422679
0.06467432 -0.1409243 0.032246538 -0.07715378 0.105237216 0.15629193 -0.13836162 0.04878713
0.014293082 -0.051389005 0.10568493 0.08851289 0.10830656 0.083821386 0.057483062 0.029863814
-0.06557485 -0.1341433 -0.0039559174 0.034339707 -0.093504176 0.10033358 0.09457835 0.13619009
0.062265173 0.017511232 -0.0572025 -0.0037804556 0.14539492 0.01186481 -0.022573411 0.094731905
0.09421014 0.04756654 0.048331622 0.040131766 0.11421979 0.13685913 -0.012915678 0.07087716
0.077258684 0.076223135 -0.13954253 0.034255058 0.070969306 -0.13358805 -0.0030922978 -0.038030237
00000000: 9c49 363d 2973 163e a267 193d 53f8 e2bd
00000010: b7d9 0b3c 1257 20bd a9b9 0abe b4aa 1abb
00000020: 032a fa3d 6cd3 8cbd 2708 833c dbb8 e2bd
00000030: 8213 7dbd 3b8d d7bd 35e9 6bbd 5ea8 433c
00000040: 2a06 8fbd 2a85 2e3e 3f98 b93b 63fe bb3d
00000050: 361e b7bd 2531 d13d 5b82 b13d 3354 a83d
00000060: 315a ec3d 76dc 2bbe 4c44 8c3c 9222 a43d
00000070: 82a6 773d dfcc 953c 1012 85bd a98d f53d
00000080: a174 dc3d c706 6a3e 8eaa a73d aaa6 fcbd
00000090: aa94 dc3d 3014 ce38 6483 b2bd 0de6 d83d
000000a0: 7aaa c13d fa4f 1a3e 2257 6c3d 054a f33d
000000b0: b467 00be 50a2 c53c 0557 3ebc 4cc4 3ebd
000000c0: cf61 d7bd 0839 8d3d f4d9 e43d 141c 0dbe
000000d0: 2526 c23c 9a88 923d fe62 fa3d e34a 70bd
000000e0: 0862 8c3d 5fea 8db9 ba65 2ebd c19f 9cbd
000000f0: c4fd db3d 97cd d13d cec7 013d ce85 96bd
00000100: efc9 d839 a8ac 84bd 7315 19be 529c e5bd
00000110: 4495 193c d1c2 423d a926 b23d 3401 0c3d
00000120: 45d7 b6bd edd2 00be 2e93 c73d 23bb 59bd
00000130: b767 46bd a2df ecbd 985a c2bc 4187 93bd
00000140: 02de dbbd 39ed 22bd 01be cdbd 7a06 03be
00000150: d5ec e13a b735 88bd ea6d 3f3d c454 cdbd
00000160: 269e afbd 939b 033b 7c9c 5b3d ff8a b53d
00000170: 50d6 d93d 005e e03d dba8 c2bd dbd9 cdbd
00000180: 2949 7cbd c50d cdbd 6f29 ca3d 280e 92bc
00000190: 4444 9d3d 48ea b53c 44c9 023e 2af7 ccbd
000001a0: 5dcd a6bd 9918 a4bc 41a4 d33d 4e4b ffbd
000001b0: 58ca e3bd 99e9 5c3b bdd4 723d 55cf e73d
000001c0: 652d a0bc 0a18 a4bb 233f 00be 0f6e b3bd
000001d0: 1013 9bbb 1338 7dbd 301b 08be b8b2 a73d
000001e0: 3a86 92bc 5ca0 ab3b e873 debd 1ff5 25bd
000001f0: 59f0 12bd 46b7 69bc a28e 59bc ea5c 09bb
00000200: 4914 adbd 44d1 74bd 869e 2a3d 1437 09be
00000210: 59f4 053e cfb1 f4bb dcfe ce3d 6121 7cbd
00000220: 21af 9c3b 5360 ed3c 5503 c6bd db62 ad3d
00000230: a182 b53d 2383 2bbd 143e c23d af54 963d
00000240: 15f2 c93c 0f21 a83d c2cf a53d b819 693d
00000250: fce6 963c 20a3 94bd c60c c93c c8d3 e93c
00000260: d4d7 c43d d5c4 01be 0c4b cd3d aa25 0fbe
00000270: 9ce0 72bd ff04 6b3d 0817 23bd 3371 a83d
00000280: fa3e 593d f1d0 8e3c 643a c73c 6f7d 1dbb
00000290: 8912 9dbd 04e3 42bd a3ec 4abd ed5f f03d
000002a0: 148a 8b3d 01b7 10bc 082c ca3c 180f 193d
000002b0: 3ccc 12be a95b 8d3d 7dc5 edbd fe20 13be
000002c0: 49a5 fb3c 17e8 dd3d a62b 9b3c 4f12 3dbd
000002d0: 1fea 8c3d cdee f93d 8842 d43c 50b2 493c
000002e0: 2bc7 d7bd 2a40 e03c d326 efbd e6a1 96bd
000002f0: 5ad0 61bc 0d1c e9bc 446e 05be 9dd0 0b3e
00000300: 57ab 3e3d 88c5 fcbd 4856 81bd 7d6f c63d
00000310: 5928 d33c 4526 b1bd ea8c 0ebd 0ea6 0abe
00000320: f103 c0ba 4e52 21bd b468 a23c 9b88 92bd
00000330: 3579 f03d 7b77 36bd 2221 13bc 9e6a fe3d
00000340: f873 843d 764e 10be f214 043d cd02 9ebd
00000350: 9c86 d73d fe0a 203e abae 0dbe 03d5 473d
00000360: 882d 6a3c 477d 52bd 5771 d83d 3f46 b53d
00000370: d4cf dd3d 8caa ab3d 5c73 6b3d f5a4 f43c
00000380: 1b4c 86bd dc5c 09be a4a0 81bb cba7 0c3d
00000390: 1e7f bfbd b17b cd3d 4bb2 c13d 6a75 0b3e
000003a0: c409 7f3d b773 8f3c 2b4d 6abd 85c1 77bb
000003b0: 68e2 143e 9f64 423c e0eb b8bc cd02 c23d
000003c0: 3ff1 c03d 22d5 423d 61f7 453d 3561 243d
000003d0: 11ec e93d cd24 0c3e 489c 53bc 0b28 913d
000003e0: cd39 9e3d e01a 9c3d 3de4 0ebe 084f 0c3d
000003f0: 5b58 913d 4ecb 08be 26a8 4abb 98c5 1bbd

nn_layer.7.bias f4 [32]
-0.06893016 0.060827825 -0.044943072 0.11063234 -0.11155908 -0.11304574 0.107155494 0.026278356
0.036730614 0.08839349 0.047299698 -0.14784603 0.025954267 0.07322712 -0.09027188 0.0321337
-0.011544205 0.076351844 -0.07161192 0.07746221 0.10666807 -0.009966961 0.13170762 -0.10014666
0.100390345 -0.022191307 0.11574936 0.10411091 0.10215544 -0.109201334 0.05189204 -0.069211535
00000000: 412b 8dbd 9926 793d 3a16 38bd 3593 e23d
00000010: 1679 e4bd 8684 e7bd 5774 db3d b545 d73c
00000020: d772 163d a507 b53d 54bd 413d f364 17be
00000030: 0b9e d43c 1af8 953d 77e0 b8bd a09e 033d
00000040: e823 3dbc 5b5e 9c3d 45a9 92bd 82a4 9e3d
00000050: ca74 da3d 774c 23bc 5dde 063e b119 cdbd
00000060: 7499 cd3d 8bca b5bc 000e ed3d 1a38 d53d
00000070: df36 d13d f3a4 dfbd bf8c 543d c7be 8dbd

nn_layer.8.weight f4 [8, 32]
0.13839042 0.029733682 -0.07208722 0.06570365 0.13254938 -0.034433562 0.14563693 -0.12061162
0.021429038 0.07386711 -0.022334449 0.009981826 0.015240242 -0.106206276 -0.004736103 -0.021197895
-0.068584986 -0.025072107 -0.045702625 0.059007604 -0.16564684 -0.040963564 0.07338074 -0.15581948
0.024227729 -0.14775655 0.020593375 0.0035499886 0.017158648 -0.014720238 0.1811242 -0.14833096
-0.01584663 0.11431791 0.026157906 -0.019216225 0.003980468 -0.039179534 0.061168622 -0.09408824
-0.102749206 -0.0306919 -0.04565027 0.09669784 0.13147743 0.068849355 0.099040784 -0.0068746856
0.07611151 -0.15194026 -0.03821099 -0.0064839446 0.14955217 -0.036143404 0.14043103 -0.018896759
0.042837214 -0.13705866 -0.002861699 -0.018536484 0.056905314 0.0625367 0.04610426 0.13327572
0.16245268 0.014975959 -0.031055344 -0.090114005 0.1525604 -0.093822755 -0.13220574 -0.044182897
-0.13855198 -0.18456885 0.13387203 0.031125862 -0.042499747 -0.13261455 0.00713031 -0.007933211
-0.030463718 -0.071636036 -0.07628709 0.10511467 -0.04214946 0.12863937 0.056120977 0.08684139
0.08238974 -0.15502103 0.13965665 -0.018090496 0.04875179 0.11933515 -0.049736448 0.09448179
-0.22579016 -0.02702008 0.01631268 0.07773567 0.07373935 0.026939105 -0.008235939 -0.06844734
-0.16012019 0.13356055 -0.19911642 0.14117558 0.013735447 -0.14262046 -0.18356518 0.08904795
-0.17384028 -0.17149973 -0.15641144 0.09803844 -0.11381795 -0.18323603 -0.18530375 -0.14127125
-0.022668011 0.0707016 -0.013397034 0.102997474 0.10602971 0.062289096 0.033370808 -0.12555207
0.088905096 -0.07497604 -0.11830791 0.11623589 -0.11260905 -0.0898511 -0.08627847 -0.005430963
-0.052769702 0.15929487 0.11541451 -0.09755773 -0.13919674 0.057494834 0.1020184 0.16789787
0.1205658 -0.05184751 -0.14083971 0.14875588 0.045513783 0.022743106 0.08346414 -0.12694302
-0.013453074 0.046663657 -0.034275804 0.04621532 0.12970194 0.030621462 -0.04477117 0.108309574
-0.1582055 -0.13506283 -0.11424203 -0.11736958 -0.012386369 -0.12068545 -0.020487506 -0.08272692
-0.01991736 0.02973344 0.15332706 0.008404921 -0.08161182 -0.08507003 0.016471285 -0.055322625
0.050338678 0.005663136 -0.07010032 -0.08561471 -0.038532354 0.042461045 0.0042298147 -0.108534396
0.06833463 -0.11076569 -0.0057297065 0.01567438 -0.095650226 -0.13104233 0.137526 0.069496915
-0.2823558 0.2193914 0.15125537 -0.141474 -0.13400988 0.12781146 -0.19024727 -0.09330258
-0.16152228 0.18992957 -0.03132163 0.26341495 0.031202529 0.044298016 -0.04588176 -0.07287667
-0.18623447 -0.051263947 0.17799649 -0.13317391 -0.0010893379 -0.2335681 -0.0988889 -0.0013367494
-0.13718873 -0.08743682 -0.14429358 0.04959491 -0.039810583 -0.1169608 0.14636523 -0.26267868
0.087371014 0.042486604 0.028008807 -0.18304265 -0.06126527 -0.0018495966 0.16036233 -0.15011711
-0.12412614 -0.014489684 -0.13167806 -0.034028593 0.005311795 0.07476872 -0.15644395 0.12414537
-0.08367868 0.063997574 0.1069369 -0.013359206 0.12728475 0.16345099 0.046233617 0.1156727
-0.1462566 0.1393384 -0.10090859 -0.12600116 0.15311922 0.1495216 -0.06696975 -0.07902633
00000000: 38b6 0d3e 0d94 f33c 77a2 93bd a38f 863d
00000010: 06bb 073e 350a 0dbd d921 153e 3a03 f7bd
00000020: f38b af3c a447 973d bcf6 b6bc d08a 233c
00000030: 35b2 793c ad82 d9bd 5031 9bbb 35a7 adbc
00000040: 4976 8cbd 0564 cdbc ad32 3bbd f5b1 713d
00000050: 539f 29be 69c9 27bd a448 963d 248f 1fbe
00000060: 3b79 c63c 7e4d 17be 70b3 a83c eda6 683b
00000070: 4b90 8c3c 272d 71bc 9f78 393e 12e4 17be
00000080: cbd0 81bc 821f ea3d 1b49 d63c 586b 9dbc
00000090: 966e 823b b87a 20bd f38b 7a3d 56b1 c0bd
000000a0: 2d6e d2bd 946d fbbc c7fb 3abd 8409 c63d
000000b0: 05a2 063e e400 8d3d e5d5 ca3d 0b45 e1bb
000000c0: 5ae0 9b3d 3a96 1bbe 2183 1cbd 4577 d4bb
000000d0: 3424 193e 1b0b 14bd 27cd 0f3e 60cd 9abc
000000e0: 1376 2f3d 1b59 0cbe 588b 3bbb d3d9 97bc
000000f0: 8c15 693d 3e13 803d d2d7 3c3d 6e79 083e
00000100: ff59 263e ba5d 753c c767 febc b18d b8bd
00000110: cb38 1c3e 2526 c0bd f160 07be 20f9 34bd
00000120: 92e0 0dbe 9eff 3cbe c015 093e aafb fe3c
00000130: 3714 2ebd 1ccc 07be 60a5 e93b 4cfa 01bc
00000140: 0c8f f9bc eab5 92bd 683c 9cbd 5c46 d73d
00000150: eaa4 2cbd 0aba 033e 1cdf 653d e6d9 b13d
00000160: f4bb a83d d5bd 1ebe 2702 0f3e 8532 94bc
00000170: f5af 473d fd65 f43d 72b8 4bbd ab7f c13d
00000180: 8935 67be 3759 ddbc 2ba2 853c e133 9f3d
00000190: a804 973d 66af dc3c 08f0 06bc 1e2e 8cbd
000001a0: 8cf6 23be 19c4 083e 2de5 4bbe 5590 103e
000001b0: a40a 613c 190b 12be 83f8 3bbe c65e b63d
000001c0: 3003 32be a09d 2fbe 522a 20be 61c8 c83d
000001d0: 6319 e9bd 3aa2 3bbe 44c0 3dbe 69a9 10be
000001e0: 44b2 b9bc 00cc 903d 3c7f 5bbc 57f0 d23d
000001f0: 1b26 d93d da22 7f3d d4af 083d b990 00be
00000200: e013 b63d 0a8d 99bd 6b4b f2bd 150d ee3d
00000210: 939f e6bd db03 b8bd c4b2 b0bd 38f6 b1bb
00000220: 0b25 58bd 321e 233e 715e ec3d 59cc c7bd
00000230: 9789 0ebe b47f 6b3d 06ef d03d 6bed 2b3e
00000240: 34eb f63d 0e5e 54bd 4938 10be 7653 183e
00000250: a96c 3a3d c04f ba3c 3fef aa3d 5afd 01be
00000260: 486a 5cbc 6422 3f3d c964 0cbd 464c 3d3d
00000270: 96d0 043e dcd9 fa3c f961 37bd 69d1 dd3d
00000280: 9f00 22be e94d 0abe baf7 e9bd 765f f0bd
00000290: 32f0 4abc ef29 f7bd 6ad5 a7bc bb6c a9bd
000002a0: bb29 a3bc 8b93 f33c c501 1d3e cbb4 093c
000002b0: 1924 a7bd 3239 aebd caee 863c fa99 62bd
000002c0: ee2f 4e3d d491 b93b c290 8fbd c456 afbd
000002d0: 1ad4 1dbd a2eb 2d3d 429a 8a3b 4847 debd
000002e0: 07f3 8b3d 1fd9 e2bd 43c0 bbbb 8f67 803c
000002f0: 44e4 c3bd f62f 06be 9ed3 0c3e 6654 8e3d
00000300: f090 90be 24a8 603e b0e2 1a3e 8fde 10be
00000310: e339 09be 02e1 023e 2ed0 42be 6c15 bfbd
00000320: 1966 25be e67c 423e 1c4b 00bd 53de 863e
00000330: 729c ff3c d671 353d 83ee 3bbd 5d40 95bd
00000340: 40b4 3ebe 25fa 51bd b644 363e be5e 08be
00000350: 1dc8 8eba 7a2c 6fbe 4386 cabd de35 afba
00000360: 347b 0cbe 1312 b3bd b2c1 13be 0824 4b3d
00000370: 6c10 23bd 2589 efbd c4e0 153e d27d 86be
00000380: 93ef b23d 6f06 2e3d ba72 e53c 886f 3bbe
00000390: 4bf1 7abd 2a6e f2ba 0636 243e 4db8 19be
000003a0: d835 febd 2466 6dbc 9dd6 06be 9161 0bbd
000003b0: 910e ae3b 5820 993d d832 20be ee3f fe3d
000003c0: ba5f abbd 2911 833d bc01 db3d 92e0 5abc
000003d0: ef56 023e b25f 273e 765f 3d3d cfe5 ec3d
000003e0: 4ac4 15be baae 0e3e 2aa9 cebd 7306 01be
000003f0: 49cb 1c3e 311c 193e 7027 89bd 8ed8 a1bd

nn_layer.8.bias f4 [8]
0.09497974 0.037464064 0.1602302 -0.25054967 0.060526073 0.1291655 0.063652754 -0.11398401
00000000: bd84 c23d eb73 193d 6313 243e 0c48 80be
00000010: 30ea 773d f643 043e 605c 823d 7370 e9bd
