NQE/results/NQEClassifier/mnist/1exp/model.pt (torch, 4295 bytes, 6 tensors)

linear_relu_stack1.0.weight f4 [16, 8]
00000000: 4030 15bc 8568 8a3e 8c54 91be b7eb 2bbe
00000010: b1d1 86bb caf8 84be 359c 6f3d 7602 583c
00000020: 08ee eb3e a807 3ebe e61f 8fbe 6ba8 4b3d
00000030: 59fb a3be 7be2 203e 2c8d 743e b0cd 1d3e
00000040: dd66 1ebd 9cb5 eb3d 2952 ae3e a0a7 e93c
00000050: b3d1 1f3e cd0d b23e 7d22 4bbd f7cb aabe
00000060: 455b 2dbe 0647 da3c 1769 4bbe c635 ccbd
00000070: caa6 35bd 263c 203e 407b b1be 5bc1 813e
00000080: 1a4b 89be bc99 843e a474 cbbd 5436 1a3d
00000090: 1284 d53d e134 9cbe 405d a6be 6b2a 863e
000000a0: 0118 33be a01e a2be 8380 6fbe 41a6 953e
000000b0: 7239 41bb 82a6 713e 00d0 19be 82f4 08be
000000c0: 3834 d73e 7bc7 953d 6cf6 533e f86b de3c
000000d0: 9631 823d 0d2d 9b3c 69ed 043e 9ea5 41be
000000e0: 7b44 82be 5c7e 123d 054c b43e 790c 32be
000000f0: 00de 863e b410 b43e 7ee5 9c3e 2241 e93b
00000100: c3bb 313e a72e 5c3e 40fa 8bbd d927 b13e
00000110: bec4 9ebe 6263 1cbc 3fd1 00be 0548 9f3e
00000120: 5c4b 03be e7ac 9fbe 227f 85be 7665 c33d
00000130: 9e3c afbe aca4 6dbe 3e8b 423e 1b33 8e3e
00000140: 6300 24bc fd62 04be 3a45 78be 4dfc 7bbd
00000150: 7be9 363e 22ba 373e 0e1c 95be 3551 733e
00000160: cece aabe 09c4 f6bd 4666 93be bea9 41be
00000170: 61dc 0cbe ca6b 8cbe 6f02 133d f893 493e
00000180: b34f 333e 3854 88be f4a9 273e 94ed bebd
00000190: 3cfd 983e d8db 6e3d afe1 1abe efe3 0cbc
000001a0: e439 b8bc 4465 563e 52b3 a23e 6960 be3d
000001b0: 606a 52be c81c 323e 5130 1c3e 39cb 953e
000001c0: 8354 083d 8eb9 77bc 982e 0cbd 903f c83d
000001d0: 1d1e 1dbe 67e0 5ebe e238 9d3d 68ec 523e
000001e0: d953 95bd 7955 b23d a65d 15be 3230 653e
000001f0: e911 b33e 61b7 a43e ca45 a8bd 5cca 9abe
-0.009105742 0.27032867 -0.28384817 -0.16789137 -0.0041143526 -0.2597106 0.05849858 0.0131841805
0.4608004 -0.18557608 -0.27954024 0.049721163 -0.320277 0.15711395 0.23881978 0.15410495
-0.038672317 0.115092486 0.34047058 0.028522313 0.15607338 0.34776154 -0.049593437 -0.33358738
-0.16929348 0.026645195 -0.19864307 -0.09971194 -0.044348516 0.15647945 -0.34664345 0.2534283
-0.2681511 0.2589854 -0.09934357 0.037649468 0.10425581 -0.30509093 -0.3249302 0.26204237
-0.17489626 -0.3166399 -0.23388867 0.29228404 -0.0029483703 0.23598674 -0.15020752 -0.13374522
0.42032027 0.073134385 0.20699471 0.027151093 0.06357114 0.01894238 0.1298119 -0.18910834
-0.2544287 0.035765037 0.35214248 -0.1738757 0.26341248 0.35168993 0.3064384 0.00711836
0.17356782 0.21502171 -0.06834841 0.34600714 -0.31009477 -0.009545179 -0.12579821 0.31109634
-0.12821716 -0.31186602 -0.26073557 0.095408365 -0.34225935 -0.23207349 0.18998429 0.27773365
-0.010009858 -0.12928386 -0.24245158 -0.06151991 0.17862503 0.17942098 -0.29122967 0.23761447
-0.33360904 -0.120491095 -0.28788966 -0.18912408 -0.13755943 -0.27425987 0.035890993 0.19685352
0.17510872 -0.26626754 0.16373426 -0.09322658 0.29880702 0.058315128 -0.15125154 -0.0085992655
-0.022488542 0.20937067 0.31777436 0.092957325 -0.20548391 0.17393792 0.15252806 0.2925661
0.03328372 -0.015119923 -0.034224123 0.097777486 -0.15343519 -0.2176529 0.07676865 0.20597994
-0.07291383 0.08707709 -0.14586505 0.22381666 0.34974602 0.32171157 -0.08216436 -0.30232513

linear_relu_stack1.0.bias f4 [16]
00000000: 7791 43be 3570 523e b693 aabd dde2 73be
00000010: b27e 87bd 5b68 793e cd7a edbd ad28 afbd
00000020: af1d 853b cd06 a03e 408e 85be 5c5b ddbd
00000030: d9ae dd3d ab1e e23d 7f41 633e 7f9e 393e
-0.19098459 0.20550616 -0.08328955 -0.2381701 -0.06615962 0.24356215 -0.11595688 -0.0855268
0.0040623765 0.3125519 -0.2608509 -0.10808441 0.10824365 0.11041006 0.22192954 0.18126868

linear_relu_stack1.2.weight f4 [16, 16]
00000000: 1009 06bd 9a9c 043e 18a0 2abe 1ca1 95bd
00000010: 6883 4fbe 2855 36be 9c6a 36be 8aed 473e
00000020: f8c2 0bbe ecab 63be 6631 60be 0eb4 373e
00000030: 3053 b2bd f4cc 4abe c08e 1c3e 0079 1abe
00000040: dd2d 18be 8bdc 943d dce9 a6bd b6ae 6fbe
00000050: 7317 6f3e f27f 58bd 295c 87be 4ff6 173e
00000060: 8e20 f3bd 40b1 f0bb 4739 4cbe 84a2 ad3d
00000070: 6bad 38bd 198d 993e fff2 a63d 3800 9fbc
00000080: e901 cb3c 1b7a 683d 7c87 02be 6040 54be
00000090: f01d f93d 7d4f 14be c24d 583e 66a0 61be
000000a0: e404 fa3d 0e5c 6ebe 82ad aabd 18c1 e2bd
000000b0: de86 013e ffb9 45be 641c cebd 31c9 7fbd
000000c0: 9e27 1a3e ce68 43bd f7f5 703e be71 7fbe
000000d0: 4885 583d 4e6a 723e b698 6e3e 3007 d13c
000000e0: 21e8 4e3e d06b 873d fd05 d1bd c4cb fc3d
000000f0: 64a3 95bd 04ae ddbd 7545 513e 7133 49be
00000100: e9df 32be e969 433d dd0e d4bd 64a4 f33d
00000110: 207e 2abc 9626 7c3e cef8 3dbe 733f 303e
00000120: 30e5 7b3d aef7 1c3e 2b1e 41be 307d 9b3c
00000130: 5a5d 023c 232d 1dbe 53c8 663d 6ece 143e
00000140: 7a68 b3bd 0987 97be 7a55 883d 8035 573e
00000150: d0e2 573d 2792 693e e5d3 02be 897a 923e
00000160: 758c 42bd d851 133d 0d43 603c 0059 d0ba
00000170: 6cfa 20be a1a3 413e a93c 263e c632 01be
00000180: d511 f83c e316 35be 37a7 52be c045 f93d
00000190: f501 67be f939 67be 3493 233e 32db 58bd
000001a0: d22d ecbd 74c2 7dbe 8c85 7b3e 402b 4c3d
000001b0: e538 3cbe 72e6 ae3d d451 a23d 193d 733e
000001c0: 1789 83bd 52e4 cb3a a081 72be 7065 d03c
000001d0: ba7c 2dbe cb3d 0dbe e9c1 fc3d a91e 0e3e
000001e0: dd04 a4bb 98a3 593d 9c0f 133e ee56 4dbe
000001f0: 8985 743e cb92 6bbe dc5b 5dbe ae7a 0b3e
00000200: f6e0 4c3e 1626 62be d807 fbbd 089c 43bd
00000210: c0b7 75be 584a 49bd 48dd 023e b06d c03c
00000220: 5841 00bd ea07 5fbe c2a8 4ebe fe23 3dbe
00000230: ae7d 22be b878 f2bd 20e0 fcbd 2860 483d
00000240: e8c2 fe3c 1196 813e 1e81 a23d 90d8 c13d
00000250: 4af5 1dbd 98c9 573e bc55 3a3e 0e60 1abe
00000260: 67fa 843e 3a75 193e 343d 193e da79 333e
00000270: dc31 533e 1c7b 6b3d 471e 8fbd a93c 653e
00000280: c892 59be 306d 03be bc54 5cbe ca39 35be
00000290: 9161 993b b533 4bbe 3a54 17be ea10 1bbc
000002a0: 3740 dcbc 6ca9 37be 9018 5b3e c00b 0dbd
000002b0: c6ee 7c3e f3be 313e 8a15 3f3e 276a 02be
000002c0: b5b6 2bbe fbe5 8f3d 151a 103e c080 60be
000002d0: f6f6 61be 3400 11be 9a1c 22be 62ac 1b3e
000002e0: 9d52 d2bd e4c4 45be 4ebf 453e ec86 d9bd
000002f0: 4242 40be 6ea1 ae3d 3fcd eabc 16d8 1abe
00000300: 8b89 f83c 4c66 24be dafa 113e 3ef8 783e
00000310: b59a 323c 3d69 1f3d cbd4 79bd 697c 003e
00000320: 118d ea3c bcf0 b43d f4d5 db3d 9473 443e
00000330: 95f9 153e d254 7bbd aca2 8dbd d0f8 86be
00000340: 9fed 293e 1aed 61be 2a7c 5f3d f279 6dbe
00000350: 8e79 fe3d 5bb2 aebd 08dd 873d a133 62be
00000360: b0fd 563e bc71 593e 6a96 50be f48e 2dbe
00000370: 02f6 433e 1ee0 e6bd 74f0 04bd 2110 dc3d
00000380: a681 2b3e 7a87 82be 184b 263e 3c19 e73d
00000390: 9e3b 823d 2044 32be 1430 4b3d 94e4 a83e
000003a0: 157e b7bd c451 e13d 3a12 353e c620 6ebe
000003b0: c49f 89be 92c6 ba3d 0709 43be a22a 403e
000003c0: 06c9 61be 995d f73d 87c2 00bd 5648 743e
000003d0: 9020 68bd 5f69 26be 81c9 523e d346 07be
000003e0: 6136 c03d e406 cc3d 63a4 7b3e d22a 54be
000003f0: 66fd f3bd 18a0 27be 6122 6b3e 0a97 d5bc
-0.032723486 0.12950364 -0.16662633 -0.0730612 -0.20264971 -0.17805922 -0.17814106 0.19524208
-0.13648593 -0.22233552 -0.21893844 0.17939779 -0.08707273 -0.19804746 0.1528883 -0.1508522
-0.14861245 0.07268628 -0.08150074 -0.2340649 0.23348789 -0.052856393 -0.264375 0.14840053
-0.11871444 -0.0073453486 -0.19943725 0.08478263 -0.04508726 0.2999046 0.081518166 -0.019409284
0.024781184 0.056757074 -0.12746996 -0.20727682 0.12163913 -0.14483447 0.21123412 -0.22033843
0.12207964 -0.23277304 -0.08333875 -0.11071986 0.12649104 -0.19309233 -0.10064009 -0.06244773
0.15054175 -0.04770737 0.23531328 -0.24945733 0.052861482 0.23673365 0.23300442 0.025516123
0.20205738 0.066123605 -0.1020622 0.12343553 -0.07306555 -0.108242065 0.20436652 -0.1964853
-0.17468227 0.047708426 -0.103543974 0.118965894 -0.010406047 0.24624094 -0.18551943 0.17211704
0.061497867 0.15328857 -0.18859164 0.018980592 0.007956827 -0.1534925 0.056343388 0.14531872
-0.08760162 -0.2959521 0.06656928 0.21016502 0.05270654 0.22809659 -0.12776144 0.28609112
-0.04749723 0.035966724 0.013687861 -0.0015895665 -0.15720528 0.18910076 0.16234078 -0.12617025
0.03028194 -0.17684512 -0.205716 0.12171507 -0.2255934 -0.22580709 0.15974122 -0.052943416
-0.11532177 -0.24781209 0.24562663 0.049845934 -0.18381079 0.08540048 0.07925764 0.23753776
-0.06422632 0.0015555716 -0.2368226 0.025438994 -0.1694211 -0.13793103 0.12341673 0.13878883
-0.0050054626 0.05313453 0.14361423 -0.20052692 0.23879065 -0.23005216 -0.21617073 0.13621017
0.20007691 -0.22084841 -0.122573555 -0.047756225 -0.23995876 -0.049143165 0.12779725 0.023489803
-0.031312317 -0.21780363 -0.20181563 -0.18470761 -0.15868255 -0.118394315 -0.12347436 0.048919827
0.031098798 0.25309804 0.079347834 0.09465134 -0.038564004 0.21072996 0.18196768 -0.15075704
0.25972292 0.14986125 0.14964753 0.17526951 0.20624489 0.057490453 -0.06988197 0.22386421
-0.21247399 -0.1283462 -0.21516699 -0.17697826 0.0046808203 -0.19843943 -0.14778224 -0.009464482
-0.026886089 -0.17935723 0.21396089 -0.034435034 0.2470046 0.17357998 0.1866056 -0.12735806
-0.16768916 0.07026287 0.1407245 -0.21924114 -0.22066864 -0.14160234 -0.15831223 0.15202478
-0.102696635 -0.19313389 0.19311258 -0.106214374 -0.18775275 0.08526884 -0.028662322 -0.15121493
0.030339023 -0.16054648 0.14255849 0.24313447 0.010901143 0.038918722 -0.06099395 0.12547459
0.028631719 0.08834979 0.10734168 0.19184715 0.14645989 -0.061360188 -0.06915793 -0.26361704
0.16594552 -0.22063103 0.05456177 -0.2319105 0.124255285 -0.08530112 0.06633955 -0.22090007
0.20995212 0.21234792 -0.20369878 -0.16949064 0.19136813 -0.11273216 -0.032455876 0.10745264
0.16748676 -0.25493985 0.16239583 0.1128411 0.06359027 -0.174088 0.049606398 0.3298689
-0.08959595 0.11001924 0.17682734 -0.2325469 -0.26879704 0.091199055 -0.19046412 0.18766263
-0.2204934 0.12078399 -0.031435516 0.23855719 -0.05667168 -0.16251133 0.2058468 -0.13210611
0.09385372 0.09962252 0.24574427 -0.2071946 -0.11913566 -0.16369665 0.22962333 -0.026072998

linear_relu_stack1.2.bias f4 [16]
00000000: 60ca 3cbe 968e 7f3d 4273 46be 35b5 793e
00000010: 68af aaba ee8b 6a3e 1a28 1cbe 67d6 0abe
00000020: 22bd 32be 9c7f 163e f442 f4bd be45 003e
00000030: c041 5a3e 06d4 0ebe e18b 103e 2e03 843e
-0.18436575 0.06239184 -0.19379905 0.24385531 -0.0013022246 0.22904941 -0.15249673 -0.1355835
-0.17454961 0.14697117 -0.11926833 0.12526605 0.21314144 -0.13948068 0.1411586 0.25783676

linear_relu_stack1.4.weight f4 [8, 16]
00000000: c044 33be d9f5 6b3e 86eb 323d 1b53 24bd
00000010: b799 72bd 1cf2 de3e 688e 21be 2d5a d9bd
00000020: 0ed4 42be d78a 6cbe ccc9 72be 47af b23e
00000030: 53dd 5a3d bd63 12bd ded1 a43e 7fae 8c3b
00000040: 5826 333d 26c0 283e 1526 033e e09e 333e
00000050: c10c 02be 7474 b6bd db64 43be addc 76bd
00000060: d644 1cbe 9648 b2bd 2d2e 70be e6ab 1c3e
00000070: bf2c 9abd ad7d 403e efa4 efbc c319 7f3d
00000080: 2061 d6bd 1c06 71be 476a 83bd bd8c 0a3e
00000090: 01ce 23bd 83ce 01be 520c 143e 114f 473d
000000a0: 2095 15bd 23d7 853e 59f7 61be 5c6c 4d3e
000000b0: 9821 0fbe 1421 6abe d7e8 5c3c 00ad 413e
000000c0: 4004 2abd 7ea8 41be 876a 3e3e 9708 53bd
000000d0: 16f2 82be f5b9 24be 4d3b 56bd d6ac e6bc
000000e0: a005 14bc 5a69 cfbd 395d b03c 7da0 a5bc
000000f0: 6510 64be f373 84bb 7ff1 bd3b de96 2c3e
00000100: 14e7 e03d eed2 60be dbb7 c53b 2438 dbbd
00000110: 004c 09be 9d79 50be b732 47bd b13b a13d
00000120: f892 103d 7e6c 7c3e 1eb6 56be a4cb 9ebd
00000130: 6e6d c8bd 8701 ba3d c925 debb d2c5 063e
00000140: cc45 f93d a349 a43c 37ec 99bd cd1a 1fbe
00000150: ac1c 933d ae1c e63c 442d 6e3e a4ee ba3d
00000160: 00b9 87ba 7c43 e83d 487b 963d 5e20 363e
00000170: 4299 ca3d 54eb eebb b73a 9cbc 5ba5 3c3e
00000180: 001c b13b f8e5 583b dd99 f63d a89f dc3d
00000190: e89c 393e e547 353e 8691 3f3d c44b 2e3e
000001a0: ea19 213e 5a34 4fbe f96a 603d 0470 87bd
000001b0: ab02 ae3d dbbd 6ebe 269b 183e 38a0 c1bd
000001c0: 88e0 583d 9f01 433e d535 30be 644f 643e
000001d0: 88de 3f3e 450b 08bd 1e19 7d3d 2c04 90bd
000001e0: e8a6 ea3d 5ccc 1dbe 2a9b 243d ea3c d1bd
000001f0: 73ae a33b 7ec4 7d3e 2c86 aabd e5cb 62be
-0.17506695 0.23043002 0.043681644 -0.040118318 -0.059228625 0.4354409 -0.1577698 -0.10612903
-0.19026205 -0.23099838 -0.23709792 0.3489935 0.053433727 -0.03573965 0.32191366 0.0042932625
0.04373774 0.16479549 0.12807496 0.17541075 -0.12700178 -0.089089304 -0.19081442 -0.060269047
-0.15260634 -0.08705251 -0.23455115 0.15299949 -0.07528066 0.18797942 -0.029253451 0.062280428
-0.10467744 -0.23537487 -0.06416755 0.1353025 -0.039991383 -0.12676434 0.14457825 0.048659388
-0.03651917 0.261407 -0.22067012 0.20060867 -0.13977659 -0.22864181 0.013483248 0.1891365
-0.04150796 -0.18911931 0.18595324 -0.051521864 -0.25575322 -0.16086562 -0.052302647 -0.028158586
-0.009034544 -0.10127516 0.021528827 -0.020218128 -0.22271879 -0.0040421425 0.005796611 0.16854426
0.10981575 -0.21955463 0.00603388 -0.10704067 -0.13407898 -0.20358892 -0.04863235 0.07872713
0.03529641 0.24650761 -0.2096791 -0.07753685 -0.09786497 0.090823226 -0.0067794067 0.131614
0.12171516 0.020054644 -0.075157575 -0.15537567 0.07183203 0.028089847 0.23259455 0.09127548
-0.0010354817 0.113409966 0.07347733 0.17785785 0.09892513 -0.007291237 -0.019070966 0.18422453
0.005404949 0.0033096056 0.12041066 0.107726395 0.18126261 0.17703207 0.04676964 0.1702109
0.15732542 -0.20234814 0.054789517 -0.06613162 0.084966026 -0.23314612 0.14902934 -0.094543874
0.052948505 0.19043587 -0.17208035 0.2229591 0.18737233 -0.033213872 0.06179153 -0.07032046
0.11457616 -0.15409988 0.04018704 -0.102166966 0.004995161 0.24781987 -0.083263725 -0.22148092

linear_relu_stack1.4.bias f4 [8]
00000000: 38f0 023d ff48 b0bd a90e 733d a543 2cbe
00000010: b634 19bd 9961 c1bd 0284 84bc f80e 873c
0.03196737 -0.08607673 0.059340153 -0.1682268 -0.037403785 -0.094424434 -0.016176227 0.01648663
