NQE/results/NQEClassifier/kmnist/2exp/model.pt (torch, 4295 bytes, 6 tensors)

linear_relu_stack1.0.weight f4 [16, 8]
0	0x3d8d9582	0.06913282
1	0xbd6dfe51	-0.058103863
2	0xbe2b7b6a	-0.16746297
3	0x3e7f489b	0.2493004
4	0x3e086d0c	0.13322848
5	0xbe33d9e1	-0.17563583
6	0x3dae91cc	0.08523902
7	0x3d827651	0.06370223
8	0xbe057055	-0.13031133
9	0x3e71ebbf	0.23625086
10	0xbe44da65	-0.19223936
11	0x3e21c257	0.15796791
12	0x3e9037b7	0.28167507
13	0x3e5473f7	0.20747362
14	0x3e1a92ae	0.15095016
15	0x3d2eda20	0.04268849
16	0x3e109fe9	0.14123501
17	0x3e1522cc	0.14564055
18	0xbe104c89	-0.14091696
19	0x3e9903da	0.2988575
20	0x3e035d9f	0.12828682
21	0x3d70b3f3	0.058765363
22	0xbe809d15	-0.25119844
23	0x3e02e63f	0.12783144
24	0xbe73f176	-0.23822579
25	0xbe55b0f8	-0.2086829
26	0xbe2b9469	-0.16755833
27	0x3e9c5537	0.30533764
28	0x3eaa4ab4	0.3326012
29	0x3e899771	0.26873353
30	0xbe6d2be2	-0.23161271
31	0x3ebe8461	0.37210372
32	0x3e956d33	0.29184875
33	0xbe1ca8f4	-0.15298826
34	0x3e680542	0.22658256
35	0x3e0af81a	0.13571206
36	0x3eb5e0be	0.35523027
37	0xbc25d5ea	-0.010121802
38	0xbd9ddf10	-0.077085614
39	0xbe8fc43b	-0.280794
40	0xbe3c4ef0	-0.18389487
41	0x3ed3af36	0.41344613
42	0xbe4e43a8	-0.20142996
43	0x3dcf506b	0.101227604
44	0x3ec09f25	0.37621418
45	0x3eb2b6eb	0.3490518
46	0x3e5d6d18	0.21623647
47	0xbe406590	-0.18788743
48	0xbd5c0b7a	-0.053721882
49	0x3dbfb962	0.09361531
50	0xbec895ac	-0.3917669
51	0x3e895887	0.26825354
52	0x3e38944a	0.18025318
53	0xbcc58bdb	-0.02411454
54	0xbeaad7a7	-0.33367655
55	0x3e0435ae	0.12911102
56	0xbe651083	-0.2236958
57	0x3dae2224	0.085026056
58	0x3e9dba08	0.30805993
59	0x3e0eafda	0.1393427
60	0x3e7e1f81	0.24816705
61	0xbe4497e4	-0.19198567
62	0xbdaa7786	-0.083235785
63	0xbdca7c0a	-0.0988694
64	0xbe295465	-0.165361
65	0x3e0a0abc	0.13480657
66	0xbe5b0610	-0.21389031
67	0xbe60b5c1	-0.21944334
68	0xbd36c02c	-0.044616863
69	0xbea7014a	-0.3261817
70	0xbe8d5096	-0.27600545
71	0x3e8508b4	0.25983202
72	0x3ecc6082	0.3991738
73	0xbd89095b	-0.066912375
74	0x3e7555b7	0.23958479
75	0xbe180b3f	-0.1484804
76	0x3e2f18b7	0.17099272
77	0x3d6035db	0.05473886
78	0x3ec9cff4	0.39416468
79	0x3e8f6786	0.2800867
80	0x3ed697c1	0.41912654
81	0xbe469cce	-0.19395754
82	0xbd22e725	-0.039771218
83	0xbdf0dee8	-0.11761266
84	0x3c2db44c	0.010602068
85	0x3e7cf036	0.24701008
86	0x3e756664	0.2396484
87	0x3d4b2a0d	0.04960065
88	0xbed9d50f	-0.42545363
89	0xbd1fdb5e	-0.039027564
90	0x3ec989e5	0.39363018
91	0xbea0d17b	-0.3140982
92	0x3e1505a9	0.1455294
93	0x3e69baa4	0.22825104
94	0x3e898a38	0.26863265
95	0x3e06ee91	0.13176943
96	0x3ef2e535	0.47440496
97	0xbd90477a	-0.07044883
98	0xbdb5fe7b	-0.08886429
99	0xbe0b407c	-0.13598818
100	0x3ea342ab	0.318868
101	0x3e5394ad	0.20662184
102	0xbe7b505f	-0.24542378
103	0x3e877e37	0.26463482
104	0x3e4fb3a6	0.20283374
105	0xbe18ec41	-0.14933874
106	0x3e8f097e	0.2793693
107	0xbdc458e7	-0.09587269
108	0x3da19014	0.07888809
109	0xbe5edcaa	-0.21763864
110	0x3dcadcb9	0.09905381
111	0x3ea0d3d8	0.31411624
112	0xbe80d6f7	-0.25164005
113	0x3d71d07a	0.05903671
114	0xbe916b1a	-0.28402025
115	0xbd394f4d	-0.045241643
116	0xbe5ab67e	-0.21358678
117	0x3e1f8f5b	0.1558203
118	0x3e10f343	0.14155297
119	0xbe2a5093	-0.16632299
120	0xbe1e7806	-0.15475473
121	0x3da839c5	0.08214144
122	0xbe3ed46e	-0.18635723
123	0xbdf72d9f	-0.120692484
124	0xbe8526d0	-0.26006174
125	0xbd84a345	-0.06476454
126	0x3e93df03	0.28881082
127	0xbe1140e6	-0.14184913

linear_relu_stack1.0.bias f4 [16]
0	0x3e673f44	0.22582728
1	0x3d595df8	0.05306813
2	0x3d83001a	0.06396504
3	0xbe93d472	-0.2887302
4	0x3e8a900c	0.27063024
5	0x3e1fa03b	0.15588467
6	0xbe599c87	-0.21251117
7	0x3df02c29	0.11727173
8	0x3e6085e1	0.21926071
9	0xbea0522f	-0.313127
10	0x3bf0991e	0.0073424717
11	0x3dbe1992	0.09282221
12	0xbd9330d2	-0.07187046
13	0x3d31b880	0.043388844
14	0x3e57e35a	0.21082821
15	0xbe4b8a5c	-0.19876999

linear_relu_stack1.2.weight f4 [16, 16]
0	0xbe52706c	-0.20550698
1	0x3e73b30f	0.23798774
2	0xbe01dfe9	-0.12683071
3	0xbe29b7b5	-0.16573985
4	0x3d31b59f	0.043386098
5	0x3e5ef98b	0.2177488
6	0xbb25524f	-0.0025226062
7	0x3e12136a	0.14265218
8	0x3e32f802	0.1747742
9	0x3ddc6098	0.10760611
10	0x3dd2eef9	0.10299487
11	0xbdc89018	-0.09793109
12	0xbdebe8ec	-0.11519036
13	0x3da807c4	0.08204606
14	0x3e09d70a	0.13460937
15	0x3e70dd92	0.23522022
16	0xbe4cf276	-0.20014367
17	0x3d6fcc78	0.058544606
18	0xbe360d44	-0.17778498
19	0x3de245b0	0.11048448
20	0x3e0cd53c	0.13753217
21	0x3e0c90de	0.13727137
22	0x3dd05478	0.10172361
23	0x3c4d43c0	0.01252836
24	0x3d916dd8	0.07101029
25	0xbe6def9e	-0.23235938
26	0x3e059056	0.13043341
27	0xbe7ccd68	-0.24687731
28	0xbe1f9084	-0.15582472
29	0x3dc61fb0	0.09674013
30	0x3e4eb7ce	0.20187303
31	0xbe783e22	-0.24242452
32	0xbe18a491	-0.14906527
33	0xbe07a229	-0.13245453
34	0xbe570093	-0.20996313
35	0xbe06d98a	-0.13168922
36	0x3ddaf081	0.10690404
37	0xbe0e9cdb	-0.13927023
38	0x3e11193a	0.1416978
39	0x3c620002	0.013793947
40	0xbde84a00	-0.113422394
41	0x3e14333b	0.14472668
42	0xbd20cdbc	-0.039258704
43	0x3de72c2a	0.112877205
44	0xbe1eb926	-0.15500316
45	0x3da21861	0.07914806
46	0xbe4a3c1a	-0.1974949
47	0x3d3f6bc0	0.046733618
48	0x3e72de69	0.23717655
49	0xbc7969b8	-0.015222959
50	0xbe3bc8d0	-0.18338323
51	0xbd938631	-0.07203329
52	0xbe0e593d	-0.13901229
53	0x3b98baec	0.0046609547
54	0x3e4deb5a	0.20109311
55	0xbe3a3914	-0.18185836
56	0x3e3091fc	0.17243189
57	0x3d951240	0.072788715
58	0x3cbc65c6	0.022997748
59	0x3da6c1e6	0.08142452
60	0x3c44b0ce	0.012005044
61	0xbc7481a1	-0.014923484
62	0xbd980b5e	-0.07424043
63	0x3e349e00	0.17638397
64	0xbd77283b	-0.0603411
65	0xbe3bcc44	-0.1833964
66	0x3dfceae8	0.12349492
67	0xba48fc4b	-0.0007666989
68	0x3d5335b4	0.051564887
69	0xbe615286	-0.22004136
70	0xbe3edf44	-0.18639857
71	0x3e3ee676	0.18642601
72	0xbc7c82e0	-0.015412062
73	0x3db9a9cc	0.09065589
74	0xbd1e945e	-0.038715713
75	0xbd82f341	-0.06394053
76	0xbd505013	-0.050857615
77	0xbb7a31b8	-0.0038176607
78	0x3e52f232	0.20600203
79	0x3e534b50	0.20634198
80	0xbac316cb	-0.0014884112
81	0x3e37f668	0.1796509
82	0xbb5500fd	-0.003250181
83	0x3d1d1e7f	0.03835916
84	0xbd8f66d6	-0.07002036
85	0x3e6e48f5	0.23270018
86	0xbad8bec8	-0.001653635
87	0x3c1aeea2	0.009456309
88	0xbdc5faf0	-0.09667003
89	0xbda7580d	-0.08171091
90	0xbe774e90	-0.24151063
91	0xbe5f09d8	-0.21781099
92	0xbd7f6abe	-0.062357657
93	0x3dc8c5e7	0.09803372
94	0x3e1b8cd4	0.1519044
95	0x3db961f1	0.09051884
96	0x3de172cd	0.11008225
97	0x3e38edb1	0.18059422
98	0xbe17df11	-0.14831187
99	0xbd939e2a	-0.07207902
100	0x3dc52330	0.09625852
101	0xbd1a3746	-0.03765037
102	0x3dd6b30e	0.10483371
103	0xbdcc81ae	-0.09985672
104	0xbe324494	-0.17408973
105	0xbd879965	-0.066210546
106	0xbe69d75a	-0.22836056
107	0xbc511606	-0.012761598
108	0xbdbb62cf	-0.091497056
109	0xbdb9b337	-0.09067386
110	0x3d7b9dc2	0.061429746
111	0xbdf5bd25	-0.11998967
112	0xbd051752	-0.032492943
113	0x3de7e5a2	0.11323096
114	0xbe5d58fc	-0.21615976
115	0x3e83e3be	0.2575969
116	0xbe4dbfb3	-0.20092659
117	0x3e0a75c5	0.13521488
118	0x3e6a3dd9	0.22875156
119	0x3d08bcb6	0.033383094
120	0x3e766b40	0.2406435
121	0xbd606b53	-0.054789852
122	0xbe2e8d46	-0.17046079
123	0xbe1f0f21	-0.15533115
124	0x3e542426	0.20716915
125	0x3d7df640	0.06200242
126	0xbd0df96e	-0.034661703
127	0xbe75c281	-0.23999979
128	0xbe34491f	-0.17606018
129	0xbda27eb4	-0.07934323
130	0x3e7f5d5a	0.24937955
131	0xbb948579	-0.0045325127
132	0x3dde9776	0.10868733
133	0x3def2435	0.11676828
134	0xbe5a85b5	-0.21340068
135	0xbe1d270f	-0.15346931
136	0xbd3d87e0	-0.04627216
137	0xbc912a1a	-0.01772027
138	0xbdc520ef	-0.09625422
139	0xbe3fd454	-0.1873334
140	0xbe000741	-0.12502767
141	0x3e563ed8	0.2092241
142	0xbe829fc3	-0.25512514
143	0x3e12acd3	0.1432374
144	0xbe3465e8	-0.17616999
145	0x3d6fe91e	0.058571927
146	0xbe7414bb	-0.23836033
147	0x3e2bc2a1	0.16773464
148	0x3e5fcaaf	0.21854661
149	0xbe458fa8	-0.19293082
150	0x3e68777c	0.2270183
151	0xbe53e324	-0.20692116
152	0xbe508f80	-0.20367241
153	0xbcd680d2	-0.026184473
154	0x3e2da004	0.16955572
155	0xbdeb2746	-0.114821
156	0xbceb1729	-0.028697567
157	0xbe6f0723	-0.23342566
158	0x3e55d346	0.20881376
159	0xbd92221c	-0.07135412
160	0x3cae7cd9	0.021299766
161	0xbc24ec33	-0.01006608
162	0x3dc15385	0.09439758
163	0xbe088a2f	-0.13333963
164	0x3c0081e1	0.007843466
165	0xbe15f835	-0.14645465
166	0xbd60c8dd	-0.05487906
167	0x3d30529a	0.043047525
168	0xbe251bb4	-0.16123849
169	0x3dacf5d1	0.08445323
170	0x3d493ec9	0.049132142
171	0x3e635488	0.22200215
172	0x3e2ce8ea	0.16885725
173	0x3da836c3	0.0821357
174	0xbe49f6ac	-0.19723004
175	0x3e5e4e7d	0.21709628
176	0x3e88f9a3	0.26752958
177	0xbbd568af	-0.0065127234
178	0xbd7fd0a9	-0.062454853
179	0xbe62378b	-0.220915
180	0x3eac71d0	0.33680582
181	0x3da2d004	0.07949832
182	0xbe7b6c00	-0.24552917
183	0xbe0f3ddc	-0.13988441
184	0x3b29b900	0.0025897622
185	0x3e407886	0.18795976
186	0x3e1dc4e4	0.15407139
187	0xbea6676b	-0.32500777
188	0x3e2656ec	0.16244096
189	0xbd8f5490	-0.06998551
190	0xbcea195b	-0.028576544
191	0xbcba60cf	-0.02275124
192	0x3e4965ce	0.19667742
193	0xbd73c5a5	-0.05951466
194	0x3e61ae41	0.22039129
195	0xbe572b95	-0.21012719
196	0xbe0539f0	-0.13010383
197	0x3e7b6d69	0.24553455
198	0x3e5425c4	0.20717531
199	0x3cd9a12e	0.026566114
200	0xbe0ca3e0	-0.13734388
201	0xbd107e55	-0.03527673
202	0x3bcf4710	0.00632561
203	0x3e368797	0.17825161
204	0x3e14329c	0.14472431
205	0x3e353f66	0.17699966
206	0x3e66d0d6	0.22540602
207	0x3de45289	0.11148555
208	0xbdfc2046	-0.12310843
209	0xbdd20423	-0.10254695
210	0x3e56c610	0.20973992
211	0x3e247e69	0.16063847
212	0xbdc26db2	-0.09493579
213	0x3e324309	0.17408384
214	0x3e2ba006	0.16760263
215	0xbc895e8b	-0.016768714
216	0xbe0d7326	-0.13813457
217	0x3d699d24	0.057034627
218	0xbda90008	-0.08251959
219	0x3ce855d3	0.028361237
220	0xbe3d4168	-0.18481982
221	0x3cf55e09	0.029952066
222	0x3e51b127	0.20477735
223	0xbd0df4e6	-0.03465738
224	0x3e215ed2	0.15758827
225	0xbcc53dc4	-0.024077304
226	0xbce8e1b7	-0.028427942
227	0x3e7e2642	0.24819282
228	0xbdd0f9fe	-0.10203932
229	0x3e7b94ae	0.24568436
230	0x3dc3e847	0.09565788
231	0x3e24180c	0.16024798
232	0x3e745d54	0.23863727
233	0xbe0af726	-0.13570842
234	0xbe4c1a61	-0.19931938
235	0x3eca19b9	0.3947275
236	0xbe6d2e53	-0.23162203
237	0x3db94570	0.09046447
238	0xbcd6bab7	-0.02621208
239	0xbe22b544	-0.1588946
240	0x3e451a44	0.19248301
241	0x3e75ef48	0.2401706
242	0x3bbf4ba0	0.0058378726
243	0xbdf9751a	-0.121805385
244	0xbe336986	-0.17520723
245	0xbd954105	-0.07287792
246	0xbe7118bd	-0.23544593
247	0x3cd71dd4	0.02625934
248	0xbe677150	-0.22601819
249	0xbda67b8a	-0.08129032
250	0x3e18cf97	0.14922939
251	0x3e54a988	0.20767796
252	0x3b9e441e	0.0048298975
253	0xbcc40c4a	-0.023931641
254	0xbdab6720	-0.08369279
255	0xbe2e86ed	-0.17043658

linear_relu_stack1.2.bias f4 [16]
0	0x3e2cdead	0.16881819
1	0xbe5932c2	-0.21210769
2	0xbe49d102	-0.19708636
3	0x3d0bf9ec	0.03417389
4	0xbe57c353	-0.21070604
5	0xbe63d2f4	-0.22248441
6	0x3e015324	0.12629372
7	0x3dc2c9a9	0.0951112
8	0x3e29f8a5	0.16598757
9	0xbd9ee88c	-0.077591985
10	0x3ddb895d	0.10719559
11	0xbd78f55f	-0.06078088
12	0xbe2cab73	-0.16862278
13	0xbd2c2045	-0.042022962
14	0xbd3b2f02	-0.045699127
15	0x3e3c7d0c	0.18407077

linear_relu_stack1.4.weight f4 [8, 16]
0	0x3e481910	0.1954081
1	0xbd6b2c20	-0.057415128
2	0x3d85283b	0.06501814
3	0x3d668966	0.056283377
4	0x3e0d6052	0.13806275
5	0xbe1e812f	-0.15478967
6	0x3e2bf7ba	0.16793719
7	0x3e590b95	0.21195824
8	0x3e7bace6	0.24577674
9	0x3d86c793	0.065810345
10	0xbe552f43	-0.2081881
11	0xbe61f5be	-0.220664
12	0xbdaffd2b	-0.0859321
13	0xbe0c80b8	-0.13720977
14	0xbe1acbc5	-0.15116794
15	0xbe3e65a5	-0.18593462
16	0xbdc7c1d9	-0.097537704
17	0xbe6c8b64	-0.23100048
18	0x3d1d88ae	0.038460426
19	0xbe543832	-0.20724562
20	0x3e2b0447	0.1670085
21	0x3e25dcc3	0.16197495
22	0xbe2d9b66	-0.16953811
23	0x3de59cb7	0.112115316
24	0xbe7d068c	-0.24709529
25	0xbe3fedb9	-0.18743028
26	0x3d3fa877	0.04679152
27	0xbe36e5b4	-0.17861062
28	0xbdcb5098	-0.099274814
29	0x3e2c7211	0.16840388
30	0x3e4d6e0c	0.20061511
31	0x3de15e44	0.11004308
32	0xbde94a4e	-0.113911256
33	0x3e0d550a	0.13801971
34	0x3bb311d1	0.0054647704
35	0x3d12235f	0.035678264
36	0xbdb3cdd8	-0.08779496
37	0xbcd96e9b	-0.026541999
38	0xbe711df2	-0.2354658
39	0x3db98d89	0.09060199
40	0xbe4b8829	-0.1987616
41	0xbd4e57ef	-0.05037683
42	0xbe266b1c	-0.16251796
43	0x3e79e2d3	0.24402933
44	0x3d2deee1	0.04246414
45	0xbe5c2420	-0.21498156
46	0xbe6c6565	-0.23085554
47	0x3e7791ea	0.24176756
48	0x3dd197a8	0.10234004
49	0xbd563ba0	-0.052302957
50	0x3dfce9f0	0.123493075
51	0x3dace430	0.08441961
52	0xbe70c169	-0.2351128
53	0xbe08f084	-0.13373
54	0xbe5a656c	-0.21327752
55	0xbdc2b6fd	-0.095075585
56	0xbe845908	-0.25849175
57	0xbe5f90af	-0.21832536
58	0xbe3e921f	-0.18610428
59	0xbe273953	-0.16330461
60	0xbd8936f6	-0.06699936
61	0x3e105f90	0.14098954
62	0x3ea044b6	0.31302422
63	0xbe4a4227	-0.19751798
64	0x3e0ec3ed	0.13941927
65	0x3da44234	0.0802044
66	0xbe58bed0	-0.21166539
67	0x3dc7ab6d	0.09749494
68	0x3e3b9f4b	0.18322484
69	0xbdc9b605	-0.098491706
70	0xbca98ca2	-0.020696942
71	0x3cf55367	0.029946996
72	0xbe1aaad0	-0.15104222
73	0xbdd051ca	-0.1017185
74	0x3d9a12b9	0.07523102
75	0x3e99a357	0.3000743
76	0xbde71ac8	-0.11284405
77	0xbdbe0e45	-0.092800654
78	0xbe586543	-0.21132378
79	0xbd7cc5a2	-0.061711915
80	0x3e0b43ad	0.13600035
81	0x3b7e6180	0.0038815439
82	0xbddc1322	-0.10745837
83	0x3db5682f	0.08857762
84	0xbd624df9	-0.05525014
85	0xbd6b9640	-0.057516336
86	0xbd03e245	-0.03219821
87	0x3e2faf87	0.17156802
88	0xbe2d6efd	-0.1693687
89	0x3c8d99c3	0.017285233
90	0xbcc140ad	-0.02359041
91	0xbeb63b21	-0.35591987
92	0xbe16eb2e	-0.14738151
93	0xbd097c48	-0.03356579
94	0x3e829155	0.25501505
95	0x3df69096	0.12039296
96	0x3e60432f	0.21900629
97	0x3e3032b6	0.17206845
98	0xbe1acce7	-0.15117227
99	0x3d68b5c3	0.056813966
100	0xbe4c9b85	-0.19981201
101	0x3d5f3293	0.05449159
102	0xbcbea1d3	-0.023270523
103	0xbe45ae03	-0.19304661
104	0x3e222fcf	0.1583855
105	0x3e1179b4	0.14206582
106	0x3d06fdc0	0.03295684
107	0xbd5c1d2b	-0.053738754
108	0xbe08c867	-0.13357697
109	0xbe6cdb75	-0.23130591
110	0xbe6afea0	-0.22948694
111	0x3db3e062	0.08783032
112	0x3e4566a4	0.19277436
113	0x3d6fea38	0.058572978
114	0xbe67da67	-0.22641908
115	0xbe8345b5	-0.2563912
116	0xbd2fa901	-0.042885784
117	0xbd6c928f	-0.057756957
118	0x3e16c7a9	0.14724602
119	0x3e24ff71	0.16113068
120	0x3ce2a526	0.02766664
121	0xbe0ccd41	-0.13750173
122	0x3e0c4194	0.13696891
123	0xbe86f9be	-0.26362413
124	0x3e862045	0.26196495
125	0x3e453dc6	0.19261846
126	0x3e6c48ac	0.23074597
127	0x3d763bdd	0.060115684

linear_relu_stack1.4.bias f4 [8]
0	0x3e6c2410	0.23060632
1	0xbc663c1e	-0.014052419
2	0x3d9d4095	0.07678334
3	0x3dc11694	0.094281346
4	0x3bbd628b	0.0057795695
5	0x3d855578	0.065104425
6	0x3c3191c8	0.01083798
7	0xbe596674	-0.21230489
