NQE/results/NQEClassifier/mnist/0exp/model.pt (torch, 4295 bytes, 6 tensors)

linear_relu_stack1.0.weight f4 [16, 8]
000000 1b d5 39 3e 69 a3 d8 3d 9f b6 05 3b 0b 77 4c bc
       0.181477 0.10578043 0.002040304 -0.012479554
000010 11 5b dc bc 5f 00 48 3e ca 7b 8a 3d ef 6f 8b 3e
       -0.026898893 0.19531392 0.06761892 0.27233836
000020 2b bf 69 bd 00 5f b2 bd 44 b0 78 3e 71 f2 11 3e
       -0.057067078 -0.08709526 0.2428599 0.1425264
000030 9d 75 5e 3e 7c 9b 1f 3e 10 9d 39 be 32 5a 4f 3e
       0.21724553 0.15586656 -0.18126321 0.2024925
000040 3d 94 4d 3e 96 48 18 be e1 a4 1e be 3e 68 92 3e
       0.2007608 -0.1487144 -0.15492584 0.28595155
000050 c7 b1 ca 3d 09 a7 00 3e 6c 69 86 3e c8 7e 1a be
       0.098971896 0.12563719 0.26252306 -0.15087426
000060 d4 c9 40 be f1 cb 93 be 53 fc 8e 3d 0b f5 9c be
       -0.18826991 -0.28866532 0.06981721 -0.30655703
000070 31 28 6f be fb 61 90 3e f0 c2 23 3d 47 6f b2 3e
       -0.23355176 0.28199753 0.03998083 0.34850523
000080 13 1d a4 bd d2 77 98 3e c5 8b 8a be ec 93 96 3d
       -0.08013358 0.29778916 -0.2705976 0.073524326
000090 10 f7 82 3e a2 a2 5e 3e 8f db d4 bd 22 3a 69 3e
       0.2557912 0.21741727 -0.1039344 0.22776082
0000a0 84 3c 35 bd c5 d8 a1 be 95 53 a4 be 60 0f a7 3e
       -0.044247165 -0.31610695 -0.32095018 0.32628918
0000b0 d5 29 78 3e b3 01 89 3d 99 96 87 3e c2 3c ae be
       0.24234708 0.06689777 0.26482084 -0.3403073
0000c0 ac 4c 7b be 48 cb 86 3e c8 41 7e bc c7 4e 07 be
       -0.24540967 0.26326966 -0.015518613 -0.13213645
0000d0 22 24 2b 3e 98 26 99 bb 00 f9 a3 be 2d 28 53 be
       0.16713002 -0.00467379 -0.3202591 -0.20620795
0000e0 0f b8 95 bd bc 98 8e be fe fe 77 3b e9 cf 8c 3e
       -0.07310497 -0.27850902 0.0037841196 0.27502373
0000f0 ae 72 19 be 37 73 b2 3e b1 f4 16 be 1c de a3 3e
       -0.14985153 0.34853527 -0.1474178 0.32005394
000100 29 fa 08 bf 7c 81 f7 3d 2d da 56 be 97 51 70 3e
       -0.53506714 0.12085244 -0.20981665 0.23468624
000110 26 f9 1d bd e0 7d 5e 3e d6 06 a0 3e 09 35 e5 3c
       -0.038567685 0.21727705 0.31255215 0.02797939
000120 55 ac 91 be a6 c3 07 be 84 0f d6 3e 7c 85 7d 3e
       -0.2845179 -0.13258228 0.41808712 0.24757951
000130 6b c0 f8 3d dd ba c7 3d ba fa 5a 3c 2a 53 b6 be
       0.12146076 0.09752438 0.013365442 -0.35610324
000140 57 8f 0e be b3 40 bb 3d a3 ed a7 3e 15 32 3b 3e
       -0.13921867 0.091432 0.3279849 0.18280824
000150 1c 56 3f be 4a b6 34 3e 7c bc 97 bd 5d db 0e 3e
       -0.18685192 0.17647663 -0.074089974 0.13950868
000160 1c b3 0d 3e 73 e5 78 be 7e 97 ab bd 33 f1 42 bd
       0.13837856 -0.24306278 -0.08378504 -0.047593307
000170 f6 fc 31 3c 0c f3 b1 bc 83 a1 0c be e4 22 a6 3e
       0.010863533 -0.02172234 -0.13733487 0.32448494
000180 8e f7 0d 3d 33 a0 9b 3d 9b 21 b4 3e ea d2 a3 bc
       0.034659915 0.07598915 0.3518189 -0.019998033
000190 98 ef 30 be de d7 ab 3e 6b b4 bd 3e 6d ac 11 be
       -0.17278898 0.3356313 0.3705171 -0.14225931
0001a0 74 29 8e bc cc 76 0f 3d 16 fc 7e 3e 15 91 5e bd
       -0.01735375 0.035025403 0.2490085 -0.05433758
0001b0 e6 f8 73 3e 69 16 a1 3d 9c 6f 68 3e aa fc 68 be
       0.23825416 0.078656025 0.22698826 -0.22752634
0001c0 51 b2 8c be 0c 3a 21 3e 47 09 ad 3e 5c 73 c9 3c
       -0.27479795 0.157448 0.3379614 0.02459114
0001d0 53 21 aa 3d 54 1c b6 be 83 40 fe 3d 24 5d 62 3d
       0.08307137 -0.35568488 0.124146484 0.055264607
0001e0 19 a2 96 3e ed 03 6e bd db 8c a3 3d 29 bd 5a be
       0.29420546 -0.058109213 0.079858504 -0.21361221
0001f0 68 cd 96 3e 95 a0 a8 3e f0 68 88 3e 8d 78 f0 3d
       0.29453588 0.32935014 0.2664256 0.11741743

linear_relu_stack1.0.bias f4 [16]
000000 7d bf f2 3b 96 14 80 3c 98 6a 61 be fd 6e 6e 3d
       0.007408081 0.015634816 -0.22013319 0.058211315
000010 97 66 3c bd 46 3f 59 be 17 cd 9b be 9a f0 4d 3e
       -0.045996275 -0.21215543 -0.3042991 0.20111313
000020 86 ab 66 3d 6e 75 bc 3e bd b4 b4 3e 52 2c 90 be
       0.05631592 0.36808342 0.35294142 -0.28158814
000030 35 d3 97 be 38 84 36 bd bb 11 d2 3c bf 77 f6 3d
       -0.29653326 -0.044559687 0.02564322 0.120345585

linear_relu_stack1.2.weight f4 [16, 16]
000000 9f 53 6f be ea 9e 8b 3d ed 8d c9 39 af 1a 85 3e
       -0.23371743 0.0681742 0.0003844345 0.2599692
000010 98 8c c6 3d 81 ad 9d bd ed 83 d8 3b 7d 4e a2 3d
       0.09694785 -0.07699109 0.0066075237 0.07925127
000020 9d f1 93 3e 62 32 76 3e 05 df f5 bc cc 04 29 3e
       0.28895274 0.24042657 -0.03001357 0.16505736
000030 2d d3 86 3e c3 bd 26 be 1f 01 74 3e d3 33 09 3e
       0.2633299 -0.16283326 0.23828553 0.13398676
000040 ae 86 09 3e ec 34 37 be 6a 47 35 3e 60 90 03 bc
       0.13430282 -0.17891282 0.17703024 -0.008030027
000050 0c 4b 60 be f0 01 90 bc 9a 1f 65 3e 04 d4 16 3e
       -0.21903628 -0.017579049 0.22375336 0.14729315
000060 10 82 87 bd 44 05 bc 3d 00 08 10 be 8c 15 c3 3d
       -0.06616604 0.09180692 -0.14065552 0.09525594
000070 98 ce 50 be ee 2b 29 3e ec 80 4f be 70 64 d3 bd
       -0.2039131 0.16520664 -0.20264024 -0.10321891
000080 84 92 a5 3d b5 03 74 3e 9e 2f 4d 3e 47 6f 3a be
       0.08084586 0.23829539 0.20037696 -0.18206511
000090 75 96 d6 3d e8 40 08 3d 31 b4 5d 3d 01 14 59 be
       0.10477916 0.033265024 0.054126922 -0.21199037
0000a0 ca e5 28 3e b8 2a b1 3a 61 7a 49 3e c5 e5 34 be
       0.16493908 0.001351676 0.1967559 -0.17665775
0000b0 a2 f6 05 be 97 51 d0 bd 7f 20 7b be 81 0f 0d 3e
       -0.13082364 -0.10171812 -0.24524115 0.13775446
0000c0 64 0c 13 be 84 1c f3 bd 6a 83 76 be 2e 30 22 be
       -0.14360195 -0.11870673 -0.24073568 -0.15838692
0000d0 74 30 2d 3e 44 75 85 3d 96 9c 3b be b4 58 a3 3d
       0.16913015 0.06516507 -0.18321452 0.07975903
0000e0 9a 22 28 be 1c 2c b3 bd 6c fb 24 be 52 be 50 be
       -0.1641945 -0.087486476 -0.16111535 -0.20385101
0000f0 3e 03 5a be 4e eb 73 be d0 c8 79 3d 24 a3 a8 bd
       -0.212903 -0.2382023 0.060982525 -0.082342416
000100 03 54 46 3e cb 18 3d bd 75 bf db bd 1e 01 81 3e
       0.19367985 -0.046166223 -0.10729877 0.25196165
000110 6a 8f f6 3c a6 89 44 3d 78 35 72 bd d9 35 a4 bd
       0.030097682 0.047982834 -0.059133023 -0.08018083
000120 2b 02 78 3e ee 2a 57 3e cc e9 ef bd b0 a1 91 bc
       0.24219577 0.2101247 -0.11714515 -0.017777294
000130 fd 57 e1 3d 8d ee 5b be 99 e8 50 be 32 2b 07 be
       0.110031106 -0.21477719 -0.20401229 -0.13200071
000140 6c 11 48 be 1e b7 42 3e f3 a2 fa bd 12 cb 98 3c
       -0.19537896 0.19015166 -0.12238111 0.018651519
000150 d2 36 86 3d d6 68 c3 bd 38 1d fc 3d 60 5a 97 be
       0.06553425 -0.0954148 0.123102605 -0.29561138
000160 60 3f 90 3e 62 a9 27 bc 51 f4 1d 3e b2 17 26 be
       0.2817335 -0.010233255 0.1542523 -0.16219977
000170 10 dc e0 3c 29 1f 9e 3d 93 ee 9e 3e a4 55 ee 3d
       0.027448684 0.07720787 0.31041393 0.116374284
000180 7c de 0b 3e 79 52 eb bd 30 bd a5 3d 44 09 47 3e
       0.1365909 -0.1149034 0.08092725 0.19437128
000190 32 33 47 bd ef ce 4b 3e 93 cc f5 bd 1d 6f 18 be
       -0.048632808 0.19903158 -0.1200191 -0.14886136
0001a0 84 f9 58 3e 1d b1 8c 3e 1c 30 5d 3e 85 33 df 3d
       0.21188933 0.27478877 0.21600384 0.108984984
0001b0 09 03 5b 3e 26 78 80 3e b7 52 53 3a 2e cc 89 be
       0.21387877 0.25091666 0.00080613367 -0.2691359
0001c0 8d bd 08 bc e2 80 43 be 53 f8 20 be 5f f5 39 3e
       -0.008345974 -0.19092134 -0.15719728 0.18160008
0001d0 9c c6 54 3e 58 21 32 3e 82 c8 2c be 74 89 eb bd
       0.20778888 0.17395532 -0.16873363 -0.115008265
0001e0 23 ce bb 3d 48 12 5b be 2f bb 0e 3d 5a 4a 84 bd
       0.09170177 -0.21393692 0.03484648 -0.06459494
0001f0 65 02 bf bc 65 a1 9f 3d 8b 77 d6 bb 9d b2 05 3e
       -0.023316571 0.077944554 -0.0065450124 0.13056417
000200 19 24 c7 bd 7d 6c 09 be 26 9c d9 bd cb e0 9d bd
       -0.09723682 -0.13420291 -0.10625486 -0.077088915
000210 88 b7 24 bd a6 19 98 3d d5 37 71 3e 51 ca 81 be
       -0.04021409 0.07426767 0.23556454 -0.25349668
000220 a0 72 40 3e af ae c2 3c f2 fb 29 be e2 49 b9 bd
       0.18793726 0.023764936 -0.16600016 -0.09047295
000230 ff 91 f4 3d 51 08 47 3e 6a 39 e1 3d e4 23 c7 3c
       0.11941909 0.19436766 0.10997279 0.024309106
000240 1a a5 68 bd d5 12 02 3e bf 81 14 3e d3 24 41 bc
       -0.056798078 0.12702496 0.14502619 -0.011788565
000250 74 ec ee bd 0b 3f 56 3e f6 ac 2d be cb 66 3c be
       -0.116661936 0.20922486 -0.1696051 -0.18398587
000260 24 9c b2 3d 17 1c 67 be 15 fb 6c be 9b a4 4b 3e
       0.08721188 -0.22569309 -0.23142655 0.19887011
000270 5a 8e 7a be b5 fb 03 be ca ab 6c be 83 d0 30 3e
       -0.24468365 -0.12888987 -0.23112407 0.17267041
000280 49 d8 33 3d 61 fa 04 be 45 f6 6d be a2 a3 4a be
       0.043907437 -0.12986137 -0.23238476 -0.19788983
000290 fa ef d5 bc cc f1 9a bd 7c d1 fb bd d0 7a 71 3e
       -0.026115406 -0.0756565 -0.12295815 0.23582006
0002a0 7b 7e 00 bd 08 e4 43 3e 00 b4 19 3b 7c 8f 71 be
       -0.03137062 0.19129956 0.0023453236 -0.23589891
0002b0 da 26 02 be 95 36 62 3d 0c a2 37 3e 87 8d 58 be
       -0.12710133 0.055227835 0.1793291 -0.21147738
0002c0 11 bd b3 bd f3 37 81 3d 72 c7 7b be 68 1c 06 3e
       -0.08776296 0.063094996 -0.24587801 0.13096774
0002d0 a0 7c bd 3d 1e d9 88 bd 14 c3 c1 bb 26 4b 86 bd
       0.09252286 -0.06682037 -0.0059131477 -0.06557302
0002e0 e0 5a 2a 3e 80 17 23 3e 90 8b da bc 91 17 59 be
       0.16636229 0.15926933 -0.026677877 -0.21200396
0002f0 06 3e e1 3d 8d f3 9d 3d bc ac 3b be 11 d5 f0 3d
       0.10998158 0.07712469 -0.18327612 0.11759389
000300 00 14 d5 bb e8 61 1e 3e 80 ad f1 bb e2 7b 5b be
       -0.0065026283 0.15467036 -0.007375419 -0.21433976
000310 44 47 69 be cc 77 c9 bd 90 b4 2b bd a0 71 d2 3c
       -0.22781092 -0.098373026 -0.041920245 0.025688946
000320 30 68 c4 bd ee 37 3d 3e 00 51 c6 bd 70 f7 a8 3c
       -0.09590185 0.18478367 -0.09683418 0.0206258
000330 10 2d eb bd c0 b4 b5 3b 6e 0c 08 be 20 96 0a bc
       -0.11483204 0.0055452287 -0.13285992 -0.008458644
000340 90 78 2e be 29 b0 d5 3d c0 fa 10 be e1 8e 1a be
       -0.17038178 0.104339905 -0.14158154 -0.15093566
000350 70 bb 3e 3e 17 be 4b 3e d3 81 c5 3c a1 89 f2 3c
       0.18626189 0.19896732 0.024109757 0.029606642
000360 28 31 0d be 3f 56 52 3d 17 0f b8 bd 8c 8b 66 3c
       -0.13788283 0.051351782 -0.08987253 0.0140713565
000370 11 aa 2e be 7a 26 3d 3e bf 68 08 be a7 52 30 3e
       -0.17057063 0.18471709 -0.13321207 0.1721903
000380 8e e7 56 3e e6 c5 6c 3d 25 d7 b4 3c e4 fe 78 be
       0.20986769 0.05780592 0.022075245 -0.24315983
000390 7f e4 9a 3d 52 b0 2c 3e d3 46 72 3e c1 67 e2 bc
       0.075631134 0.16864136 0.2365983 -0.027637364
0003a0 6d c6 3b be 33 c2 b8 bd 28 c2 5e 3e 1d 60 04 3d
       -0.18337412 -0.090214156 0.21753752 0.032318223
0003b0 c7 8d 60 3c a2 64 80 be d3 64 16 be d0 a2 6c 3c
       0.013705677 -0.25076777 -0.14686899 0.014443114
0003c0 cf 53 19 3e 7e b7 a8 bd 47 f0 03 3e 84 89 14 3e
       0.14973377 -0.08238123 0.12884627 0.14505583
0003d0 3d cc 4f be 0c bf 54 be 31 91 3e be 08 38 23 3e
       -0.20292754 -0.20776004 -0.18610074 0.15939343
0003e0 e0 77 88 3e 7f e3 4b 3e e2 26 9f 3d 72 2c 82 be
       0.26653957 0.19911002 0.07771088 -0.25424534
0003f0 6b 8e 6b be 0a ed c9 bd 6e 22 72 3e 8c 38 df bb
       -0.23003547 -0.09859665 0.23645946 -0.006812161

linear_relu_stack1.2.bias f4 [16]
000000 e0 c3 6a be ec 18 00 be 0a 6f 7a 3e 50 a0 b9 bc
       -0.22926283 -0.12509507 0.2445642 -0.02265945
000010 05 d4 88 3d 7b d8 f1 3c 26 92 4d be 0b 7c 7c be
       0.066810645 0.029522171 -0.20075282 -0.24656694
000020 9b 37 3a bd 87 77 22 3e 8b 7c fc bd 48 e7 e1 bd
       -0.045463186 0.15865909 -0.12328442 -0.110304415
000030 da a0 24 be 3b 11 72 be 49 0d 84 3e d9 f2 6d 3e
       -0.16076985 -0.23639385 0.25791386 0.2323717

linear_relu_stack1.4.weight f4 [8, 16]
000000 21 25 b7 bd d4 40 57 be a3 0e e7 bb 78 ae 3a be
       -0.08942629 -0.21020824 -0.0070513054 -0.18230617
000010 df a5 24 3e d7 c9 80 3e 8a 70 ce 3d 79 16 31 3e
       0.160789 0.25153992 0.10080059 0.17293729
000020 bd 49 48 3e 91 27 a2 3d b4 f4 3b 3e f8 86 1c 3e
       0.19559379 0.07917703 0.18355066 0.15285861
000030 d0 7c bd 3c 95 6b 95 3d db b4 14 3e e9 8a 43 be
       0.023130804 0.0729591 0.14522116 -0.19095959
000040 1d 25 c3 3d a0 24 c8 3c 4e 16 10 be 04 c1 c4 3d
       0.09528563 0.024431527 -0.14071009 0.09607127
000050 5e 20 33 3d 07 e0 36 3e 4f 93 80 3e 4f 24 0b bd
       0.04373204 0.17858897 0.25112388 -0.033970173
000060 b7 97 53 be f9 3c 42 be 92 f1 27 be a5 82 60 3d
       -0.20663343 -0.18968572 -0.16400746 0.054812092
000070 b4 b1 62 3e 32 f1 15 bd c1 59 1a be 49 7e 4f 3e
       0.22138101 -0.036606975 -0.15073301 0.20263018
000080 bf 6d a1 3e 80 7e 45 3c 31 41 11 bd 90 88 7c bd
       0.31529042 0.012054086 -0.035462562 -0.061653674
000090 41 5c dc bc 10 ec 15 3e ec 48 9b 3e 48 9b 30 3e
       -0.026899459 0.14640832 0.30329072 0.17246735
0000a0 4e ff f2 3d 9f 05 b5 3d e1 ea 45 3e 37 ec d6 3d
       0.11865102 0.08838963 0.1932788 0.10494273
0000b0 b4 6c 47 3e 3b bc b3 bc 27 c6 d9 bd d4 25 57 3d
       0.1947506 -0.021940341 -0.10633498 0.05252631
0000c0 de 39 75 3e 00 0f 14 bc b0 63 fb bd 86 8a 5c 3e
       0.23947856 -0.009036779 -0.12274873 0.21537217
0000d0 b3 45 f1 3c fa d1 7e be dc 99 66 3e e0 53 a0 bc
       0.02945218 -0.24884787 0.2251963 -0.019571245
0000e0 dd 48 eb bd 20 80 28 be 31 42 e8 bd 44 87 c2 3d
       -0.11488507 -0.16455126 -0.1134075 0.09498456
0000f0 40 16 29 3c 20 cf 65 be e1 19 b2 3d 27 07 65 be
       0.010320246 -0.22442293 0.08696342 -0.2236601
000100 71 a3 21 3d 50 6f b5 bc fe 43 4e bd 40 6d 1e bd
       0.03946251 -0.022147804 -0.05035781 -0.038678408
000110 d2 44 cd bb 59 4d 28 3e 9f 49 ea bd 79 98 1e be
       -0.0062643075 0.16435756 -0.11439823 -0.15487851
000120 2f e2 3c be 58 29 81 3d e1 44 3a 3e af 6a 27 be
       -0.18445657 0.06306714 0.18190338 -0.1634929
000130 60 56 d3 bd 99 ab 23 3d ff 74 37 be e3 72 1b bd
       -0.10319209 0.03995857 -0.17915724 -0.03795136
000140 44 ab 34 3e 4c e7 30 be fe a8 73 3d 6e 5c 5e 3e
       0.17643458 -0.17275733 0.059487335 0.21714947
000150 6e f4 6b 3e 55 98 31 3e 26 61 28 3e 13 97 79 bb
       0.23042461 0.17343266 0.16443309 -0.0038084432
000160 74 4f 8d 3b 9e 36 a9 bd c1 d5 3c bd c4 29 7a bc
       0.00431245 -0.082623705 -0.04610229 -0.015268747
000170 96 5c 66 3e 22 bf bd bd 5a 1d 97 be ed 42 14 3e
       0.22496256 -0.09264971 -0.2951458 0.14478655
000180 2e 14 80 3e d8 e8 08 bd bb 9c 39 be 7a db 0f 3e
       0.25015396 -0.033425182 -0.18126194 0.14048567
000190 8d 9d 69 bd 83 ae 95 3e 38 ba 7c 3e 5c bf 77 3d
       -0.057035018 0.29234704 0.24680412 0.06048523
0001a0 e9 2c 9d bd a4 e5 e3 3d 3a 6d eb 3d d6 a8 15 3e
       -0.076745816 0.11127785 0.11495443 0.14615187
0001b0 d2 82 13 be a9 4b ed 3c 93 14 3a be 42 01 08 3d
       -0.14405373 0.028966742 -0.18171911 0.033204325
0001c0 fb 45 ec bd 00 67 9c bb 8b 09 0f 3e 06 a7 00 be
       -0.11536785 -0.0047730207 0.13968484 -0.12563714
0001d0 9a 52 02 be 1d 47 43 bd 73 df 95 3d d3 bc 19 3e
       -0.12726822 -0.04767524 0.0731801 0.15013437
0001e0 0e 75 40 3b 88 ab e0 3d e7 1b db bd f1 75 72 be
       0.0029366645 0.10970217 -0.10698681 -0.23677804
0001f0 98 12 0d bd d3 29 33 3d 31 b5 70 3e 75 19 5d bd
       -0.03444156 0.04374106 0.23506619 -0.053979356

linear_relu_stack1.4.bias f4 [8]
000000 9d 4a cb bd 2c c2 75 be 01 8e d8 3d 8d 26 d4 3c
       -0.09926341 -0.23999852 0.1057396 0.025897289
000010 07 16 2a bd 60 b4 71 3d 33 6d 91 3d 18 42 ab 3d
       -0.041524913 0.05900991 0.07100906 0.08362216
