NQE/results/PCA_NQEClassifier/fashion/1exp/model.pt (torch, 12463 bytes, 10 tensors)

nn_layer.0.weight f4 [16, 8]
0.11569797 -0.3508391 -0.100556225 -0.029496219 -0.17720258 -0.06198521 -0.2469447 -0.23469487
0.2484448 0.14150397 -0.01554668 -0.21065946 0.1782246 0.3201939 0.3054379 0.058359317
-0.33299306 0.21163332 0.195008 -0.04638192 0.076542616 0.048824176 0.13080047 -0.1677927
0.28447065 -0.12904087 -0.25134832 0.23625687 -0.017772475 0.2182244 0.31509343 0.0019602627
-0.20018567 -0.25993028 0.2438151 0.2980077 -0.21588507 0.1339427 0.37344006 0.008726042
-0.09024264 -0.08646456 0.16722803 0.25258142 0.10258672 0.3620616 -0.09244088 -0.17160815
0.29371482 -0.19974677 -0.17152388 0.3665636 -0.047314007 0.026662575 0.30536294 0.046175085
-0.16649856 -0.0927426 0.24570988 -0.080095656 -0.2501998 0.03944959 -0.17807719 -0.34861994
-0.31081784 -0.28749418 0.19779977 -0.24221526 0.07845791 -0.08599886 0.025685858 -0.2155259
0.16865505 -0.061366737 0.38095897 0.25027052 -0.017627016 0.05496922 0.08184617 0.11937017
0.34853393 0.4901393 -0.15392566 0.17850855 -0.06996076 -0.18829052 -0.15873173 -0.33141676
0.2530492 0.420473 0.120312825 0.08522729 -0.13849843 -0.11085519 -0.06858884 -0.21612068
0.23365183 0.3439343 0.030293502 -0.0931738 -0.10170729 -0.2749052 -0.1265087 0.2277205
-0.008879128 -0.18153776 0.09053206 -0.07346189 -0.10410124 0.18832144 0.27835134 0.3274679
-0.12168633 0.21815215 -0.059014704 0.06528294 -0.043857437 0.20581952 0.35352564 0.07498426
-0.34497997 -0.017854942 -0.33040643 0.06426653 0.20707832 0.07314539 0.12546109 -0.2830094
00000000: 0ff3 ec3d 2fa1 b3be 6cf0 cdbd 0ea2 f1bc
00000010: 9874 35be 34e4 7dbd 12df 7cbe da53 70be
00000020: 5068 7e3e 6be6 103e 81b7 7ebc 1db7 57be
00000030: 8280 363e 74f0 a33e 5b62 9c3e 2e0a 6f3d
00000040: 117e aabe 68b6 583e 2db0 473e f8fa 3dbd
00000050: 60c2 9c3d dcfb 473d 8ff0 053e d9d1 2bbe
00000060: 23a6 913e 4a23 04be bab0 80be 52ed 713e
00000070: 9597 91bc 3876 5f3e ed53 a13e c077 003b
00000080: 79fd 4cbe 9515 85be aaaa 793e 7794 983e
00000090: fa10 5dbe 4628 093e 8933 bf3e acf7 0e3c
000000a0: 22d1 b8bd 5514 b1bd d33d 2b3e 5a52 813e
000000b0: fc18 d23d 2360 b93e a551 bdbd 0cba 2fbe
000000c0: ca61 963e 6b8a 4cbe f5a3 2fbe 39ae bb3e
000000d0: 55cc 41bd 796b da3c 8858 9c3e 1622 3d3d
000000e0: 997e 2abe d5ef bdbd 5f9b 7b3e 3109 a4bd
000000f0: 301a 80be e595 213d de59 36be 507e b2be
00000100: 8423 9fbe 7032 93be 068c 4a3e 4707 78be
00000110: 8aae a03d 2c20 b0bd 266b d23c d2b2 5cbe
00000120: e9b3 2c3e b05b 7bbd 0e0d c33e 7523 803e
00000130: 8866 90bc 6827 613d f79e a73d 5978 f43d
00000140: 0a73 b23e 8af3 fa3e b09e 1dbe f2ca 363e
00000150: 9647 8fbd 3bcf 40be 928a 22be 75af a9be
00000160: aa8f 813e 3d48 d73e 9266 f63d a58b ae3d
00000170: 88d2 0dbe 0c08 e3bd 4e78 8cbd bd4e 5dbe
00000180: 6d42 6f3e 2818 b03e 142a f83c e8d1 bebd
00000190: e94b d0bd 60c0 8cbe 7f8b 01be 902f 693e
000001a0: c379 11bc 09e5 39be df68 b93d 3073 96bd
000001b0: 0833 d5bd 56d7 403e 1184 8e3e dfa9 a73e
000001c0: af36 f9bd 4763 5f3e 67b9 71bd 10b3 853d
000001d0: dba3 33bd 5ac2 523e 5001 b53e 5991 993d
000001e0: 37a1 b0be 8744 92bc 082b a9be 2c9e 833d
000001f0: 570c 543e 40cd 953d df78 003e 9ce6 90be

nn_layer.0.bias f4 [16]
0.0648945 0.25341403 -0.08544595 -0.029815264 0.37668648 0.030187875 -0.052200902 -0.33128762
-0.14379741 0.2767031 0.009516384 -0.21720088 -0.2540783 -0.17250119 0.09122145 0.22888088
00000000: 68e7 843d 7cbf 813e 49fe aebd 243f f4bc
00000010: 0ddd c03e 904c f73c 9dd0 55bd 889e a9be
00000020: a13f 13be 07ac 8d3e 9cea 1b3c e869 5ebe
00000030: 8d16 82be 27a4 30be 50d2 ba3d c05f 6a3e

nn_layer.2.weight f4 [32, 16]
-0.09468317 0.110815614 -0.09943194 -0.15248366 -0.13321003 0.07458873 0.09106963 0.21438693
-0.113570146 -0.012967703 -0.21464904 0.13287887 -0.03445793 -0.20584764 -0.14674282 0.16322106
-0.032142937 -0.1556842 0.108116895 -0.13698643 0.20714673 0.2297579 -0.15462229 -0.21353242
-0.2403242 -0.20737582 0.228129 -0.17484075 -0.047108114 -0.086066216 -0.14050266 0.14267236
0.02303467 -0.2068983 -0.15728149 0.20924464 0.034246884 -0.22383459 -0.023641214 0.1731498
-0.037400197 0.18254669 0.24249285 0.038365077 0.22340807 -0.251096 -0.17646362 0.17787288
0.10768869 -0.16178444 0.16321698 0.06968891 0.2322614 0.14105079 0.24883665 -0.081610955
0.12597817 0.20897886 0.1387936 -0.037517328 -0.10956737 0.17034188 0.109987594 -0.21767813
-0.23891258 -0.02008035 -0.17283247 0.23369476 0.055771723 -0.025742326 0.22338581 0.015004367
-0.025799235 -0.22039898 0.053847138 0.10830796 -0.13199793 0.12758772 -0.05062796 -0.19620536
-0.22137178 0.19264325 -0.17025594 0.21190786 0.30833408 0.08927044 -0.10139499 -0.040926844
-0.16815716 0.24486223 0.05917571 0.062050454 -0.2175099 0.2577285 -0.08494771 0.009493632
0.05769068 -0.06339537 0.15091515 0.07603317 -0.036335245 0.0009085992 -0.18197322 -0.017181244
0.096864946 -0.1088376 -0.061509162 0.022693789 0.008211046 -0.18321241 -0.21973558 0.13174789
-0.17936277 0.04814906 -0.011259222 -0.012005388 -0.13552585 0.026304016 0.077081166 -0.06364867
0.16214186 0.118427314 -0.066634215 -0.29793793 0.03468286 0.15071896 0.12514602 0.23997618
-0.12440426 0.039774146 0.1887457 0.0013696982 0.23818178 0.23685245 0.011593049 0.1364861
-0.12684236 0.046992246 0.06659336 0.059167594 0.11573457 -0.092772454 -0.2385931 -0.029744579
0.15349954 0.11908936 0.1993896 -0.20313762 -0.15517579 -0.16437437 0.075238585 0.09246138
-0.103900105 0.16739611 -0.25145546 0.14528985 0.12888704 0.18306386 -0.10665966 0.15096252
0.2253978 -0.124988884 0.17862618 0.113340974 0.06865827 0.25294894 0.15450126 -0.1514933
-0.24441278 0.14554659 -0.38809755 0.11398096 -0.11610119 -0.0034436276 0.10997345 -0.083060004
-0.11323551 -0.14785677 -0.19319601 0.11184508 -0.11103402 0.029204112 0.06922704 -0.12756568
-0.16408005 -0.03421347 0.08189895 -0.15066205 0.03228308 0.044931237 0.0106861545 0.07710591
-0.17549798 -0.186428 -0.08973971 0.23047368 0.096762836 -0.050196584 0.040696856 -0.050545633
-0.11391997 -0.021072308 -0.045430172 0.05698156 0.020780247 -0.11867524 -0.15063074 -0.24951574
-0.021973114 0.08393007 0.02615151 -0.046908993 -0.07380877 -0.07945096 -0.042220604 0.22601299
0.24172394 0.050211716 -0.04937302 0.10498259 -0.13006084 0.1633805 0.16908208 0.18531716
-0.11088717 -0.18303373 -0.20694894 -0.19375867 0.10409075 -0.14017454 0.03558314 0.16174123
-0.11670664 -0.13075873 -0.08609739 0.19253978 -0.17614755 0.09991622 -0.0671764 -0.22334042
-0.04074213 -0.21699135 0.031754617 0.008028411 -0.122333 -0.12445861 0.1798315 -0.049912155
-0.029851764 0.12047812 -0.18861443 -0.16514713 -0.03382552 0.07299362 -0.054067273 0.14360616
00000000: 40e9 c1bd 4cf3 e23d f9a2 cbbd ad24 1cbe
00000010: 3668 08be fac1 983d b782 ba3d 3f88 5b3e
00000020: 7797 e8bd 7d76 54bc f5cc 5bbe 6611 083e
00000030: c223 0dbd b9c9 52be c043 16be 6c23 273e
00000040: 50a8 03bd ae6b 1fbe 646c dd3d 2c46 0cbe
00000050: 461e 543e a845 6b3e 4e55 1ebe 3ea8 5abe
00000060: 8c17 76be 545a 54be a69a 693e 7409 33be
00000070: 70f4 40bd 7c43 b0bd eedf 0fbe b418 123e
00000080: 34b3 bc3c 26dd 53be 660e 21be 3a44 563e
00000090: 7646 0c3d e534 65be 38ab c1bc 2e4e 313e
000000a0: f330 19bd 85ed 3a3e 0c50 783e b324 1d3d
000000b0: 16c5 643e a88f 80be e1b2 34be 4f24 363e
000000c0: e38b dc3d d2aa 25be 5a22 273e 0fb9 8e3d
000000d0: efd5 6d3e 9e6f 103e 09cf 7e3e a523 a7bd
000000e0: 6c00 013e 8efe 553e e91f 0e3e c5ab 19bd
000000f0: db64 e0bd 1a6e 2e3e 2d41 e13d 04e7 5ebe
00000100: 80a5 74be 8c7f a4bc fffa 30be ae4d 6f3e
00000110: e470 643d 92e1 d2bc 40bf 643e e0d4 753c
00000120: eb58 d3bc 45b0 61be d18e 5c3d 90d0 dd3d
00000130: 772a 07be 5ba6 023e 445f 4fbd 0fea 48be
00000140: 49af 62be 4644 453e 9357 2ebe 60fe 583e
00000150: f7dd 9d3e 6cd3 b63d 2da8 cfbd e8a2 27bd
00000160: 6431 2cbe 2abd 7a3e 3b62 723d 9e28 7e3d
00000170: eaba 5ebe fdf4 833e 11f9 adbd 2e8b 1b3c
00000180: 104d 6c3d 6fd5 81bd 8089 1a3e 47b7 9b3d
00000190: 44d4 14bd 0f2f 6e3a 3057 3abe aebf 8cbc
000001a0: 2161 c63d 3fe6 debd 08f1 7bbd 53e8 b93c
000001b0: a087 063c 099c 3bbe 5d02 61be ebe8 063e
000001c0: e0aa 37be f337 453d 9a78 38bc 3fb2 44bc
000001d0: 4ac7 0abe 857b d73c bbdc 9d3d 3c5a 82bd
000001e0: 8408 263e 058a f23d 8577 88bd 528b 98be
000001f0: 9d0f 0e3d 1256 1a3e 4726 003e 51bc 753e
00000200: a9c7 febd 37ea 223d 8e46 413e 7287 b33a
00000210: ede5 733e 7389 723e c6f0 3d3c 03c3 0b3e
00000220: f7e2 01be f17a 403d 1962 883d b859 723d
00000230: 3f06 ed3d 7cff bdbd c051 74be e7aa f3bc
00000240: fc2e 1d3e 1fe5 f33d ca2c 4c3e 4f03 50be
00000250: 67e6 1ebe c151 28be b016 9a3d 645c bd3d
00000260: 94c9 d4bd e369 2b3e c5be 80be ddc6 143e
00000270: f7fa 033e 1875 3b3e 6170 dabd eb95 1a3e
00000280: aece 663e 2cfa ffbd c8e9 363e 501f e83d
00000290: b59c 8c3d 8682 813e 9435 1e3e 0f21 1bbe
000002a0: 5847 7abe 2a0a 153e b9b4 c6be d96e e93d
000002b0: 76c6 edbd 7cae 61bb c339 e13d 5d1b aabd
000002c0: 05e8 e7bd c467 17be 2dd5 45be 090f e53d
000002d0: ce65 e3bd 763d ef3c e8c6 8d3d 94a0 02be
000002e0: 9a04 28be 6c23 0cbd a3ba a73d 2747 1abe
000002f0: 433b 043d d109 383d fb14 2f3c b4e9 9d3d
00000300: beb5 33be fbe6 3ebe 74c9 b7bd 4b01 6c3e
00000310: 982b c63d ef9a 4dbd bfb1 263d f008 4fbd
00000320: e04e e9bd d59f acbc fd14 3abd 7f65 693d
00000330: 563b aa3c 010c f3bd f23e 1abe 0e81 7fbe
00000340: f600 b4bc 87e3 ab3d b13b d63c a523 40bd
00000350: 0d29 97bd 2fb7 a2bd 83ef 2cbd f36f 673e
00000360: 7b86 773e cdaa 4d3d 5d3b 4abd 1d01 d73d
00000370: ab2e 05be 384d 273e da23 2d3e c8c3 3d3e
00000380: d018 e3bd 326d 3bbe 6cea 53be ac68 46be
00000390: 882d d53d ea89 0fbe a0bf 113d 7e9f 253e
000003a0: e403 efbd 9ee5 05be d453 b0bd 2629 453e
000003b0: 0660 34be e0a0 cc3d c893 89bd 5ab3 64be
000003c0: 38e1 26bd fb32 5ebe 2111 023d 9989 033c
000003d0: b989 fabd 28e4 febd c025 383e b070 4cbd
000003e0: b08b f4bc 3cbd f63d 2424 41be 541c 29be
000003f0: a18c 0abd ae7d 953d a575 5dbd 7e0d 133e

nn_layer.2.bias f4 [32]
-0.10303619 -0.10788441 0.058402047 -0.18099107 0.014431773 -0.22662218 0.11652783 -0.093600094
0.02621276 0.23203458 0.16521744 0.05420021 -0.11917381 0.23553269 -0.14731064 -0.15579657
-0.17370117 0.07153904 -0.24902922 -0.0745888 0.096304975 0.22662167 0.14652982 0.21389586
0.23327811 0.19842117 0.19852452 -0.14572598 -0.09086015 -0.16848187 0.07824677 0.10513136
00000000: a304 d3bd 80f2 dcbd fc36 6f3d b955 39be
00000010: 3e73 6c3c a50f 68be 25a6 ee3d 68b1 bfbd
00000020: 24bc d63c 799a 6d3e c32e 293e 0a01 5e3d
00000030: 6611 f4bd 7b2f 713e 9ad8 16be 2389 1fbe
00000040: b8de 31be 0f83 923d 8401 7fbe 03c2 98bd
00000050: 8b3b c53d 830f 683e ea0b 163e 8407 5b3e
00000060: 75e0 6e3e eb2e 4b3e 034a 4b3e 3139 15be
00000070: e314 babd 8386 2cbe d83f a03d 1c4f d73d

nn_layer.4.weight f4 [32, 32]
-0.020704323 -0.015184919 -0.112365246 -0.067490235 -0.0046832943 -0.043318447 0.057932485 0.13656363
-0.15430878 -0.13287795 -0.0657173 0.088370286 0.058141578 -0.054812144 -0.16829246 -0.15265894
0.04831601 -0.17137189 0.14448082 -0.024863774 0.17537881 0.06621647 -0.06579414 0.016051458
-0.09244283 -0.042265426 0.092127465 0.03146829 -0.12571752 -0.0614127 -0.15549068 0.015163171
-0.15026331 0.08841903 -0.09217435 -0.15368909 0.10671428 -0.149259 -0.017951354 0.12021291
-0.1446423 -0.14012986 0.06192429 -0.102223344 -0.15154943 0.02607982 -0.042259127 0.15252021
0.047615547 0.1559485 -0.12209731 -0.03572441 0.09674658 -0.1309544 -0.0072658695 0.17086966
-0.12685257 -0.057913154 -0.1375882 0.11202517 0.17503564 0.09342279 0.14041056 -0.0074365796
0.07370657 -0.027441032 0.021179713 0.10253453 0.073707476 0.17287795 0.008481081 0.113399155
-0.06663583 0.015497116 0.02102655 0.022077141 0.09481659 0.028035061 0.12532474 -0.16112745
0.00408567 -0.09799319 -0.09831984 -0.09595619 0.14256251 -0.03534724 -0.07397209 0.1065185
0.1186019 0.16907866 0.067128815 0.07500059 0.12338729 0.2253749 0.0017441419 0.13503905
-0.17146267 0.07663564 -0.044897914 0.008546059 0.055879403 -0.17074318 -0.093132444 -0.0021867938
0.036607906 0.16943316 -0.19048752 0.07060241 0.07377334 -0.030157464 0.148874 -0.1470366
0.10285899 0.097236045 0.0875733 -0.0014044691 0.18832791 -0.07423802 -0.12304896 0.09944277
-0.15443093 0.08179576 -0.06200367 -0.14028531 -0.01574086 -0.09680422 0.112452656 0.05982557
-0.036671128 -0.13254805 -0.15284714 0.13672806 0.03458737 0.15990765 0.012463112 0.11862653
0.07567512 0.011492091 0.10419489 0.12927568 0.08297548 0.17994973 -0.0121766245 0.16522014
-0.13208878 -0.19148017 0.15474755 0.13237773 -0.073160395 0.15358548 0.06367733 0.087881476
0.10023305 -0.060569108 0.07699327 -0.074365765 -0.00094931695 -0.061799545 0.10015105 0.10415818
-0.1748601 0.12336857 -0.07848118 0.08998251 0.14184853 -0.10950964 0.07694493 -0.16282634
0.10652351 -0.0242422 -0.0011350013 0.10665633 0.15070176 0.07615885 -0.17500724 0.11478803
-0.15157232 0.107722454 -0.1483831 -0.031970926 0.09713033 -0.036689863 0.00773087 -0.037563182
-0.030715918 -0.109244265 0.17345572 -0.06707783 0.05731934 0.16164029 -0.16542788 -0.026295988
0.06398096 0.09036853 0.08331513 -0.051337186 -0.08194869 -0.016443081 -0.07176744 0.15486142
0.10809457 -0.15846974 -0.15241909 -0.08612881 0.08946914 0.021822877 0.15397877 -0.008708002
0.043295007 0.13773936 -0.058061626 -0.1294911 0.027684186 -0.13209516 -0.115407035 -0.06195953
-0.15013774 -0.13769662 0.14364578 0.17118415 0.05347408 0.069352545 -0.14326628 -0.02160127
0.08489519 0.14061294 -0.03166528 -0.098606646 -0.1209618 -0.1255835 -0.105344824 0.17920576
0.06480537 0.13886932 0.12744673 -0.13253736 -0.13117039 -0.04252927 0.09324189 -0.029744403
0.16591302 -0.06724731 -0.12677668 -0.16085716 -0.14920168 -0.1229424 -0.11463795 0.1786091
-0.027296077 0.012698978 -0.049349222 -0.09022997 -0.035782147 0.11499737 0.041529544 0.15123834
00000000: 1d9c a9bc 2bca 78bc c01f e6bd 5238 8abd
00000010: 5276 99bb af6e 31bd 9d4a 6d3d 56d7 0b3e
00000020: 1f03 1ebe 2811 08be cb96 86bd 7bfb b43d
00000030: dd25 6e3d b382 60bd dc54 2cbe a052 1cbe
00000040: 02e7 453d 1d7c 2fbe c8f2 133e 1daf cbbc
00000050: 8196 333e 809c 873d 14bf 86bd 597e 833c
00000060: ab52 bdbd 831e 2dbd 53ad bc3d e5e4 003d
00000070: 18bc 00be e28b 7bbd f338 1fbe f36e 783c
00000080: a0de 19be 0915 b53d e8c5 bcbd ac60 1dbe
00000090: 048d da3d 5ad7 18be b80e 93bc 3032 f63d
000000a0: 1c1d 14be 347e 0fbe 53a4 7d3d 795a d1bd
000000b0: c62f 1bbe 59a5 d53c e817 2dbd 422e 1c3e
000000c0: 8508 433d f7b0 1f3e 280e fabd c253 12bd
000000d0: 1223 c63d e918 06be 8816 eebb 75f8 2e3e
000000e0: a4e5 01be 5836 6dbd ece3 0cbe 746d e53d
000000f0: 8b3c 333e 7354 bf3d c9c7 0f3e 8dae f3bb
00000100: 78f3 963d 04cc e0bc 1481 ad3c a0fd d13d
00000110: f2f3 963d eb06 313e 3bf4 0a3c d13d e83d
00000120: 5e78 88bd 9ee7 7d3c df3f ac3c 1fdb b43c
00000130: 332f c23d c9a9 e53c 2155 003e 98fe 24be
00000140: 16e1 853b a7b0 c8bd ea5b c9bd ae84 c4bd
00000150: e8fb 113e 44c8 10bd ae7e 97bd 5f26 da3d
00000160: 8ee5 f23d f522 2d3e d57a 893d e999 993d
00000170: 7ab2 fc3d aec8 663e b19b e43a ad47 0a3e
00000180: e993 2fbe 25f3 9c3d e0e6 37bd c504 0c3c
00000190: cde1 643d 4dd7 2ebe 39bc bebd 5050 0fbb
000001a0: 2cf2 153d e37f 2d3e 290f 43be ff97 903d
000001b0: 7a16 973d c90c f7bc 6d72 183e c390 16be
000001c0: bca7 d23d b123 c73d a159 b33d 2a16 b8ba
000001d0: 08d9 403e 1a0a 98bd 1801 fcbd a7a8 cb3d
000001e0: 2423 1ebe 8984 a73d 8ff7 7dbd f4a6 0fbe
000001f0: faf2 80bc 4a41 c6bd 944d e63d a80b 753d
00000200: 7734 16bd adba 07be f683 1cbe 7102 0c3e
00000210: 7cab 0d3d d5be 233e 1532 4c3c 77f2 f23d
00000220: 8ffb 9a3d 5349 3c3c 2164 d53d d860 043e
00000230: 0cef a93d be44 383e 7780 47bc 782f 293e
00000240: 4842 07be 6113 44be 2476 1e3e 078e 073e
00000250: 1ed5 95bd 8345 1d3e 4369 823d 34fb b33d
00000260: fc46 cd3d 5017 78bd a6ae 9d3d 144d 98bd
00000270: 95db 78ba 8521 7dbd fe1b cd3d e250 d53d
00000280: 870e 33be a9a8 fc3d beba a0bd c048 b83d
00000290: be40 113e 9746 e0bd 4e95 9d3d f3bb 26be
000002a0: ff28 da3d 9497 c6bc 53c4 94ba a26e da3d
000002b0: 9051 1a3e 2cf9 9b3d 1935 33be fd15 eb3d
000002c0: c635 1bbe 979d dc3d bdf1 17be f2f3 02bd
000002d0: 44ec c63d 1c48 16bd 3d53 fd3b dadb 19bd
000002e0: f39f fbbc 75bb dfbd 609e 313e 1a60 89bd
000002f0: afc7 6a3d 0885 253e ed65 29be af6a d7bc
00000300: 7308 833d 2313 b93d 1fa1 aa3d f146 52bd
00000310: b7d4 a7bd a4b3 86bc cffa 92bd fe93 1e3e
00000320: b060 dd3d e445 22be c013 1cbe 4d64 b0bd
00000330: 993b b73d e4c5 b23c 9cac 1d3e 02ac 0ebc
00000340: 1b56 313d 8c0b 0d3e 07d2 6dbd 5199 04be
00000350: f2c9 e23c f443 07be 865a ecbd 47c9 7dbd
00000360: b5bd 19be 5800 0dbe e117 133e e64a 2f3e
00000370: a307 5b3d b508 8e3d 65b4 12be 26f5 b0bc
00000380: 88dd ad3d d7fc 0f3e 74b3 01bd 48f2 c9bd
00000390: d2ba f7bd f698 00be 07bf d7bd b781 373e
000003a0: aeb8 843d c233 0e3e 6581 023e e0b7 07be
000003b0: 8851 06be 2c33 2ebd 9bf5 be3d 89aa f3bc
000003c0: 1ae5 293e f5b8 89bd bfd1 01be bdb7 24be
000003d0: 53c8 18be 3ac9 fbbd 4dc7 eabd 4ee5 363e
000003e0: 069c dfbc 600f 503c 6922 4abd 7eca b8bd
000003f0: 4d90 12bd be83 eb3d e21a 2a3d 39de 1a3e

nn_layer.4.bias f4 [32]
-0.0879633 -0.12467089 0.09367261 0.1944914 -0.0016027237 -0.12898496 -0.07064435 0.12180307
0.078334376 0.061144687 0.046247683 -0.060126487 -0.112636484 0.07764224 -0.14655644 0.18439478
0.1909109 -0.13506587 0.15043464 -0.14478365 -0.0067100087 0.10910438 -0.11808061 0.17825599
0.058270562 -0.12464218 0.09668876 -0.04805876 0.045769263 -0.12968 0.15586853 -0.12740493
00000000: 1a26 b4bd 7453 ffbd 6dd7 bf3d c128 473e
00000010: 7c12 d2ba a214 04be fcad 90bd e373 f93d
00000020: c66d a03d da72 7a3d 366e 3d3d 3147 76bd
00000030: f5ad e6bd e502 9f3d e412 16be fcd1 3c3e
00000040: 267e 433e b54e 0abe 8a0b 1a3e 2a42 14be
00000050: a2df dbbb 1e72 df3d 3fd4 f1bd bd88 363e
00000060: 1dad 6e3d 6644 ffbd c204 c63d 43d9 44bd
00000070: 8d78 3b3d d5ca 04be 009c 1f3e 7076 02be

nn_layer.6.weight f4 [16, 32]
-0.16889003 -0.06499614 0.17822905 0.10221574 0.054602098 0.1064999 0.05711423 0.15114807
0.1752228 0.13558096 -0.09049601 -0.15975693 -0.040796548 -0.053264223 0.16139208 -0.062159613
-0.007184292 0.23366031 0.120465636 -0.07997324 0.09979161 0.20365788 -0.061149534 -0.07257468
-0.10286485 0.10620228 0.17453964 0.098233186 0.15810488 -0.14584094 -0.14681739 0.08172431
0.11483804 0.00610437 -0.10136708 -0.11663141 0.009169674 0.15600814 0.17016675 -0.091339394
-0.09880322 -0.08011283 -0.122120984 -0.1656178 -0.1252067 0.021424485 0.16492935 -0.08820675
0.019248793 0.17825174 -0.16018201 0.14300254 -0.16350105 0.20816372 0.06481513 -0.13065562
0.0972202 -0.047236647 -0.058916714 0.10883302 -0.050634313 0.07079292 0.1575194 -0.08649445
-0.064600416 -0.060548294 0.210692 -0.16236499 0.20953812 0.15371898 -0.0601013 0.17990598
0.13708681 -0.00065878325 0.1209481 0.103420004 -0.096321434 -0.048435118 0.03489915 -0.09138185
0.16046207 0.2587392 -0.056266323 -0.111906394 0.17291947 0.26787272 0.17229898 -0.28104916
0.058429226 0.15213655 -0.08294609 -0.15788169 0.056048065 0.001028383 -0.14384444 0.10283093
-0.0423803 0.0075400732 -0.16562897 0.06770016 0.104963124 -0.017162958 -0.07594763 -0.14048246
0.058071036 -0.11148765 -0.08908659 0.1026569 -0.08174217 -0.0060903374 -0.067864686 -0.029825624
0.02962241 0.0002327986 -0.10495737 -0.022458436 -0.07314883 0.16315503 -0.029471815 0.073912665
0.16705827 -0.14318837 0.11704271 0.08334943 -0.012464118 0.023129936 -0.12012503 -0.123016015
0.16911794 -0.057710674 0.016338056 0.11644905 0.007625865 -0.16364811 0.025816062 -0.100364506
0.20187157 0.09299009 0.007833559 0.058040652 0.08513153 -0.064365394 0.1434656 -0.019385286
0.08706094 0.2375882 -0.12665956 -0.025867833 -0.04124286 0.08036684 -0.07772741 -0.1834274
-0.07500621 0.15687278 -0.121895574 0.11958148 -0.07882375 0.11384548 0.15414298 -0.0030147673
-0.039239116 0.16935463 -0.09071535 -0.1212895 -0.032005917 0.0734507 0.16245441 -0.031595584
-0.0578345 0.020811208 -0.0036880178 0.013307024 -0.15948066 -0.17435597 -0.07317411 -0.11070192
0.064511985 -0.037478574 -0.1621897 0.06509442 -0.09218986 -0.059933264 0.12601613 -0.006581263
-0.01474538 0.11871275 0.031243037 0.07381 0.14936955 -0.12283794 -0.04190071 -0.16812319
-0.14172305 0.066338256 0.04334309 -0.033937853 0.04120457 0.11273751 -0.026151283 0.007048786
0.20406143 -9.093184e-06 0.06188724 0.06710582 0.13323638 -0.02908252 0.08317143 0.032461204
0.028853029 0.24789295 0.027870867 -0.01595445 -0.08394097 0.053704515 -0.057925805 -0.20512317
-0.1763967 -0.013991279 0.025330517 0.11323891 0.08967439 -0.05576993 -0.10869126 -0.022625506
0.17002796 -0.07231149 -0.17037387 -0.13677053 -0.15973954 0.0777254 -0.13416438 -0.14024927
-0.16052963 -0.16622841 -0.1107753 -0.11188461 0.06430237 0.0074712792 -0.08718155 0.14995405
0.13681903 0.027288841 0.0771529 0.07995183 -0.13073605 -0.006635976 -0.015421174 0.03540897
0.1759097 0.018672697 -0.096578784 0.15246123 -0.13126981 0.15298408 0.065803714 0.056135006
00000000: 82f1 2cbe b21c 85bd ad81 363e 7c56 d13d
00000010: 73a6 5f3d 9f1c da3d 9cf0 693d 8fc6 1a3e
00000020: 9b6d 333e bcd5 0a3e f955 b9bd 5297 23be
00000030: 481a 27bd 962b 5abd f743 253e 149b 7ebd
00000040: 366a ebbb a644 6f3e b0b6 f63d 03c9 a3bd
00000050: 8b5f cc3d b18b 503e ef77 7abd 09a2 94bd
00000060: ceaa d2bd 9580 d93d 85ba 323e 7b2e c93d
00000070: 3fe6 213e 5457 15be 4c57 16be 135f a73d
00000080: 3530 eb3d 2b07 c83b 8b99 cfbd 73dc eebd
00000090: 663c 163c 99c0 1f3e 3140 2e3e 2610 bbbd
000000a0: 5859 cabd 3212 a4bd 911a fabd b697 29be
000000b0: 2f36 00be 6782 af3c 3de3 283e bea5 b4bd
000000c0: a5af 9d3c a087 363e c106 24be 426f 123e
000000d0: d26c 27be df28 553e cbbd 843d 96ca 05be
000000e0: 621b c73d 377b 41bd a752 71bd d9e3 de3d
000000f0: ed65 4fbd e1fb 903d c44c 213e 0124 b1bd
00000100: 394d 84bd 7d01 78bd a5bf 573e 0243 26be
00000110: 2991 563e 8268 1d3e c82c 76bd 4639 383e
00000120: 7c60 0c3e 32b2 2cba a3b3 f73d decd d33d
00000130: 2c44 c5bd e763 46bd 69f2 0e3d 6826 bbbd
00000140: 2b50 243e 7779 843e 8477 66bd 2e2f e5bd
00000150: cd11 313e 9d26 893e 256f 303e ade5 8fbe
00000160: 7c53 6f3d afc9 1b3e a4df a9bd bdab 21be
00000170: a892 653d cfca 863a f54b 13be 0699 d23d
00000180: f796 2dbd b812 f73b a49a 29be 62a6 8a3d
00000190: e8f6 d63d 5599 8cbc 6e8a 9bbd a2da 0fbe
000001a0: e5db 6d3d a353 e4bd 0873 b6bd c83d d23d
000001b0: 7068 a7bd 7491 c7bb a4fc 8abd de54 f4bc
000001c0: b2aa f23c 661b 7439 e4f3 d6bd c1fa b7bc
000001d0: 0ecf 95bd 1d12 273e e06e f1bc 865f 973d
000001e0: 5311 2b3e f99f 12be 17b4 ef3d 1bb3 aa3d
000001f0: 4d36 4cbc fe7a bd3c 1d04 f6bd d2ef fbbd
00000200: 412d 2d3e 0762 6cbd 63d7 853c d77c ee3d
00000210: 64e2 f93b 5f93 27be 357c d33c e88b cdbd
00000220: 6cb7 4e3e 9771 be3d 5458 003c 09bc 6d3d
00000230: 7159 ae3d 01d2 83bd a5e8 123e e4cd 9ebc
00000240: 024d b23d 524a 733e 0bb3 01be c7e8 d3bc
00000250: 46ee 28bd 5f97 a43d 8c2f 9fbd 64d4 3bbe
00000260: db9c 99bd 42a3 203e 63a4 f9bd 23e7 f43d
00000270: 596e a1bd d227 e93d a8d7 1d3e 6793 45bb
00000280: 32b9 20bd 4d6b 2d3e f8c8 b9bd a166 f8bd
00000290: a318 03bd 526d 963d 735a 263e 5f6a 01bd
000002a0: dee3 6cbd 447c aa3c acb2 71bb b405 5a3c
000002b0: e64e 23be 5f8a 32be 4fdc 95bd b0b7 e2bd
000002c0: dc1e 843d 2283 19bd 0f15 26be 3950 853d
000002d0: 0ace bcbd 957c 75bd 5f0a 013e a3a7 d7bb
000002e0: 9b96 71bc ac1f f33d 66f1 ff3c b329 973d
000002f0: 55f4 183e 7592 fbbd 14a0 2bbd 7c28 2cbe
00000300: d91f 11be 5adc 873d 8688 313d 6b02 0bbd
00000310: 20c6 283d ece2 e63d 373b d6bc 81f9 e63b
00000320: 7bf5 503e ee8e 18b7 797d 7d3d c76e 893d
00000330: 1e6f 083e 773e eebc c855 aa3d 0af6 043d
00000340: 305d ec3c a6d7 7d3e 7251 e43c e8b2 82bc
00000350: 3ee9 abbd 44f9 5b3d 9c43 6dbd cf0b 52be
00000360: 56a1 34be ad3b 65bc f281 cf3c cde9 e73d
00000370: 35a7 b73d 036f 64bd 8699 debd 2059 b9bc
00000380: cf1b 2e3e 0c18 94bd 7d76 2ebe 930d 0cbe
00000390: c392 23be 7f2e 9f3d 6362 09be 819d 0fbe
000003a0: e161 24be c837 2abe 29de e2bd c223 e5bd
000003b0: f6b0 833d a2d1 f43b 3e8c b2bd 8e8d 193e
000003c0: 4a1a 0c3e d98c df3c 5702 9e3d c9bd a33d
000003d0: acdf 05be 9a72 d9bb 17a9 7cbc ff08 113d
000003e0: ac21 343e 7cf7 983c 19cb c5bd cc1e 1c3e
000003f0: 986b 06be dca7 1c3e 19c4 863d d2ed 653d

nn_layer.6.bias f4 [16]
-0.07002019 0.10975933 -0.07734934 0.075235486 -0.029815083 0.09714484 0.027495041 -0.036020532
0.12447867 -0.17478491 -0.016259056 0.03827143 0.120666176 -0.07996607 0.22758804 -0.17340921
00000000: bf66 8fbd 80c9 e03d 5569 9ebd 1015 9a3d
00000010: c33e f4bc e0f3 c63d 483d e13c 448a 13bd
00000020: acee fe3d d1fa 32be b631 85bc 81c2 1c3d
00000030: d41f f73d 40c5 a3bd d70c 693e 2f92 31be

nn_layer.8.weight f4 [8, 16]
-0.012526885 0.16981815 0.2772672 -0.01798847 0.095308684 -0.21276432 0.21772695 0.21270491
-0.11677448 -0.10197952 0.24334022 0.024636686 0.27468222 -0.22428523 -0.13145888 0.06605175
0.34393957 0.023594363 0.46503988 -0.0537493 0.19783317 0.17482066 0.319965 -0.0982549
0.12071394 -0.03580498 0.10728272 -0.12856422 0.17015001 -0.2057962 -0.2685953 0.033440977
-0.023107298 0.13392048 0.26011908 -0.042527277 -0.021303643 0.12513027 -0.2414967 -0.110216
0.10061731 -0.0461922 0.10013615 -0.13815916 -0.14755572 -0.032003056 0.01867592 0.12059024
-0.09799219 -0.11280944 -0.23446774 0.064482264 0.27398452 -0.24124773 0.20817454 -0.22064786
0.037462357 -0.17218731 -0.24503466 0.2443017 -0.10704532 0.13923128 0.01611801 -0.01131466
-0.062106807 -0.18297455 0.059913535 -0.102301374 0.07877534 0.06842022 -0.12146568 0.17786285
0.19211523 -0.055974506 0.05074571 0.04456918 -0.19982196 -0.029800318 0.28486273 -0.18944255
0.13438652 0.0907799 -0.106563896 -0.24445528 -0.20173705 0.13715866 -0.1793469 0.053616017
-0.09774045 0.09117469 0.16881381 -0.2088131 -0.0042957934 0.05104121 -0.060013607 -0.12685588
0.21223778 -0.16857068 -0.18845953 0.1496053 0.10174795 -0.11337979 -0.17694701 -0.14883402
0.19800183 0.089513674 0.08691592 -0.06273516 -0.11324764 0.19974379 -0.18740347 0.15476534
0.10802619 0.24574162 0.2969401 0.10421647 -0.023962406 -0.16483583 0.1882491 0.09828765
-0.19349763 0.14010859 0.016547982 0.23556797 0.015566067 -0.08969863 0.11880668 0.14238194
00000000: 903d 4dbc cfe4 2d3e f7f5 8d3e 8e5c 93bc
00000010: 3331 c33d e4de 59be d0f3 5e3e 51cf 593e
00000020: 7527 efbd a3da d0bd 2e2e 793e e0d2 c93c
00000030: 26a3 8c3e 07ab 65be 289d 06be 2446 873d
00000040: d918 b03e f748 c13c b519 ee3e 3a28 5cbd
00000050: c794 4a3e 3004 333e 74d2 a33e dd39 c9bd
00000060: df38 f73d 3ea8 12bd 0bb7 db3d 57a6 03be
00000070: ce3b 2e3e 3dbc 52be 5385 89be 68f9 083d
00000080: 844b bdbc 7322 093e 542e 853e 1531 2ebd
00000090: fa84 aebc 2622 003e e94a 77be edb8 e1bd
000000a0: 7310 ce3d 0834 3dbd 2f14 cd3d 9879 0dbe
000000b0: d918 17be a315 03bd 3efe 983c 04f8 f63d
000000c0: 21b0 c8bd a308 e7bd 5018 70be 470f 843d
000000d0: b347 8c3e a509 77be b52b 553e 83f1 61be
000000e0: 2172 193d df51 30be 5eea 7abe 3a2a 7a3e
000000f0: 943a dbbd a592 0e3e eb09 843c 2061 39bc
00000100: b563 7ebd ae5d 3bbe e567 753d 6283 d1bd
00000110: f754 a13d e61f 8c3d 00c3 f8bd ae21 363e
00000120: dbb9 443e 8645 65bd bcda 4f3d 2c8e 363d
00000130: 219e 4cbe cc1f f4bc 87d9 913e 3afd 41be
00000140: 9f9c 093e d0ea b93d 2c3e dabd 7c52 7abe
00000150: 2894 4ebe 5273 0c3e b7a6 37be 789c 5b3d
00000160: 252c c8bd ccb9 ba3d 87dd 2c3e 1ad3 55be
00000170: bac3 8cbb 9610 513d d4d0 75bd 82e6 01be
00000180: dc54 593e cb9d 2cbe 89fb 40be 2232 193e
00000190: 3b61 d03d aa33 e8bd 9931 35be f267 18be
000001a0: fec0 4a3e f252 b73d f900 b23d 4b7b 80bd
000001b0: 61ee e7bd a389 4c3e b2e6 3fbe ce7a 1e3e
000001c0: d63c dd3d b1a3 7b3e 8808 983e 726f d53d
000001d0: cf4c c4bc b9ca 28be 5fc4 403e 094b c93d
000001e0: 3e24 46be a078 0f3e a28f 873c bb38 713e
000001f0: d108 7f3c eab3 b7bd eb50 f33d 92cc 113e

nn_layer.8.bias f4 [8]
0.20378399 0.07614064 0.061649848 0.03282534 0.03236593 0.099719554 0.005899493 0.18779686
00000000: c0ac 503e a0ef 9b3d 8d84 7c3d dd73 063d
00000010: 2392 043d c439 cc3d 8950 c13b d24d 403e
