NQE/results/NQEClassifier/kmnist/3exp/model.pt (torch, 4295 bytes, 6 tensors)

linear_relu_stack1.0.weight f4 [16, 8]
00000000: 2915 ecbe 954f 30be 2f93 3b3e 0043 973e
00000010: c155 573d 08d8 963e 0a38 4abd 46f3 1cbc
00000020: ce78 99bd f51b bfbd 9da7 1b3e ed56 2d3e
00000030: 7db2 b03d 9b7e 603e c6eb eabd c17e a73e
00000040: 744e 0c3e 7856 a1bc 53f0 bd3d 503e 9abe
00000050: 7db0 b8bd 728e 20be 50d4 76be d367 66be
00000060: 13d8 babe b481 113c b8ec a33d fd7a 8c3d
00000070: 7202 543e 5d44 e13d 7502 123e 9d7c 56be
00000080: 8754 2c3e b60d 1dbd 167f 293e d4dd a33e
00000090: e3a4 19bb e17d 973d c4d7 48bd b748 8ebb
000000a0: b603 c6bd 458a 3cbe 5eb0 66be 9edb b4be
000000b0: b958 813e fda4 6c3e 73b1 a1be d089 5ebe
000000c0: 0caf dcbd 6403 6c3e 1216 8dbe f591 66bd
000000d0: ffc8 8cbe 308e aa3d 3ee3 9abe 2a58 773e
000000e0: bed3 03be bf7a 14be 0e0b 903e 85d1 ddbd
000000f0: 440d 83be b7d6 85bd 9796 4dbe 65d3 7c3e
00000100: 3dfa d93e 731e 683e 4061 22be 06d6 173e
00000110: 3ebf 96bc 3e38 8abe 2ba9 97be 26e3 09be
00000120: e1c6 bc3d 9a33 47be a8dc 75be 1802 0a3e
00000130: e06b fdbd 6b09 90be a6c2 0abe c37c 04be
00000140: 5122 b13d 224f 32be e096 56be 9350 673e
00000150: 40ca 34bd 2f70 0b3e e41f 92bd 8a73 0cbe
00000160: 2405 b1be 0dab 86be 39f2 38be 987d 08bd
00000170: 35e8 503d 0535 c8bd be71 92be d5da afbe
00000180: c363 973c e54f 343e 9ca7 573d dc25 6bbe
00000190: f55b 9abe 5de6 4dbd dce3 db3d 394c 78be
000001a0: 6dcc 693e 6dfd c03d a75f 623e 98b2 9bbe
000001b0: 5903 bb3d 42c4 f53c bbdb 0ebe 2699 ce3e
000001c0: d994 9ebe 94c0 4cbd e0c4 e33c e65b 823d
000001d0: ce97 2c3e 1ff4 7abe 861c 7d3d 9a3d 25be
000001e0: f4df ecbe 9bcf ac3e cd81 17be 5746 533e
000001f0: 3b0e 0a3f 16c8 ccbc 3f23 e7bd ea50 2abc
-0.46109894 -0.17217858 0.18317865 0.29543304 0.052572016 0.29461694 -0.04936985 -0.009579485
-0.07493745 -0.09331504 0.15200658 0.16927691 0.08627794 0.21923296 -0.114707515 0.32713893
0.13701802 -0.019694552 0.09274354 -0.30125666 -0.090180375 -0.15679339 -0.24104428 -0.22500543
-0.36492977 0.008881021 0.08004135 0.06859396 0.20704058 0.109993674 0.1425875 -0.20945974
0.1682912 -0.038343154 0.16552386 0.3200518 -0.0023444227 0.07397056 -0.049033895 -0.0043421644
-0.096686766 -0.1841212 -0.22528216 -0.35323805 0.25263003 0.23109813 -0.31580696 -0.21732259
-0.10775575 0.23048168 -0.275559 -0.05629154 -0.27497098 0.08327901 -0.30251497 0.24154726
-0.12873742 -0.14499949 0.28133434 -0.10830978 -0.25596058 -0.06535094 -0.20076977 0.24690016
0.4257373 0.22667865 -0.1585741 0.14827737 -0.018401738 -0.26996034 -0.29621252 -0.13465557
0.09217621 -0.19453278 -0.24009955 0.13477361 -0.12374091 -0.28132185 -0.13550815 -0.12938218
0.086491235 -0.17413 -0.20955992 0.2258933 -0.044138193 0.13617013 -0.07134989 -0.1371595
-0.34574234 -0.26302376 -0.1806115 -0.0333229 0.0510027 -0.09775738 -0.28602403 -0.34346643
0.018480187 0.17608602 0.05265008 -0.22963661 -0.30148283 -0.05026852 0.1073682 -0.24247827
0.22831888 0.09423337 0.22106801 -0.30409694 0.09131498 0.03000081 -0.13951008 0.40351218
-0.30972937 -0.049988344 0.027803838 0.063651845 0.16854784 -0.24507187 0.06179478 -0.1613678
-0.46264613 0.3375214 -0.14795609 0.20632301 0.53927964 -0.024997752 -0.112860195 -0.010395268

linear_relu_stack1.0.bias f4 [16]
00000000: ab38 51be 92a7 55be 4abe 8b3e 72a9 f23d
00000010: 15cd 84be 190b 6e3c d8a5 4dbe 413f f4bd
00000020: 1f7b 323d 2e6d b1be 1c2c 90be e293 89bd
00000030: 9743 c0bc a8ed a73e 005d c9bd 6d4a 803e
-0.20431773 -0.20864704 0.27293617 0.118487254 -0.25937715 0.014529013 -0.20082796 -0.11926127
0.04357445 -0.3465361 -0.28158653 -0.067176595 -0.02346973 0.32798505 -0.098321915 0.25056782

linear_relu_stack1.2.weight f4 [16, 16]
00000000: b08b 073e 6f5c 20be 8c64 71be 7334 cc3c
00000010: 7a0f a33d 2100 bf3d e015 9b3d f89f f6bb
00000020: 7f06 813e 6044 67bc caad 6ebe a4e3 c13d
00000030: 8054 efbd d356 763e b52b 6b3d af2e b9be
00000040: a74b e13c 5012 66be 3c00 043e d9d4 0fbc
00000050: 2217 a6bd 5fd8 873d 5836 c6bd 7032 113d
00000060: b4e4 4e3e 5c00 413e 2ac5 253d ee3a 203e
00000070: 6e1d b83d d591 98bd 40d0 2f3e 6b9c e8bd
00000080: 1eb7 2b3e 7f53 e8bc 60d6 833d 279f 2d3e
00000090: a1e2 e0bc 7d92 44be fc76 93bd ed22 273e
000000a0: 230f ba3d aa17 49be d79b 223e 1022 aabd
000000b0: 6b03 583e 30e0 35be 3364 72bc 82a9 51be
000000c0: ca75 a1bd d59a 6cbe d91e 31be 9719 ea3d
000000d0: a169 5e3d 0a36 29be 10f8 933d 2841 76bd
000000e0: 1879 3b3e 207b 333e c077 413e 3c13 6fbe
000000f0: ea80 083e 2f46 a1bd 0d88 f03d cff8 20bc
00000100: b153 613e c978 4a3e e7e8 653e f48e e53c
00000110: 9cf9 7abe 415d e8bd 0032 f9ba daa7 51be
00000120: 5e45 63bd e407 6e3e 2a79 773e 006b 833d
00000130: ff1d 13be 2497 17be 0ed0 d9bd 31aa b53e
00000140: f8e6 11be f307 343d 84da 003d 5479 dbbd
00000150: 4153 5fbe a611 483e 28e4 433d 80bd 3a3e
00000160: 8ed9 2ebd a45f 1fbe 9c77 9ebd c8e9 8fbd
00000170: 44e2 e2bc 90d6 75bc 901b c33d dfa3 6fbe
00000180: c4a7 523e f2e8 2c3e aa9f de3d 88a2 eb3d
00000190: 3099 0d3e c57e 15bd d44a 34be 93ae 8cbd
000001a0: 2404 89bc 7898 78bd 7cce 53bd 98ef 003d
000001b0: 7601 26be 8b64 97bd 3360 8fbc 6d5c 3fbe
000001c0: dd14 593e b76a 00be 3c30 7d3d 8030 913e
000001d0: 6bc5 f93d dcaf 30bc 1c85 663e dd3f 09be
000001e0: 8469 39be 50f8 adbc 59cf 353d 4c2d c83d
000001f0: 3567 99bd bde9 333e 2d29 39be 2a05 043e
00000200: 6f51 833e 61d9 adbd 02f8 cf3d dfca 903d
00000210: 2821 37be 5e37 12bd 04fa 9abd 091f 173b
00000220: f5b8 fe3d d8dc 4abe 7da6 67be c461 2dbe
00000230: 3ee5 67be 326c 113e d767 f93d 0f60 d83d
00000240: 757f cdbd a6c9 043e 197e 1bbe e25f 93be
00000250: 806c 753e b3de 4a3e 027b 453e f865 99bc
00000260: 10a1 dc3d b8d2 013e 700b d8bd 10d2 f8bd
00000270: c693 c2bd 9b9c ad3e 662d 193e 1a14 c7be
00000280: d04b b1bd c636 a63c 5019 233d ce46 b53d
00000290: 3bdb 48be dfd3 453e a298 53be 2034 823c
000002a0: 31d3 74bd 38be 5d3d fc88 ddbd b609 39be
000002b0: d8f4 913d 0162 ccbd 7128 29bd 554e 433e
000002c0: 9fac 39bc dca9 f6bd 71c2 103e 7f2d 91bb
000002d0: 035d fe3d a743 173e 9002 ebbd 4452 543e
000002e0: 9c57 1a3d 8082 a2bb b5f4 3f3e 98ae 62bd
000002f0: 1d27 4ebb 48f3 27bd 3773 dfbd c8d5 7b3e
00000300: ef2b f43d 6b90 5cbe 8d53 2e3e 47b3 503e
00000310: 7cb2 02be b55f 0fbd 0c7e be3d 37de 86bd
00000320: b547 23be 220f 5a3e 95b2 68be c054 613e
00000330: bf5a 283e 0182 833e 7cc2 85bd 7956 5cbe
00000340: c7c5 be3c 07f8 4ebe e517 573d b185 48be
00000350: 06e6 c4bd 303e 00bd 305b 263e 5c80 4d3e
00000360: 84c2 253d 9c10 623e f8ac 23bd 7494 efbd
00000370: ea50 bbbd 8e1d 33be f0de 30be 19b8 0d3e
00000380: 15bc fb3d c94b ff3d a467 9bbd 1a48 e2bd
00000390: a2b2 e5bd 6b72 06be b068 fd3d d4b8 adbd
000003a0: ce12 283e 8e83 3bbe 9146 593e 0c0f f33d
000003b0: b653 6cbe 5dce 063e d53e 1bbe cb50 aebe
000003c0: 1f01 a8bd 7ca4 ac3c c2de 6abe b419 543e
000003d0: f41b 603e 95d8 98bd 14c0 a2bd 5d4f f7bd
000003e0: eb96 893e 0089 66bd 8995 693e e835 713e
000003f0: bc17 1b3d 8a46 b83d 7b0b 063e abb3 b9bc
0.1323688 -0.1566026 -0.23573512 0.024927353 0.07961936 0.093261965 0.07572532 -0.007526394
0.2520027 -0.014115423 -0.23308483 0.09467247 -0.11686039 0.24056558 0.05741473 -0.3616843
0.027501894 -0.22467923 0.12890714 -0.008778774 -0.08109881 0.066330664 -0.09678334 0.03544849
0.20204431 0.18847793 0.040471233 0.1564748 0.08989988 -0.0744969 0.17169285 -0.11357959
0.16769072 -0.028360127 0.06437373 0.16955243 -0.027451815 -0.19196506 -0.07200429 0.16321917
0.09084918 -0.19637933 0.1587976 -0.08307278 0.21095054 -0.17761302 -0.014794397 -0.20474818
-0.078837946 -0.23105939 -0.17296924 0.11430662 0.054299954 -0.1652452 0.072250485 -0.06012073
0.18307912 0.17527437 0.18893337 -0.23347181 0.13330427 -0.078747146 0.117446996 -0.009824946
0.22004582 0.19772638 0.22452126 0.028022267 -0.24509281 -0.11345912 -0.0019012094 -0.20474187
-0.055486076 0.23245198 0.24167314 0.06416893 -0.14366911 -0.1480375 -0.106353864 0.35481408
-0.14248264 0.043952893 0.031458393 -0.10716501 -0.21809103 0.19537982 0.04782501 0.18236351
-0.042687945 -0.15563828 -0.077376574 -0.07027012 -0.027695782 -0.015004769 0.095267415 -0.23402356
0.2057181 0.16885737 0.10870297 0.1150561 0.13827968 -0.03649785 -0.1760667 -0.06869235
-0.016725607 -0.06069228 -0.05171059 0.031478494 -0.16211495 -0.07392224 -0.017501926 -0.18687601
0.21199365 -0.12540708 0.061813578 0.28357315 0.121958576 -0.010784116 0.22511715 -0.13403268
-0.18106657 -0.021236569 0.044387195 0.09774265 -0.07490388 0.17569633 -0.18082114 0.12892595
0.25648066 -0.08488727 0.101547256 0.070699446 -0.17883742 -0.035697334 -0.07567218 0.002305927
0.124376215 -0.19810808 -0.22622104 -0.16931826 -0.22646043 0.1420143 0.12178009 0.10565197
-0.10034076 0.12967548 -0.15184821 -0.2878409 0.2396717 0.19811516 0.19285205 -0.01872538
0.10772908 0.12678039 -0.105490565 -0.12149441 -0.09500842 0.33908543 0.14958724 -0.38882524
-0.08657038 0.02028979 0.03981906 0.088513955 -0.1961488 0.19319104 -0.20663694 0.015893996
-0.05977172 0.054136485 -0.10817143 -0.1807011 0.07126778 -0.0997963 -0.041298334 0.1907285
-0.01133266 -0.12044117 0.14136674 -0.0044304724 0.12420084 0.14771901 -0.11475098 0.20734507
0.037681207 -0.0049594045 0.18745692 -0.055342287 -0.0031456419 -0.041003495 -0.10910647 0.2459327
0.11922442 -0.21539466 0.1702406 0.20380889 -0.12763399 -0.035003383 0.09301385 -0.06585353
-0.15945323 0.21294835 -0.22724374 0.22004986 0.16440867 0.25685123 -0.065312356 -0.21517362
0.023287667 -0.20211802 0.052513022 -0.19582249 -0.09614186 -0.031309307 0.16245723 0.20068496
0.040468708 0.22076648 -0.039959878 -0.11698237 -0.091462925 -0.17491743 -0.17272544 0.13839759
0.12291733 0.12465627 -0.07588127 -0.110489085 -0.11215712 -0.13129584 0.12373483 -0.08482519
0.16413423 -0.18311903 0.21218325 0.11868104 -0.23078808 0.13164659 -0.15160687 -0.34046015
-0.08203339 0.021074526 -0.22936538 0.2071293 0.21885663 -0.07463185 -0.07946792 -0.12075684
0.26872954 -0.056282997 0.2281095 0.2355572 0.03786443 0.08997829 0.13090317 -0.02266868

linear_relu_stack1.2.bias f4 [16]
00000000: 900b 273e 7e6b dc3d 8e89 483e 9a73 4ebd
00000010: 91f9 b83d 7c74 403d 011e 213e 7bcd 06bd
00000020: 553c 25be 678a a13a 4946 45be a084 e53d
00000030: 5e85 863e 9a10 073e 07ed 143e f03e 5b3e
0.16313004 0.1076269 0.19583723 -0.050403215 0.09031976 0.04698609 0.15734102 -0.032910805
-0.16136296 0.0012324572 -0.19265093 0.11206937 0.26273626 0.13189927 0.14543544 0.21410728

linear_relu_stack1.4.weight f4 [8, 16]
00000000: 3112 8f3e b3bc e5bd 60ae c8bd 508b f53d
00000010: 3c68 d93c c25d fb3d 0cf5 753d cae0 1fbe
00000020: f612 43be 3797 393e f677 353e 5a5f fb3d
00000030: b63b 4bbe b4dd 923d 4daf d13d 34f5 83bd
00000040: 4954 1dbe 749e 423e 6b8f 0e3e cfe5 02be
00000050: a824 34bd e62f 193e ff10 de3d 4ddc 663e
00000060: 7f3f 24be 92da 023d 87c3 393e f22e ac3d
00000070: aeba 74be a279 973d 32cb 5cbe fc22 e2bd
00000080: 9fee 693e 9a7c ef3c 46a3 2e3e 500f da3d
00000090: febe 1d3b a1d7 e8bd 7ee5 663e fd53 9f3c
000000a0: 6771 c23c 5e38 2d3e d059 bf3d 96da 29be
000000b0: 30c6 5c3e 0a39 3abe 5361 863e 8689 073e
000000c0: af91 ef3c 4542 edbd 5b99 64be 74a5 bcbc
000000d0: af9b 5fbe e5be e33d 7152 8dbd 61ea 51be
000000e0: c7d0 47be ddbd a23e f116 cc3d 0c42 13be
000000f0: d671 343e 1fc9 65be a553 903e 50a2 fc3d
00000100: 447c 28be 990e 08bd 38aa 38bd b2fd c7bd
00000110: 80d3 12be 5fbd 363d 3868 03bc 7d54 5cbe
00000120: afb5 613e 87c9 833e 1fa1 063e 3176 543e
00000130: 87ea 06bd 5153 a0bd 8213 bc3d 68f4 62be
00000140: 2772 58be 72a7 84be f452 003e de01 013d
00000150: 1fe0 b73e 0554 8e3d 66bf d93d c39a 553e
00000160: fb45 2fbd 7af2 a2be bbbb 5f3e 3af9 8d3e
00000170: f4bb 6b3e 9296 7fbe 2936 35be 568c 873d
00000180: bc19 fe3d a181 a53d 90b1 5d3e ca74 be3d
00000190: ed2e 4fbe eb52 32bd 1fef 043e b60d edbd
000001a0: 5876 e83d 2d6a 4e3d c9bc 2f3d 0680 d1bd
000001b0: 7840 663d be6d 3bbe 94ce aebb 7583 033e
000001c0: f3dd 533e 4dc5 17be 44fc 703e f8ff 4dbe
000001d0: c8ed 35be 75cf 1bbe 0998 3dbe 93c4 5f3d
000001e0: 367d 34be 02b5 ad3e 141e d9bd 49a6 2b3e
000001f0: 06f3 7e3d a247 1c3e 203d 373d 11cb 853e
0.27943566 -0.11217632 -0.097988844 0.119894624 0.02653896 0.12273742 0.060048148 -0.15613094
-0.19050202 0.1812409 0.17721543 0.12274046 -0.19846997 0.07171193 0.10238514 -0.06443253
-0.15364183 0.19005758 0.13921897 -0.12782978 -0.04398027 0.14959678 0.108430855 0.22544976
-0.16039847 0.031946726 0.18140994 0.084073916 -0.23899338 0.073962465 -0.21561888 -0.11041829
0.22844933 0.02923422 0.17054471 0.10647452 0.002407014 -0.11369253 0.22548482 0.019449228
0.023735715 0.16916034 0.09343302 -0.1658729 0.21559978 -0.18185821 0.26246127 0.13236055
0.029244272 -0.115849055 -0.22324125 -0.023028113 -0.21836732 0.111203946 -0.0690049 -0.20499565
-0.19513236 0.3178548 0.09965313 -0.14380664 0.1762155 -0.22440003 0.28188816 0.12335646
-0.16453654 -0.033217046 -0.04508421 -0.097651854 -0.14338493 0.044614192 -0.008020453 -0.21516605
0.22041963 0.2573969 0.131474 0.20748211 -0.032938506 -0.07828391 0.09183408 -0.22163546
-0.21137296 -0.25909 0.12531644 0.03149592 0.35913178 0.06949619 0.106322095 0.20859818
-0.042791348 -0.3182562 0.21848957 0.27729207 0.23020917 -0.24959782 -0.17696442 0.06618564
0.12407252 0.080813654 0.21649766 0.092996195 -0.20232745 -0.043536108 0.12981842 -0.11574881
0.11350697 0.050394226 0.04290465 -0.10229497 0.056213826 -0.18303582 -0.0053346846 0.12843116
0.20690136 -0.14821358 0.23533732 -0.20117176 -0.17766488 -0.15215857 -0.18515028 0.054630827
-0.17625889 0.3392716 -0.1060144 0.16762652 0.062243484 0.15261701 0.044736028 0.2613149

linear_relu_stack1.4.bias f4 [8]
00000000: f278 4e3b 0292 a93d e48a 183e 0c3d 5dbe
00000010: 7f70 52be 5e36 1cbe 7cee 64be bf00 be3d
0.0031505194 0.08279802 0.14896733 -0.21605319 -0.20550726 -0.15255114 -0.223566 0.09277486
