NQE/results/PCA_NQEClassifier/kmnist/1exp/model.pt (torch, 12463 bytes, 10 tensors)

nn_layer.0.weight f4 [16, 8]
0	0xbe8af56a	-0.2714036
1	0x3e0dcda5	0.13847978
2	0x3e58ad41	0.21159841
3	0xbdad2b20	-0.08455491
4	0x3e9b8cfb	0.30380997
5	0x3e275aea	0.16343275
6	0x3e656e52	0.22405365
7	0xbe1699b2	-0.14707068
8	0xbeb88c38	-0.36044478
9	0x3b567bc0	0.003272757
10	0x3bb3ef26	0.005491155
11	0x3eb5c986	0.35505313
12	0x3e02baac	0.12766522
13	0x3d92ac2b	0.07161745
14	0xbdd67ebf	-0.10473394
15	0xbe95add1	-0.29234174
16	0xbdc525c5	-0.096263446
17	0xbe2c1d07	-0.16807948
18	0xbeaefa2a	-0.34175235
19	0xbea81037	-0.3282487
20	0xbe40cde3	-0.1882854
21	0xbe98164c	-0.2970451
22	0x3bd4797b	0.006484208
23	0xbe92ca4e	-0.2866997
24	0x3d3f33cf	0.046680268
25	0xbe4b1076	-0.19830498
26	0x3e8aebe3	0.27133092
27	0xbe1e60ad	-0.15466566
28	0xbd8e8526	-0.0695899
29	0xbeb3f606	-0.35148638
30	0x3d1e8939	0.038705084
31	0xbe6b9f03	-0.23009877
32	0xbf017458	-0.5056815
33	0x3ea33302	0.31874853
34	0x3e1dd5f9	0.15413655
35	0x3e79f064	0.24408108
36	0xbd99a018	-0.075012386
37	0x3dd95f5f	0.10613894
38	0x3eac1f74	0.33617747
39	0xbdbecf51	-0.09316886
40	0x3d5e3fd3	0.054260086
41	0xbe67e008	-0.22644055
42	0x3d8db09d	0.06918452
43	0x3e837af9	0.25679758
44	0x3d76ffc7	0.060302522
45	0xbe6e0f9a	-0.23248139
46	0x3bf6fe45	0.0075376355
47	0xbe0e39fa	-0.13889304
48	0xbe610411	-0.21974207
49	0x3ce7d3c5	0.028299222
50	0xbe8a1d62	-0.26975542
51	0x3e8e7c06	0.27828997
52	0x3e2adc10	0.1668551
53	0x3abaa90c	0.0014241054
54	0xbe1f9b2b	-0.15586536
55	0x3e50536a	0.2034432
56	0x3cb8d412	0.02256206
57	0x3e6426a6	0.22280368
58	0x3ddadb82	0.10686399
59	0x3ea3bcf6	0.31980103
60	0xbde82978	-0.113360345
61	0x3cba03af	0.022706835
62	0x3e77a0a1	0.24182369
63	0xbe6483ae	-0.22315857
64	0xbd9f464e	-0.077770814
65	0x3e20048a	0.15626732
66	0x3e9746b9	0.29546145
67	0x3d80d762	0.06291081
68	0xbe804b3b	-0.25057396
69	0x3e5a5194	0.21320182
70	0x3d1731b6	0.036912642
71	0xbd9b2626	-0.075756356
72	0xbe6e5ddf	-0.23277996
73	0x3e31ea87	0.17374621
74	0x3e867eb9	0.26268557
75	0xbdd5f95e	-0.10447954
76	0xbe8bccc6	-0.27304667
77	0xbe9b3a5b	-0.3031796
78	0xbd0e4945	-0.034737844
79	0x3e958c16	0.2920844
80	0x3f026985	0.5094226
81	0xbeb145ba	-0.3462351
82	0xbde781ae	-0.11304031
83	0x3d62e929	0.05539814
84	0x3d3385b0	0.043828666
85	0xbddf789b	-0.109116755
86	0xbe1478dc	-0.14499229
87	0x3e7f2bac	0.24919003
88	0xbded0d40	-0.11574793
89	0xbda3413e	-0.07971428
90	0xbe5eb870	-0.21750045
91	0x3ea14b10	0.3150258
92	0xbe0c7619	-0.13716926
93	0xbe11772f	-0.14205621
94	0x3ea74574	0.32670176
95	0x3e6102ca	0.2197372
96	0xbe72b572	-0.23702028
97	0xbe9ef181	-0.31043628
98	0xbca430ff	-0.020042894
99	0x3c2f421e	0.010696916
100	0x3d93b2aa	0.07211812
101	0xbe9a4026	-0.30127066
102	0x3dc813f5	0.097694315
103	0x3d2b4b7e	0.04182004
104	0xbdffce3b	-0.12490507
105	0x3e8b5d6b	0.2721971
106	0xbe9d15fd	-0.30680838
107	0x3df848ab	0.12123235
108	0x3dc183d7	0.094489746
109	0xbd645a5b	-0.055750232
110	0xbdd30ca8	-0.10305148
111	0x3bcdc8c4	0.0062800366
112	0x3ee92c38	0.4554155
113	0x3e8d77ee	0.27630562
114	0xbd862e9d	-0.065518595
115	0xbdc1cc8a	-0.09462841
116	0x3ea714fd	0.326332
117	0x3ea8d1bc	0.32972515
118	0x3e9b54e6	0.3033821
119	0xbe371cd1	-0.17882086
120	0x3c98eb56	0.018666904
121	0xbe971f0a	-0.29515868
122	0x3e16b9eb	0.1471936
123	0xbe17e6be	-0.14834115
124	0xbdc0dd6a	-0.094172314
125	0xbe927bc3	-0.28610048
126	0xbeaaa94e	-0.33332294
127	0x3dc7e3fa	0.0976028

nn_layer.0.bias f4 [16]
0	0x3eaae81a	0.33380204
1	0xbe405e9e	-0.18786094
2	0x3e0d9717	0.13827167
3	0x3e230036	0.15918049
4	0xbe65de9b	-0.22448198
5	0xbe779e43	-0.24181466
6	0x3e9e64d4	0.309363
7	0x3e506de7	0.20354424
8	0xbe8acde5	-0.2711021
9	0xbe98c8a5	-0.2984058
10	0x3e944747	0.2896063
11	0xbe79741f	-0.24360703
12	0xbcbdc06e	-0.023163047
13	0x3c985d33	0.018599128
14	0x3ebf53d4	0.37368643
15	0x3e902ca6	0.28159064

nn_layer.2.weight f4 [32, 16]
0	0xbe4fc72b	-0.2029082
1	0x3cd155c3	0.02555359
2	0xbd371240	-0.04469514
3	0xbe347306	-0.17622003
4	0xbdb4ccb6	-0.08828108
5	0xbe677265	-0.22602232
6	0xbe5251be	-0.20538995
7	0xbb89b7ce	-0.0042028194
8	0x3d899f80	0.06719875
9	0x3e64a987	0.22330295
10	0xbe4f3e1a	-0.20238534
11	0x3e08c6d8	0.13357103
12	0x3e2a34cb	0.16621701
13	0xbe49155a	-0.19637051
14	0xbe1d2e08	-0.15349591
15	0x3e0473bc	0.12934774
16	0xbe718b0c	-0.23588198
17	0xbd654fd8	-0.055984348
18	0xbc50b0a0	-0.012737423
19	0x3e200640	0.15627384
20	0xbdf3e600	-0.119091034
21	0xbd4b80f5	-0.04968353
22	0xbe4f21ba	-0.2022771
23	0xbe70151c	-0.23445553
24	0xbe4dbe4b	-0.20092122
25	0x3e30b193	0.17255239
26	0x3d5f87ec	0.054572985
27	0x3d81e395	0.06342236
28	0x3dc1546d	0.09439931
29	0xbc2d12a1	-0.0105635235
30	0x3dfb2a42	0.122639194
31	0xbd0fc152	-0.035096474
32	0x3d43f801	0.047843937
33	0x3e4333a6	0.19062671
34	0xbe3d005a	-0.18457165
35	0xbd09dcdb	-0.03365789
36	0x3e217538	0.15767372
37	0xbde41bc0	-0.111381054
38	0x3e600ce0	0.21879911
39	0x3dddf77f	0.10838222
40	0x3e0d3bc9	0.13792337
41	0xbd46fdb2	-0.048581786
42	0xbe2fae18	-0.17156255
43	0x3d38153d	0.04494213
44	0xbd8c9d0a	-0.0686589
45	0x3dfa8c95	0.12233845
46	0x3d8ceb65	0.068808354
47	0x3e5dde3a	0.21666804
48	0x3e2ace6f	0.1668031
49	0xbd82cb06	-0.0638638
50	0xbd9bdb50	-0.0761019
51	0x3e11428a	0.14185539
52	0x3e025ce3	0.12730746
53	0x3d63811e	0.055543058
54	0x3e39f449	0.18159594
55	0x3d5e938b	0.054339927
56	0x3e28b90a	0.16476837
57	0x3e1bff98	0.1523422
58	0xbe186c4a	-0.14885059
59	0x3d9aee0d	0.07564936
60	0x3d8f2ce6	0.069909856
61	0x3e38409d	0.17993398
62	0xbded348b	-0.115822874
63	0x3deba847	0.11506706
64	0xbdde3087	-0.108490996
65	0x3e58f865	0.21188505
66	0xbe6ca20c	-0.23108691
67	0xbd149e86	-0.036283992
68	0x3e33babc	0.17551702
69	0x3e176c68	0.14787447
70	0x3c2b45ad	0.010453624
71	0x3e35bd16	0.17747912
72	0xbe7bb895	-0.24582131
73	0x3a4f400e	0.0007905968
74	0xbdd1eec2	-0.102506176
75	0x3e4e1b51	0.20127608
76	0xbd90b308	-0.070653975
77	0xbe56d24e	-0.20978662
78	0xbd86bb70	-0.065787196
79	0x3e43e624	0.1913076
80	0xbe8bedce	-0.27329868
81	0xbe220c19	-0.15824927
82	0xbd713fa0	-0.05889857
83	0xbe750927	-0.23929273
84	0xbe60d22e	-0.21955177
85	0x3dfca0e5	0.12335376
86	0x3d9b5d4e	0.07586156
87	0xbe38cbc3	-0.18046479
88	0x3e587646	0.21138868
89	0xbe09b082	-0.13446239
90	0x3d56c924	0.052437916
91	0xbe15bac2	-0.14622024
92	0x3e29e0de	0.16589686
93	0xbb0d6317	-0.0021573955
94	0x3ea65e29	0.32493713
95	0x3af036b7	0.0018326853
96	0x3d566771	0.052344743
97	0x3e6a74f6	0.2289618
98	0xbde16438	-0.11005443
99	0x3e64a270	0.2232759
100	0xbd6747b3	-0.056464862
101	0x3e2c6a28	0.1683737
102	0x3d498175	0.049195725
103	0x3e1cdf90	0.15319657
104	0xbd08c38e	-0.03338962
105	0x3e7ba81b	0.24575846
106	0xbc9c67e1	-0.019092502
107	0x3d212bfb	0.039348584
108	0x3dd0d9a2	0.1019776
109	0xbe29fa7f	-0.16599463
110	0xbe4c151e	-0.1992993
111	0xbe26306b	-0.16229407
112	0xbe1e9f82	-0.15490535
113	0x3e68085c	0.22659439
114	0x3e2b8630	0.16750407
115	0x3d48c120	0.049012303
116	0xbd17d1f9	-0.03706548
117	0x3c66bbc8	0.0140828565
118	0x3dc24411	0.09485639
119	0xbd796b0b	-0.0608931
120	0xbe08fc50	-0.133775
121	0xbe392840	-0.1808176
122	0xbc8b013a	-0.016968358
123	0xbdad2060	-0.08453441
124	0xbe4498aa	-0.19198862
125	0x3cfef4c4	0.031122573
126	0xbcb22317	-0.021745248
127	0x3c675ee0	0.014121741
128	0xbde683f6	-0.11255638
129	0x3dbd8305	0.092535056
130	0x3e5b1130	0.21393275
131	0x3cf37a27	0.029721333
132	0xbe80cbe5	-0.2515556
133	0xbe4e5be2	-0.20152238
134	0x3dd004eb	0.10157188
135	0x3df70c27	0.12062865
136	0xbdac0343	-0.083990596
137	0x3db8b1a6	0.09018259
138	0x3e45ed96	0.19328913
139	0xbdf6c939	-0.12050099
140	0xbd8b5a0a	-0.06804283
141	0xbc9704c1	-0.018434884
142	0x3de629ba	0.112384275
143	0xbe34d140	-0.17657948
144	0x3e5f10d3	0.21783762
145	0xbe3f4f30	-0.18682551
146	0x3e34db94	0.17661887
147	0x3dffafcf	0.12484705
148	0xbe5e5c58	-0.21714914
149	0x3e0207de	0.12698314
150	0x3e0607d1	0.13088919
151	0x3e129f9d	0.143187
152	0x3c95f92f	0.018307297
153	0xbdf0e402	-0.11762239
154	0x3e04195d	0.129003
155	0xbd202c25	-0.0391046
156	0xbe166137	-0.14685522
157	0x3ddc9500	0.10770607
158	0xbe509920	-0.20370913
159	0xbe45d1ff	-0.19318388
160	0x3e3cc450	0.18434262
161	0x3d827077	0.06369107
162	0xbe25c31e	-0.16187713
163	0x3c93d659	0.018046545
164	0x3ddc38f9	0.10753054
165	0xbe40ee71	-0.18840958
166	0xbe4f39ce	-0.20236894
167	0x3df19d43	0.117975734
168	0xbe593a0f	-0.21213554
169	0x3e7c6676	0.24648461
170	0xbd023b36	-0.03179475
171	0xbe70b0ab	-0.23504893
172	0x3d9f5015	0.07778946
173	0x3d65e558	0.056126922
174	0x3e321e56	0.17394385
175	0xbe04024c	-0.12891501
176	0x3e89f28b	0.26942858
177	0x3cda2c97	0.02663259
178	0x3e1e90ee	0.15484974
179	0x3dde8e3d	0.108669735
180	0x3e91a96c	0.2844957
181	0xbe1e3085	-0.15448196
182	0xbdc22ece	-0.094815835
183	0x3dd11b7b	0.102103196
184	0x3cc9ecf5	0.024649123
185	0x3d8661a0	0.06561589
186	0xbe6ad2a5	-0.22931917
187	0x3c02c294	0.007980961
188	0x3d250276	0.04028555
189	0xbe437a9f	-0.19089745
190	0x3da5ff1e	0.081053
191	0xbe7cde85	-0.2469426
192	0x3e693218	0.22773015
193	0xbe407dc1	-0.18797971
194	0x3e673c0e	0.22581503
195	0xbe54a5c8	-0.20766366
196	0x3e43c425	0.19117792
197	0xba087d98	-0.0005206703
198	0x3e4c9f92	0.19982746
199	0x3de49566	0.11161308
200	0xbd57362f	-0.052541908
201	0xbe00657f	-0.12538718
202	0x3e0e2d84	0.1388455
203	0xbe7978a1	-0.24362423
204	0xbe417bec	-0.18894929
205	0x3c76d279	0.015064829
206	0x3e1a663e	0.15078065
207	0xbe046495	-0.12928994
208	0xbe50bfc2	-0.2038565
209	0x3d9a98ec	0.07548699
210	0x3d530db8	0.051526755
211	0x3e4202fe	0.18946454
212	0xbe7f5bd6	-0.24937376
213	0xbd1fabda	-0.03898225
214	0xbdf4431d	-0.11926863
215	0xbe245521	-0.16048099
216	0xbe261315	-0.16218217
217	0xbcf983fd	-0.030458445
218	0x3d4667fd	0.048439015
219	0xbc2a169c	-0.010381367
220	0xbda2ca48	-0.07948738
221	0x3d83a5f0	0.064281344
222	0xbd5156bb	-0.051108103
223	0x3e7b40ed	0.24536486
224	0xbd3f27e0	-0.046668887
225	0xbe0fd610	-0.14046502
226	0x3cc5bfb0	0.024139255
227	0xbd25c008	-0.04046634
228	0xbd24b4e8	-0.04021159
229	0x3df07e7c	0.11742875
230	0xbdae559c	-0.085124224
231	0xbbc3b080	-0.005971968
232	0xbcfc93d0	-0.030832201
233	0xbdb662c8	-0.0890556
234	0x3dae6714	0.08515754
235	0xbe772d58	-0.24138391
236	0xbe506c3c	-0.20353788
237	0x3e0c8470	0.13722396
238	0xbda1bd4c	-0.07897434
239	0xbd836ab0	-0.064168334
240	0xbe52f116	-0.2059978
241	0xbde965ce	-0.11396371
242	0x3da6a184	0.081362754
243	0xbd41735e	-0.047229163
244	0x3d90c22f	0.070682876
245	0xbe74707f	-0.23871039
246	0xbe1098cd	-0.14120789
247	0x3dfbdca2	0.12297942
248	0x3e236e40	0.15960026
249	0xbdb2187a	-0.08696075
250	0x3e480880	0.19534492
251	0xbe43066f	-0.19045423
252	0x3e26a4de	0.1627383
253	0x3d5639e3	0.0523013
254	0xbe4e43f5	-0.20143111
255	0x3db61e4b	0.08892497

nn_layer.2.bias f4 [32]
0	0x3e6234cd	0.22090454
1	0xbe2b516d	-0.1673028
2	0x3d6af900	0.05736637
3	0xbdf4717c	-0.11935708
4	0xbe74e0c1	-0.23913862
5	0x3e008df1	0.12554146
6	0xbda8d32a	-0.08243401
7	0xbd410bb3	-0.047130298
8	0x3d5b6a3c	0.05356811
9	0xbe1fcb90	-0.15604997
10	0x3e5a561b	0.21321909
11	0xbe15bb29	-0.14622177
12	0xbd524ff6	-0.051345788
13	0xbe1280fa	-0.14307013
14	0xbe7d0944	-0.24710566
15	0x3e532c43	0.20622353
16	0xbd269689	-0.040670905
17	0x3e48dd47	0.1961566
18	0x3e873329	0.2640622
19	0x3e2ea95f	0.17056797
20	0xbdd1ccbb	-0.10244127
21	0xbe459e80	-0.19298744
22	0xbdbf3598	-0.09336394
23	0x3df1d034	0.1180729
24	0x39e6d56f	0.0004402804
25	0x3de0a0f2	0.10968198
26	0x3e5b78e8	0.21432841
27	0x3e6456f6	0.22298798
28	0xbd3cac61	-0.04606283
29	0x3dfeaec6	0.12435679
30	0x3e7909aa	0.24320093
31	0xbcc8f416	-0.024530452

nn_layer.4.weight f4 [32, 32]
0	0xbc3284ce	-0.010895921
1	0xbd284728	-0.041083485
2	0x3d3efdd8	0.046628803
3	0xbdd011a6	-0.10159616
4	0x3d8db8a0	0.0691998
5	0x3daba0f7	0.08380311
6	0x3d4c6d78	0.049909085
7	0x3e16747e	0.14692876
8	0xbd24bf1a	-0.04022131
9	0x3dc537c7	0.09629779
10	0x3de8415d	0.11340592
11	0xba154b14	-0.00056950864
12	0xbdd6c401	-0.104866035
13	0xbd8b1534	-0.067911536
14	0x3d71b295	0.0590082
15	0x3b64721f	0.003485806
16	0x3db37698	0.08762854
17	0x3d36a666	0.044592284
18	0x3cd5169a	0.026011754
19	0xbbeb6cd6	-0.007184605
20	0x3d740ab9	0.05958054
21	0x3d271730	0.040793598
22	0xbdb68797	-0.089125805
23	0x3dce98dd	0.1008775
24	0x3c0c5bf4	0.008566845
25	0x3ca9e230	0.020737737
26	0xbe1d7bee	-0.15379307
27	0x3e07562a	0.13216463
28	0xbde75716	-0.11295907
29	0xbd94f896	-0.072739765
30	0x3de59e68	0.11211854
31	0x3db7ebba	0.08980508
32	0x3e1c6542	0.15273002
33	0xbd01f13e	-0.031724207
34	0xbdc3d133	-0.09561386
35	0x3e2c82a0	0.16846704
36	0xbd6995c5	-0.057027597
37	0xbd9e4dcd	-0.07729683
38	0x3e18f43f	0.14936922
39	0xbc99de7a	-0.018782843
40	0x3d5e6b04	0.054301277
41	0x3b3ec072	0.0029106406
42	0xbe0d74a6	-0.13814029
43	0x3dc6f980	0.09715557
44	0xbd90871b	-0.07057019
45	0xbdde6e01	-0.10860825
46	0xbe0cae84	-0.13738447
47	0xbe1266f8	-0.14297092
48	0x3da38b3f	0.079855435
49	0xbe1f107a	-0.15533629
50	0x3e296bd2	0.16545036
51	0x3e1b2710	0.1515162
52	0xbe26df6b	-0.16296165
53	0xbdf76e67	-0.120816045
54	0xbd098141	-0.03357053
55	0xbdfff1ac	-0.12497267
56	0xbddebfdd	-0.10876439
57	0x3d248298	0.040163606
58	0xbd941a8f	-0.07231628
59	0xbe11d1d0	-0.14240193
60	0xbe34c6f5	-0.17654021
61	0x3dd5eb74	0.104453
62	0xbdeab869	-0.11460955
63	0x3df66a9c	0.12032053
64	0xbe2abdb0	-0.16673923
65	0xbd4305a1	-0.04761279
66	0xbe0b3a40	-0.1359644
67	0x3d8ffffc	0.07031247
68	0xbe335709	-0.1751367
69	0xbe343412	-0.17597988
70	0x3bd79a75	0.006579692
71	0x3e081903	0.13290791
72	0xbe2d3ab8	-0.1691693
73	0xba4a5a37	-0.00077191315
74	0xbdd430fd	-0.10360906
75	0xbe23cfcd	-0.15997238
76	0x3d18269a	0.03714619
77	0x3e10ebf5	0.1415251
78	0xbd228f0c	-0.0396872
79	0x3d676ec9	0.056502137
80	0x3e1d3c86	0.15355119
81	0xbe1d0026	-0.15332088
82	0x3d918a23	0.071064256
83	0x3e30eab6	0.17277035
84	0xbe1797d1	-0.14804007
85	0x3e34c4ff	0.17653273
86	0xbd8e5e51	-0.06951583
87	0xbd7b272e	-0.06131666
88	0xbce7c445	-0.02829183
89	0xbde09dcc	-0.10967597
90	0xbdf45d68	-0.11931878
91	0x3d90e291	0.07074464
92	0x3d8bb7a6	0.068221375
93	0x3e022c46	0.12712201
94	0x3cd7b30e	0.026330497
95	0xbd39fd8b	-0.045407813
96	0xbe1ecdc9	-0.15508188
97	0x3d25367f	0.040335175
98	0xbdc3a869	-0.09553606
99	0xbd90788a	-0.07054241
100	0x3e08d96e	0.13364193
101	0x3e35625d	0.17713304
102	0xbe2ad89d	-0.16684194
103	0x3dab1019	0.0835268
104	0xbe12e2f9	-0.14344396
105	0x3d30daaf	0.043177303
106	0x3bba5263	0.005686091
107	0xbc9d292f	-0.019184677
108	0xbd41f14c	-0.04734926
109	0xbd93a260	-0.07208705
110	0x3d416097	0.047211256
111	0x3c1cd4e0	0.009572238
112	0x3e20bfa2	0.15698102
113	0xbe347db2	-0.17626074
114	0x3c94aa48	0.018147603
115	0x3dbdbca4	0.09264496
116	0xbde908cf	-0.11378633
117	0x3d05f1b5	0.032701213
118	0x3e32a9d5	0.17447598
119	0xbd1b1000	-0.037857056
120	0x3e0e7d89	0.13915075
121	0xbcf1a67f	-0.029498337
122	0x3d70e56d	0.058812547
123	0x3d1148e7	0.035469916
124	0x3d8b827d	0.06811998
125	0xbbae057a	-0.0053107115
126	0xbd22cc6c	-0.039745733
127	0xbd1256f2	-0.03572745
128	0x3e19c939	0.15018167
129	0x3dc6581c	0.09684774
130	0xbd98aa8f	-0.074544065
131	0x3abae845	0.0014259896
132	0x3d07a741	0.03311849
133	0xbe276162	-0.16345742
134	0xbda77808	-0.08177191
135	0xbdc4f197	-0.09616392
136	0x3c2c9c9f	0.010535388
137	0x3d04d915	0.032433588
138	0x3cb8aa7c	0.02254223
139	0x3ce0a3af	0.0274218
140	0xbe12da4d	-0.14341088
141	0xb9c0dd06	-0.0003678577
142	0xbdf440c1	-0.11926413
143	0xbe263f8d	-0.1623518
144	0xbd940471	-0.0722741
145	0x3d7d5f6d	0.061858583
146	0x3e0c72c8	0.1371566
147	0xbd5cc519	-0.053898904
148	0xbe068125	-0.13135202
149	0x3c4fddda	0.012687171
150	0xbe280b34	-0.16410524
151	0xbd984c29	-0.074364014
152	0x3d98474b	0.07435473
153	0x3df01ec6	0.117246196
154	0x3defd52e	0.11710583
155	0xbde87d58	-0.113520324
156	0xbdb98f5c	-0.09060547
157	0xbcbed8fd	-0.023296827
158	0xbc33cb92	-0.010973828
159	0xbd87dad1	-0.06633533
160	0x3d1269a7	0.03574529
161	0xbe2f17e6	-0.1709896
162	0x3d5b0e3e	0.05348038
163	0x3dabb8a3	0.08384826
164	0xbd12f704	-0.035880104
165	0x3aac3eda	0.001314129
166	0x3e2aa135	0.16663058
167	0xbdc7c821	-0.097549684
168	0x3e4e7768	0.20162737
169	0xbdeb93a4	-0.115027696
170	0x3e3f5dee	0.18688175
171	0xbc4127ff	-0.011789321
172	0xbd4a9fc1	-0.04946876
173	0x3d778b3a	0.06043551
174	0xba8a3142	-0.0010543244
175	0xbe06c606	-0.13161477
176	0xbd97fdd2	-0.07421459
177	0xbdcf2b3a	-0.10115667
178	0xbe2cb4bf	-0.16865824
179	0xbdeaf53f	-0.11472558
180	0x3d005180	0.031327724
181	0xbe1bf0ca	-0.15228572
182	0xbe01e98c	-0.12686747
183	0x3e0cdb97	0.13755642
184	0x3d901fef	0.07037341
185	0xbe127f6d	-0.14306422
186	0x3da05bf3	0.07830038
187	0xbe009eef	-0.12560628
188	0x3db8080d	0.089859106
189	0xbd699dde	-0.05703532
190	0x3cb84322	0.022492949
191	0x3e0b107a	0.13580504
192	0xbd6aea71	-0.057352487
193	0xbcce659f	-0.025194941
194	0x3d997ad1	0.074941285
195	0x3e1e435c	0.15455383
196	0xbe19ad66	-0.15007553
197	0xbc74da21	-0.014944584
198	0x3e19db03	0.15024953
199	0x3cfab60d	0.030604387
200	0xbe32c890	-0.17459321
201	0xbe0edca0	-0.1395135
202	0x3c10c037	0.00883489
203	0xbe11b936	-0.14230809
204	0x3e1666d3	0.14687662
205	0xbd41b432	-0.04729099
206	0xbe25fbfc	-0.16209406
207	0x3c96c80c	0.018405937
208	0xbd81ed83	-0.0634413
209	0x3cbf3b4c	0.023343705
210	0xbd894990	-0.06703484
211	0xbccb1438	-0.024789914
212	0xbb8d19e6	-0.004306066
213	0x3db07822	0.086166635
214	0x3dbfb960	0.09361529
215	0x3d4bd468	0.049763113
216	0xbe069029	-0.1314093
217	0x3e0e19f1	0.13877083
218	0xbe09631f	-0.13416718
219	0x3ccbde02	0.024886135
220	0xbd26a121	-0.04068101
221	0x3bedcfbd	0.0072574303
222	0xbe2252c4	-0.15851885
223	0xbd28e984	-0.041238323
224	0xbd3f1276	-0.046648465
225	0x3d944c5e	0.072411284
226	0xbe0fc097	-0.14038311
227	0xbe03f997	-0.1288818
228	0x3db438ab	0.08799871
229	0xbdbe00f6	-0.09277527
230	0xbd3f125f	-0.04664838
231	0xbe31b552	-0.17354324
232	0xbd9c9cd6	-0.076471016
233	0x3e310f9c	0.17291111
234	0x3d0dff4e	0.034667306
235	0x3e0abbab	0.13548152
236	0x3dd34d62	0.10317494
237	0x3da941d6	0.0826451
238	0xbe00dc6a	-0.12584081
239	0x3d9b3f3e	0.07580422
240	0x3cca61a7	0.024704767
241	0x3e0d1b4c	0.13779944
242	0x3de661c5	0.11249117
243	0x3ddd019d	0.10791323
244	0x3d42bbc4	0.04754235
245	0x3d619da1	0.055081967
246	0xbd94b4c3	-0.0726104
247	0xbdb40fe1	-0.08792091
248	0xbd2f257f	-0.04276037
249	0xbdff3844	-0.12461904
250	0x3cf87f52	0.030334149
251	0x3e13313d	0.14374252
252	0x3dcbd18c	0.09952077
253	0xbda91ecf	-0.082578294
254	0xbd0127ca	-0.031532086
255	0x3e0827b4	0.13296396

nn_layer.4.bias f4 [32]
0	0x3d37ffc9	0.04492167
1	0x3bf7dcd6	0.0075641675
2	0xbd023115	-0.03178509
3	0x3da53414	0.08066574
4	0xbc86aae4	-0.016438909
5	0x3e3e480c	0.18582171
6	0x3e203a29	0.15647186
7	0xbd61c1c7	-0.05511644
8	0x3dccc100	0.09997749
9	0xbcfab22a	-0.030602533
10	0x3e0d6c4d	0.13810845
11	0x3d27c70f	0.04096132
12	0x3e0c5ec9	0.13708033
13	0x3da0b95a	0.07847853
14	0xbd239f3c	-0.03994678
15	0x3cab40e5	0.020904968
16	0x3d23485a	0.03986392
17	0xbdb9b14c	-0.0906702
18	0x3e21a955	0.15787251
19	0xbe113f16	-0.14184222
20	0x3cfbe477	0.030748589
21	0x3e41905c	0.18902725
22	0x3d84084b	0.06446894
23	0x3d90b371	0.07065476
24	0xbe2c1046	-0.16803083
25	0xbe2774ef	-0.163532
26	0x3e28a0c8	0.16467583
27	0x3ca153e2	0.019693319
28	0xbdef2fa0	-0.116790056
29	0x3db537e0	0.08848548
30	0xbd0f1378	-0.034930676
31	0xbd33f7da	-0.04393754

nn_layer.6.weight f4 [16, 32]
0	0xbdf49bad	-0.11943755
1	0x3c93fab7	0.018063886
2	0x3d90a518	0.07062739
3	0x3ddb10f3	0.10696592
4	0x3e228cdc	0.15874046
5	0xbdb368cb	-0.08760222
6	0x3c95c703	0.018283373
7	0x3e29cc2f	0.16581796
8	0xbd29d8e1	-0.041466597
9	0xbda1b6d8	-0.07896203
10	0x3e04dd30	0.12975001
11	0x3d87fe92	0.06640352
12	0xbe16df70	-0.14733672
13	0xbe0c22bc	-0.13685125
14	0xbdce1ffd	-0.10064695
15	0x3e0a52e0	0.13508177
16	0x3cd26453	0.025682604
17	0xbca13018	-0.019676253
18	0xbe10e4bf	-0.1414976
19	0x3e02c7fa	0.12771598
20	0x3bbdd467	0.0057931426
21	0x3debeae3	0.115194105
22	0x3e154851	0.14578368
23	0xbe1ca5f5	-0.15297683
24	0xbdf612fe	-0.12015341
25	0xbdb05060	-0.0860908
26	0x3dc2e01b	0.09515401
27	0x3da8cbc4	0.0824199
28	0xbe18ae10	-0.1491015
29	0x3e221fe2	0.15832475
30	0x3dd2ffad	0.103026725
31	0x3df8a8ef	0.121415965
32	0xbd76ade0	-0.060224414
33	0x3e1d3ea1	0.15355922
34	0xbe1fe07e	-0.1561298
35	0x3e052d3e	0.1300554
36	0x3c5d23a9	0.013497272
37	0x3c4ed43f	0.012623846
38	0xbdbd4cb6	-0.09243147
39	0x3db50001	0.08837891
40	0x3d6c1642	0.057638414
41	0xbdedfe6b	-0.11620792
42	0x3d8c5f1a	0.06854077
43	0x3db6d19d	0.08926699
44	0xbe06d80a	-0.1316835
45	0x3e0d8314	0.13819534
46	0x3d5b5e3c	0.053556666
47	0x3cefb063	0.029258912
48	0xba63d22b	-0.000869068
49	0xbdfa4902	-0.122209564
50	0x3e05d3c5	0.13069065
51	0x3e1d4264	0.15357357
52	0x3d49be1c	0.049253568
53	0x3dd36515	0.10322014
54	0x3e25eee1	0.16204406
55	0xbc3b13a3	-0.011418256
56	0xbddd17cc	-0.107955545
57	0xbe34a8f2	-0.17642573
58	0xbdc9e8c2	-0.09858848
59	0xbe3767bc	-0.17910665
60	0xbe168ea4	-0.1470285
61	0xbe0228e5	-0.12710913
62	0xbdd25d02	-0.10271646
63	0x3de8c9e4	0.113666326
64	0xbe0ddaf6	-0.13853058
65	0xbd2ac7e8	-0.04169455
66	0xbaed165a	-0.0018088326
67	0x3e1c1e45	0.15245922
68	0xbd76d00a	-0.060256995
69	0x3dd991ac	0.10623488
70	0xbdec8b11	-0.11549962
71	0x3dde23da	0.10846682
72	0x3e04bfa4	0.1296373
73	0xbe140d6f	-0.1445825
74	0xbd1bb5b6	-0.03801509
75	0x3e40543f	0.18782137
76	0x3d08e300	0.03341961
77	0x3e03eced	0.12883349
78	0x3e1c16f3	0.1524313
79	0x3e0b88bd	0.1362638
80	0x3da9ea75	0.08296672
81	0xbde29be4	-0.1106489
82	0x3dc30374	0.09522143
83	0x3d27113e	0.040787928
84	0xbdbbc253	-0.09167924
85	0x3cc29892	0.023754392
86	0xbd9ac634	-0.075573355
87	0x3e2ea8f4	0.17056638
88	0xbd8eb52b	-0.06968149
89	0x3c130622	0.00897363
90	0xbe18dbff	-0.14927672
91	0x3d90c0bf	0.070680134
92	0xbd7740ed	-0.060364652
93	0x3d366fe7	0.044540312
94	0x3dac04f9	0.08399386
95	0xbd376601	-0.044775013
96	0x3dac9506	0.084268615
97	0x3d95c3d6	0.07312743
98	0xbe0063b0	-0.12538028
99	0x3de3fc5a	0.111321166
100	0x3cd41d78	0.025892958
101	0xbc0c9625	-0.008580719
102	0xbdadf724	-0.08494404
103	0x3e0a5d0b	0.13512056
104	0xbe02dd1a	-0.12779656
105	0xbcceebfa	-0.025259007
106	0xbdc4fd87	-0.09618669
107	0xbbd16e13	-0.0063912957
108	0xbe0cd286	-0.13752183
109	0xbd2e275e	-0.042518012
110	0xbddf79ee	-0.10911928
111	0xbc35ffcc	-0.01110835
112	0x3b660ddd	0.0035103478
113	0xbd913e5c	-0.07091972
114	0xbe34b086	-0.17645463
115	0x3c8cd059	0.017189192
116	0x3e34fd20	0.17674685
117	0xbe1806bf	-0.14846323
118	0xbd84fbf1	-0.064933665
119	0xbd139e15	-0.03603943
120	0xbd253b15	-0.04033955
121	0xbcdcf9d3	-0.026974594
122	0xbe1205ae	-0.14259979
123	0x3d3f1b2c	0.046656772
124	0x3d955e15	0.07293335
125	0xbdf7ef98	-0.12106246
126	0x3d605c57	0.054775562
127	0x3e21660e	0.15761587
128	0x3d0eba20	0.03484547
129	0xbc7fa2f6	-0.015602818
130	0xbdf33663	-0.11875608
131	0x3d1d0829	0.03833786
132	0x3caa45ba	0.020785201
133	0x3e3c41ce	0.18384477
134	0x3dad7800	0.08470154
135	0xbda471de	-0.08029531
136	0xbda0a4be	-0.07843922
137	0xbdb8f53e	-0.09031151
138	0x3d8ea25a	0.0696456
139	0x3e644550	0.22292066
140	0x3e162d2e	0.14665672
141	0xbe038ef9	-0.12847508
142	0xbe2979a5	-0.1655031
143	0x3e16ff2d	0.1474578
144	0x3dfc3d71	0.123164065
145	0xbdeb9c4f	-0.11504423
146	0x3d08a101	0.03335667
147	0x3e12dce7	0.1434208
148	0xbde1bf16	-0.11022775
149	0xbe3c78be	-0.18405434
150	0xbc620f24	-0.013797555
151	0x3c8bb20b	0.017052671
152	0x3dd7a370	0.1052922
153	0xbe14b321	-0.14521457
154	0xbc618271	-0.01376401
155	0x3dea93af	0.1145395
156	0x3d009247	0.0313895
157	0x3de90c7e	0.11379336
158	0xbd71a745	-0.05899741
159	0xbcabff2c	-0.020995699
160	0x3de6496a	0.11244471
161	0xbe31236c	-0.17298669
162	0xbdcd2dbf	-0.10018491
163	0x3c9e2ba7	0.019307924
164	0xbdf815f7	-0.121135645
165	0xbd705c83	-0.058681976
166	0x3d502c33	0.0508234
167	0xbcc3274f	-0.023822455
168	0xbe25ee12	-0.16204098
169	0x3e21b7ba	0.15792742
170	0x3d9222be	0.07135533
171	0xbe4bd5c9	-0.19905771
172	0x3d9a8c24	0.07546261
173	0x3be08100	0.0068513155
174	0xbd62428f	-0.055239256
175	0xbe11cd2b	-0.14238422
176	0xbd75cfdd	-0.060012687
177	0x3e450f64	0.19244152
178	0x3c4d3a7b	0.01252615
179	0x3c38631c	0.011254098
180	0xbe1a3585	-0.15059479
181	0x3e8742da	0.2641819
182	0x3e4e3f1b	0.2014126
183	0xbcdf07b8	-0.02722536
184	0x3dca75ab	0.09885725
185	0x3dc08839	0.094009824
186	0x3e1ab168	0.15106738
187	0xbe61743a	-0.22016993
188	0xbcfbfa15	-0.030758897
189	0xbe20172f	-0.15633844
190	0x3cdad007	0.026710523
191	0xbde7d44b	-0.113197885
192	0xbd2263dd	-0.03964602
193	0x3e119146	0.14215574
194	0xbdb19df6	-0.08672707
195	0xbdd4e7eb	-0.10395797
196	0xbd8a64f5	-0.06757537
197	0x3e09b328	0.13447249
198	0xbd554015	-0.052063067
199	0xbdd6cb37	-0.10487979
200	0xbde06844	-0.10957387
201	0x3b04dca7	0.002027312
202	0xbd7ff840	-0.06249261
203	0x3e2915cc	0.16512221
204	0xbdabea5e	-0.08394311
205	0xbddb5496	-0.10709493
206	0x3c79c5e3	0.015244934
207	0xbb327b78	-0.0027234238
208	0x3bbdbb84	0.005790176
209	0x3e0bb836	0.1364449
210	0x3c3ab878	0.01139652
211	0x3d818eca	0.06326063
212	0x3d941df3	0.07232275
213	0xbe1ae91f	-0.15127991
214	0x3deb7d46	0.114985034
215	0x3d4e443b	0.05035804
216	0xbe0a7237	-0.13520132
217	0xbc0b8bdd	-0.008517233
218	0x3d12ea57	0.035868015
219	0x3e44de23	0.19225363
220	0xbc10556c	-0.008809429
221	0x3deee4c4	0.11664727
222	0x3e1b284b	0.1515209
223	0xbbbeeae2	-0.00582634
224	0xbd911e1c	-0.07085821
225	0x3e17ebef	0.14836095
226	0xbe116f1f	-0.14202546
227	0xbdaa600c	-0.08319101
228	0x3cb99002	0.022651676
229	0xbdc1408f	-0.09436142
230	0x3ced141f	0.028940259
231	0x3c0cb996	0.008589169
232	0xbd96d9e3	-0.07365777
233	0xbde5511f	-0.11197113
234	0xbdbbc688	-0.09168726
235	0xbe258bf7	-0.16166674
236	0x3dd1970d	0.10233889
237	0xbe2e831b	-0.170422
238	0x3dfc3427	0.12314635
239	0xbcf175e7	-0.029475166
240	0x3e04ec0e	0.12980673
241	0x3d11495a	0.035470344
242	0xbe2ba1e4	-0.16760975
243	0xbe0cb98a	-0.13742653
244	0xbe015e47	-0.1263362
245	0xbd6f493c	-0.05841945
246	0x3c9e2a20	0.019307196
247	0xbaa8d03f	-0.0012879445
248	0xbdf9a1b7	-0.12189048
249	0x3d88d0c7	0.06680446
250	0xbcd0a6e4	-0.025470205
251	0xbde3f2f8	-0.11130327
252	0x3e2258cc	0.15854186
253	0x3ca0e6d3	0.019641316
254	0xbda91059	-0.08255071
255	0xbd052cd2	-0.032513447

nn_layer.6.bias f4 [16]
0	0xbd8e78b9	-0.0695662
1	0xbd380fd7	-0.04493698
2	0xbc7d72e1	-0.015469284
3	0xbe2b44e4	-0.16725498
4	0x3e6e0362	0.23243478
5	0x3e16f413	0.14741544
6	0x3d2183a2	0.039432175
7	0xbe13e601	-0.14443208
8	0xbe1d90a9	-0.15387215
9	0xbd8c05b7	-0.068370275
10	0x3dd76d86	0.10518937
11	0x3cf2d7c1	0.029643895
12	0xbe2b4b73	-0.16728
13	0xbd8b6acb	-0.068074785
14	0x3d216945	0.039407033
15	0xbe04678e	-0.12930128

nn_layer.8.weight f4 [8, 16]
0	0x3dcc7434	0.099831015
1	0x3c98eb63	0.018666929
2	0x3e8048d9	0.25055578
3	0xbdec959c	-0.11551973
4	0xbe3f4ee1	-0.18682434
5	0xbc79ad96	-0.01523914
6	0xbe2e6f4d	-0.17034645
7	0x3e5b4f28	0.21416914
8	0x3d4c3e85	0.04986431
9	0x3db02dcd	0.08602486
10	0xbd7e0051	-0.06201202
11	0x3dbac5de	0.091197714
12	0xbdab3976	-0.08360569
13	0xbe70051b	-0.23439448
14	0xbd11b934	-0.035577014
15	0x3e7b29ac	0.24527615
16	0xbd05a7f1	-0.032630865
17	0xbb8d527d	-0.004312812
18	0xbd9c4ff3	-0.076324366
19	0xbdab2f38	-0.08358616
20	0x3e98ebb0	0.29867315
21	0xbdc2bbe2	-0.09508492
22	0xbe4b2d86	-0.19841585
23	0x3db739f0	0.089465976
24	0xbc29d003	-0.010364535
25	0xbe134785	-0.14382751
26	0x3e16601c	0.146851
27	0x3e2e2478	0.17006099
28	0xbdde28e6	-0.108476445
29	0xbe56ba16	-0.20969424
30	0xbe455aae	-0.19272873
31	0x3e3cfb91	0.1845534
32	0xbe58f3c0	-0.21186733
33	0xbdc98ce9	-0.098413296
34	0x3e4e1209	0.20124067
35	0x3d8472c8	0.06467205
36	0x3e457804	0.19284064
37	0xbe91b92a	-0.2846158
38	0x3d73bd1b	0.059506517
39	0x3e7377d0	0.23776174
40	0x3dd7921a	0.105259135
41	0x3e6bbbfa	0.23020926
42	0xbde00dcf	-0.10940134
43	0x3cbb8c11	0.022893937
44	0xbd7e6dc6	-0.062116407
45	0xbd90f4a8	-0.070779145
46	0xbe0d92f2	-0.13825586
47	0x3e2925bc	0.16518301
48	0xbd508e2d	-0.05091684
49	0x3d73de28	0.059538037
50	0xbe141cf3	-0.14464168
51	0x3e4bb47e	0.19893071
52	0xbe17463e	-0.14772889
53	0x3e9c3ed1	0.30516675
54	0xbe76698b	-0.24063699
55	0x3e59e848	0.21280015
56	0xbd972f57	-0.07382076
57	0x3e22cf72	0.15899447
58	0x3eb75a2c	0.35810983
59	0xbdc24fc3	-0.094878696
60	0x3e7b6375	0.24549659
61	0x3ea7b8db	0.3275822
62	0x3ebe08af	0.37116
63	0x3dee8e52	0.11648239
64	0xbde75d9c	-0.112971514
65	0x3e5ba5e3	0.2145
66	0x3dbe6508	0.09296614
67	0xbdd80300	-0.10547447
68	0x3e02e128	0.12781203
69	0xbdcd0f65	-0.10012702
70	0x3e1af876	0.15133843
71	0x3de03fa4	0.109496385
72	0x3e226c5d	0.1586165
73	0xbdb53340	-0.08847666
74	0xbe312833	-0.17300491
75	0xbe83bdb8	-0.2573068
76	0xbe46c7ef	-0.19412206
77	0xbe020b5a	-0.12699643
78	0xbe199616	-0.1499866
79	0x3e7aefad	0.24505492
80	0xbd9e5628	-0.07731277
81	0xbe62d8e2	-0.22153047
82	0x3e814122	0.25245005
83	0xbd1943c8	-0.037418157
84	0xbdfd916f	-0.12381255
85	0x3d086c42	0.033306368
86	0x3e6f026e	0.2334077
87	0x3e5b4728	0.21413863
88	0x3d1a8e8f	0.03773361
89	0x3c9f6518	0.019457385
90	0x3cddc286	0.027070295
91	0x3dd41c72	0.10356988
92	0xbd9bfcad	-0.076165535
93	0x3d5f2550	0.054478943
94	0xbe67b170	-0.22626281
95	0x3dd3aa20	0.10335183
96	0x3d0a68d1	0.033791367
97	0x3e11acd3	0.14226083
98	0xbd71c863	-0.059028994
99	0x3e278394	0.16358787
100	0xbd2e4e99	-0.042555425
101	0x3e9b46f8	0.30327582
102	0x3d38b5e5	0.045095343
103	0xbdf144a0	-0.11780667
104	0xbcca6de4	-0.024710603
105	0x3d81381b	0.063095294
106	0x3e907cd2	0.2822023
107	0x3dcde042	0.100525394
108	0xbddd63e5	-0.10810069
109	0xbb4b2a3c	-0.0031000515
110	0xbcbf1650	-0.02332607
111	0x3d0ac0a4	0.033875123
112	0x3e07a2e2	0.13245729
113	0xbdbdf47e	-0.09275149
114	0x3e2a81be	0.16651055
115	0x3e7993aa	0.24372736
116	0x3d93fd6e	0.07226072
117	0x3de17fdc	0.11010715
118	0x3e649fa7	0.22326528
119	0xbdcd988c	-0.10038862
120	0xbe05a1c8	-0.13049996
121	0x3e753011	0.23944117
122	0x3e1ddde5	0.15416677
123	0x3e0708fd	0.13187023
124	0xbdad7f1d	-0.084715106
125	0x3c8bc643	0.017062312
126	0x3e33c133	0.17554168
127	0x3e425ceb	0.18980758

nn_layer.8.bias f4 [8]
0	0xbd2aa889	-0.041664634
1	0xbdd0d812	-0.10197462
2	0x3dfe3a43	0.12413456
3	0x3d096210	0.033540785
4	0xbccd57f8	-0.02506636
5	0x3bf987f2	0.007615083
6	0x3e5f7e02	0.21825412
7	0xbe63047a	-0.22169676
