NQE/results/CNN_NQEClassifier/fashion/1exp/model.pt (torch, 10171 bytes, 6 tensors)

nn_layer.0.weight f4 [1, 1, 3, 3]
0	0xbe3047f9	-0.17214955
1	0xbd5a55f4	-0.053304628
2	0xbe5e883b	-0.21731655
3	0xbeaf5c02	-0.34249884
4	0xbf0e7f65	-0.5566314
5	0xbef7f2c3	-0.484274
6	0xbef0f8f2	-0.4706493
7	0xbe73e146	-0.23816404
8	0xbe9b9b84	-0.30392087

nn_layer.3.weight f4 [1, 1, 3, 3]
0	0xbece4ff0	-0.40295362
1	0xbf271039	-0.6525913
2	0xbe810a1a	-0.2520302
3	0xbef8fd67	-0.4863083
4	0xbebce19f	-0.36890885
5	0x3d6fbe45	0.058531065
6	0x3ee25ec7	0.44212934
7	0xbe73496b	-0.23758475
8	0xbe069aed	-0.13145037

nn_layer.7.weight f4 [32, 49]
0	0xbe0eed6e	-0.1395776
1	0x3e05dc3d	0.13072295
2	0x3ce831b5	0.028344015
3	0xbdffbe9a	-0.12487526
4	0x3d83976b	0.06425365
5	0x3de83f07	0.113401465
6	0xbc0521e8	-0.00812576
7	0xbdce2cec	-0.10067162
8	0x3e60428c	0.21900386
9	0x3d1dcbdf	0.038524505
10	0x3d43792f	0.04772299
11	0xbcd68c55	-0.026189962
12	0x3d14982e	0.036277942
13	0xbcd4cd4c	-0.0259768
14	0xbe0d9b66	-0.13828811
15	0x3e74eb85	0.23917969
16	0xbd982a62	-0.07429959
17	0x38335781	4.275842e-05
18	0x3da12406	0.07868199
19	0x3e2ad372	0.16682222
20	0x3e2d7439	0.16938867
21	0x3d549225	0.051897187
22	0xbdc42b79	-0.09578604
23	0x3dd0a630	0.10187948
24	0xbc050adc	-0.008120265
25	0xbdff3ab3	-0.12462368
26	0x3c35f87d	0.0111066075
27	0x3df5917f	0.11990642
28	0xbc895990	-0.01676634
29	0xbe066477	-0.13124262
30	0x3d3e8e38	0.04652235
31	0x3ceb8680	0.028750658
32	0x3dd46727	0.10371237
33	0xbd45760d	-0.048208285
34	0x3de15a14	0.11003509
35	0xbc572e0a	-0.013133535
36	0x3d0e38d4	0.034722164
37	0xbc3ddf55	-0.011588891
38	0x3d6c12a6	0.057634972
39	0xbdd2d0fd	-0.102937676
40	0x3d5ae1bc	0.053437933
41	0x3df87c7e	0.1213312
42	0x3e0b64bd	0.13612647
43	0xbd6db8c9	-0.058037553
44	0x3d8aa727	0.06770163
45	0xbd37887d	-0.0448079
46	0xbdba83cb	-0.09107169
47	0x3e39a641	0.18129827
48	0xbcfef184	-0.031121023
49	0x3dfdb121	0.123873
50	0xbdf38843	-0.11891224
51	0x3c144e0d	0.009051812
52	0x3ddade66	0.106869504
53	0xbe05bc42	-0.13060096
54	0xbcdf799d	-0.02727967
55	0xbdca6c46	-0.09883933
56	0xbdffc085	-0.12487892
57	0xbd6d1423	-0.057880532
58	0xbdf9dbe7	-0.12200146
59	0x3d2ad258	0.041704506
60	0x3d370275	0.044680078
61	0x3c4eba74	0.012617696
62	0x3dfc4d04	0.12319377
63	0x3d2f276a	0.042762198
64	0x3d738275	0.059450585
65	0x3ca44ac3	0.02005518
66	0xbdf113a0	-0.11771321
67	0xbcef7a59	-0.029233145
68	0x3d4601f8	0.04834172
69	0x3db88554	0.09009805
70	0xbd948bfa	-0.07253261
71	0xbe0bfc8b	-0.13670556
72	0xbdd5a9d2	-0.10432781
73	0xbc056603	-0.008141997
74	0x3e0997c1	0.13436796
75	0x3daa909d	0.08328364
76	0xbdbcfba1	-0.09227682
77	0xbc2c5e21	-0.010520489
78	0x3d964ab3	0.073384665
79	0x3de14f32	0.110014334
80	0xbd9c69b4	-0.07637349
81	0x3d8fd293	0.07022586
82	0xbd6150de	-0.05500876
83	0x3cf19635	0.02949057
84	0xbd212083	-0.039337646
85	0x3da38ce8	0.0798586
86	0xbddda683	-0.10822775
87	0x3da8785c	0.08226082
88	0x3d9ce37d	0.076605774
89	0x3dd5fa48	0.10448128
90	0x3c88d093	0.016701018
91	0xbe13748f	-0.14399932
92	0x3b8b73f7	0.0042557674
93	0x3dd276f4	0.10276595
94	0x3e1cfca2	0.15330747
95	0x3d12c798	0.03583488
96	0x3d559447	0.05214336
97	0xbc731220	-0.014835864
98	0xbc85fedd	-0.01635688
99	0x3dcaf3e0	0.09909797
100	0x3dad633a	0.084661916
101	0x3df50193	0.11963191
102	0xbbe9bc76	-0.007133062
103	0x3def5ea9	0.11687977
104	0x3df92b79	0.12166495
105	0x3bb9d3f8	0.0056710206
106	0xbe18ce3a	-0.14922419
107	0x3cf57101	0.029961111
108	0x3c20a90c	0.009805929
109	0xbe0815b8	-0.13289535
110	0x3dcf8b93	0.101340435
111	0xbe03edae	-0.12883636
112	0x3cb677fd	0.022274012
113	0xbdc63a78	-0.09679121
114	0x3dd229c2	0.10261871
115	0x3de8a879	0.113602586
116	0x3d9cb601	0.07651902
117	0x3dee0d40	0.11623621
118	0xbc84411b	-0.016144326
119	0xbdfac194	-0.12243953
120	0xbe1313cb	-0.14363019
121	0xbdda3352	-0.1065432
122	0xbd557d6e	-0.052121572
123	0x3dc69496	0.09696309
124	0xbdca49a2	-0.098773256
125	0x3d8532a2	0.06503798
126	0xbdf81865	-0.12114028
127	0xbd0f35c2	-0.034963377
128	0xbdb59840	-0.0886693
129	0x3d48070b	0.04883484
130	0xbd38b62f	-0.04509562
131	0x3d4a625e	0.049410217
132	0xbe09906e	-0.13434002
133	0xbd02dd18	-0.031949133
134	0x3c6d9d5c	0.014502849
135	0xbdd92990	-0.106036305
136	0xbe033415	-0.12812836
137	0xbdf06989	-0.11738879
138	0x3db24c07	0.08705907
139	0x3db67af3	0.089101695
140	0x3d18ca42	0.037302263
141	0x3dc8aa39	0.097980924
142	0x3d0a80cc	0.033814237
143	0x3df62837	0.12019389
144	0xbdfa60c6	-0.12225489
145	0x3daa3bca	0.08312185
146	0x3cfbe558	0.030749008
147	0xbdb5bd6e	-0.088740215
148	0xbb02414f	-0.0019875353
149	0xbd9ed27f	-0.07754993
150	0xbd8404e0	-0.06446242
151	0xbd84027b	-0.064457856
152	0xbb23f2a1	-0.0025016444
153	0x3c8a2300	0.016862392
154	0xbc141507	-0.009038216
155	0xbdce8db7	-0.10085624
156	0xbdefea2b	-0.11714586
157	0x3e107364	0.14106518
158	0x3d7b44bf	0.06134486
159	0x3c5f4ab5	0.013628651
160	0xbdea586d	-0.11442647
161	0x3e0fd15c	0.14044708
162	0xbd8c74b1	-0.068581946
163	0xbe1ffbb7	-0.15623365
164	0xbd41b3c5	-0.047290582
165	0x3e20b5a2	0.15694287
166	0xbd21e141	-0.03952146
167	0xbc79defb	-0.015250917
168	0x3caf2f69	0.021384912
169	0x3c9da468	0.019243434
170	0x3e10b75e	0.14132449
171	0xbdfec02a	-0.12438996
172	0xbc3e174d	-0.011602235
173	0x3dc1ea99	0.09468574
174	0xbdf38ca2	-0.11892058
175	0x3e0da088	0.13830769
176	0x3e14f6cf	0.14547275
177	0xbd9b86a8	-0.07594043
178	0x3e014d16	0.12627062
179	0x3ce23e3c	0.027617566
180	0xbceb7348	-0.028741494
181	0xbdb92ee4	-0.09042147
182	0x3beb57d5	0.0071821013
183	0xbe16517c	-0.14679521
184	0xbda966ad	-0.08271537
185	0xbdd2dcf2	-0.10296048
186	0xbe056e4e	-0.13030359
187	0xbcefd754	-0.029277481
188	0x3e098731	0.13430478
189	0x3da3955f	0.07987475
190	0x3db24473	0.08704462
191	0xbdbe61fa	-0.09296031
192	0x3ae3702d	0.0017352157
193	0x3e23231e	0.15931365
194	0xbd515315	-0.051104624
195	0xbdc5a5d6	-0.09650771
196	0xbe032ef6	-0.12810883
197	0x3e0871bb	0.13324635
198	0x3e188b09	0.14896788
199	0xbddd73df	-0.10813116
200	0xbd9f0e6f	-0.07766425
201	0x3bab263b	0.0052230633
202	0xbd2bf1ee	-0.04197877
203	0xbda71ee9	-0.081601925
204	0xbe290646	-0.165063
205	0x3e14b328	0.14521468
206	0xbdf01d55	-0.11724345
207	0xbd854a92	-0.06508364
208	0xbd3145a3	-0.0432793
209	0x3cdbe0a3	0.026840514
210	0xbdcee052	-0.101013795
211	0xbdef062d	-0.116711
212	0xbab32450	-0.0013667438
213	0x3da652f2	0.08121289
214	0x3d2acaec	0.041697428
215	0xbe1e3bea	-0.15452543
216	0x3da7c072	0.08191003
217	0x3e0ea997	0.13931881
218	0xbd0737b9	-0.033012126
219	0xbde0e3e9	-0.109809704
220	0xbdd0abcf	-0.1018902
221	0xbdec7c51	-0.11547149
222	0x3e04250d	0.12904759
223	0xbda40abc	-0.0800986
224	0x3d245e66	0.040129088
225	0x3d5d0732	0.05396194
226	0x3d625bba	0.05526326
227	0x3d33720b	0.04380993
228	0xbd7dfef0	-0.062010705
229	0xbcac176b	-0.02100726
230	0xbd7558a0	-0.059898973
231	0x3c0aa3ad	0.008461875
232	0xbdaf4fa2	-0.08560111
233	0x3d77a15d	0.060456622
234	0x3d75c9a2	0.060006745
235	0x3d6bcfd1	0.057571236
236	0x3d932d3f	0.071863644
237	0xbdc99b34	-0.09844056
238	0x3dff7f33	0.12475433
239	0x3db3e83c	0.087845296
240	0x3d3e29d5	0.046426613
241	0x3d86ca0a	0.06581505
242	0xbd8f2875	-0.069901384
243	0xbd5d4a5c	-0.054025993
244	0x3d8dd009	0.06924445
245	0x3def61c8	0.11688572
246	0x3a9af6f8	0.001182287
247	0xbd5fe9b7	-0.054666247
248	0xbddfdb16	-0.10930459
249	0xbe02a5b4	-0.12758523
250	0x3dc5a9a4	0.09651497
251	0x3c9e89e8	0.019352868
252	0xbd27482c	-0.040840313
253	0xbda313a3	-0.0796273
254	0x3db648aa	0.08900578
255	0x3e135c20	0.14390612

nn_layer.7.bias f4 [32]
0	0x3dff788c	0.12474164
1	0xbcf8006c	-0.030273639
2	0xbcab674f	-0.020923285
3	0xbcbeb7c2	-0.023280982
4	0xbdd54987	-0.10414415
5	0xbd9f4101	-0.077760704
6	0x3d64f880	0.05590105
7	0x3a575cc2	0.0008215421
8	0x3c12fb15	0.008970995
9	0x3d94a8ac	0.07258734
10	0xbdcaf90e	-0.09910785
11	0xbdf733bb	-0.12070414
12	0x3d9a32a7	0.075291924
13	0x3dc30994	0.09523311
14	0x3e0899b6	0.13339886
15	0x3d4690ce	0.04847794
16	0x3d4acd67	0.049512293
17	0xbc83b8ca	-0.016079325
18	0x3d52415f	0.051331874
19	0x3db64fde	0.08901952
20	0xbcac4ec1	-0.021033647
21	0x3dfe4074	0.12414637
22	0x3d345a04	0.044031158
23	0xbe0c1903	-0.13681416
24	0x3e044c7d	0.12919803
25	0x3dd46bd1	0.10372127
26	0x3bb46dd0	0.0055062547
27	0xbc8f6021	-0.017501893
28	0x3d65300f	0.055954035
29	0x3d7d1711	0.061789576
30	0x3dfab97c	0.122424096
31	0x3e03ce54	0.12871677

nn_layer.8.weight f4 [8, 32]
0	0xbbab3693	-0.0052250116
1	0x3e1ee046	0.15515241
2	0xbda48274	-0.080326945
3	0x3cf23457	0.029565973
4	0x3dd204d9	0.10254831
5	0x3e08b245	0.13349254
6	0x3df9c9db	0.12196704
7	0x3b83bd42	0.004020364
8	0x3dbfb568	0.09360772
9	0xbd56f408	-0.05247882
10	0xbde808a1	-0.11329771
11	0xbd55e37a	-0.05221889
12	0x3e31d1d8	0.17365205
13	0xbde1d551	-0.11027015
14	0x3e0e9887	0.13925372
15	0x3cb3a564	0.02192945
16	0xbe2f8bda	-0.17143193
17	0xbda1e7f4	-0.0790557
18	0x3e2cba11	0.16867854
19	0xbd9befae	-0.07614075
20	0x3e6c4614	0.23073608
21	0xbe266c85	-0.16252334
22	0x3dfe1301	0.124059685
23	0xbd74c009	-0.05975345
24	0x3df7a42e	0.12091862
25	0xbe2e9943	-0.17050652
26	0x3cf3681c	0.02971273
27	0x3e08ac80	0.13347054
28	0x3e644b05	0.22294243
29	0x3e215e99	0.15758742
30	0x3d1b8bf4	0.037975267
31	0x3cd21c33	0.025648212
32	0xbd88edc9	-0.06685979
33	0x3de587f1	0.112075694
34	0x3d6a0a92	0.057138987
35	0x3c587882	0.013212325
36	0xbe25197a	-0.16123
37	0xbe439c0d	-0.19102497
38	0x3e05b8a9	0.13058724
39	0x3dc90f22	0.098173395
40	0x3d09795a	0.033562995
41	0x3e2afd36	0.16698155
42	0xbc9de3a3	-0.019273585
43	0x3cc7d78c	0.024394773
44	0xbe0597b4	-0.13046151
45	0xbd3b15e0	-0.04567516
46	0xbbd2e532	-0.0064360136
47	0xbc31de1a	-0.010856176
48	0xbdb80f5a	-0.08987303
49	0x3de6629c	0.11249277
50	0xbddf4b64	-0.109030515
51	0xbe372aee	-0.1788747
52	0xbe1dd7c7	-0.15414344
53	0xbdf046d4	-0.117322594
54	0x3dd4b0db	0.10385295
55	0x3d71f5b6	0.05907222
56	0x3da87bab	0.08226713
57	0x3a4f557f	0.0007909163
58	0x3dc14200	0.094364166
59	0xbd3b3e91	-0.045713965
60	0xbc835eef	-0.016036479
61	0x3cc5f221	0.024163308
62	0xbdd887fd	-0.10572813
63	0x3cc51faa	0.02406295
64	0x3d82094a	0.06349428
65	0xbdf2edbf	-0.11861753
66	0x3ca00d6e	0.019537654
67	0xbdd354d1	-0.10318912
68	0xbe1676f0	-0.14693809
69	0xbe3f6fec	-0.18695039
70	0x3dc65570	0.09684265
71	0xbe223e4b	-0.15844075
72	0xbda754e0	-0.081704855
73	0xbd99a4e8	-0.075021565
74	0xbd9bbdb8	-0.07604545
75	0xbd87231d	-0.06598494
76	0xbb7967ed	-0.003805633
77	0x3e026700	0.12734604
78	0xbdaf182a	-0.08549531
79	0xbd8efb54	-0.06981531
80	0x3e3d756b	0.18501823
81	0xbba4a62c	-0.005024692
82	0x3d13d088	0.036087543
83	0xbdac71dc	-0.084201545
84	0xbe4b92e1	-0.19880249
85	0xbe0a0ffa	-0.13482657
86	0x3df38dac	0.11892256
87	0xbdc1f534	-0.09470597
88	0xbdec010f	-0.115236394
89	0xbd88b2e1	-0.066747434
90	0x3de99055	0.11404482
91	0x3da42cfa	0.08016391
92	0xbe35d1d2	-0.17755821
93	0xbdbc840d	-0.09204874
94	0xbdf95fa1	-0.12176443
95	0xbe01ae20	-0.1266408
96	0xbd4709e4	-0.048593417
97	0x3e3128a2	0.17300656
98	0xbd055277	-0.032549348
99	0x3d23c188	0.039979488
100	0xbe25741f	-0.16157578
101	0x3e1e4ef0	0.154598
102	0xbe077a51	-0.13230254
103	0x3e307626	0.1723257
104	0x3c144c4e	0.009051396
105	0x3df6d41f	0.12052178
106	0xbd2491a3	-0.040177952
107	0x3dbf44af	0.09339272
108	0xbd1a7617	-0.037710276
109	0x3dd89ab0	0.10576379
110	0x3b8705d4	0.004120568
111	0x3e002a6b	0.12516181
112	0xbd02dee0	-0.03195083
113	0x3d61f048	0.05516079
114	0xbbd28b23	-0.006425278
115	0x3e3034d0	0.17207646
116	0xbda4898c	-0.080340475
117	0xbd1289e6	-0.03577604
118	0xbd400a46	-0.046884798
119	0xbdcd29d9	-0.100177474
120	0x3d9b4f74	0.07583514
121	0xbe16aace	-0.14713594
122	0xbdbfd845	-0.09367422
123	0x3d891753	0.06693902
124	0xbd38362f	-0.04497355
125	0x3def4f22	0.11685015
126	0xbd2096b1	-0.03920621
127	0x3d0212c3	0.031756174
128	0x3e990d1a	0.29892808
129	0x3e45b7d6	0.19308409
130	0x3d1d3be4	0.038387194
131	0xbe415db1	-0.18883397
132	0xbd8cbdd8	-0.06872147
133	0x3d49b9ae	0.049249344
134	0xbead7662	-0.3387938
135	0xbd4be3c1	-0.04977775
136	0xbe2eb873	-0.1706255
137	0xbde4de11	-0.11175168
138	0xbe5621d9	-0.2091135
139	0x3da7ed6d	0.08199582
140	0xbe4c1d51	-0.19933058
141	0xbe2616be	-0.16219613
142	0xbe69a785	-0.2281781
143	0xbe2d9d22	-0.16954473
144	0x3dc44b9d	0.095847346
145	0x3d9ca9ab	0.07649549
146	0xbe5810f4	-0.21100217
147	0x3de22c4e	0.11043607
148	0xbeb2cb38	-0.3492067
149	0xbe032b58	-0.12809503
150	0xbe6358b8	-0.22201812
151	0x3d9d1087	0.07669168
152	0x3db4a485	0.08820442
153	0x3e637d59	0.22215785
154	0xbe270aea	-0.16312757
155	0xbd9cd4d5	-0.07657782
156	0xbe6353b5	-0.221999
157	0xbea6e6af	-0.32597873
158	0xbdb122c5	-0.0864921
159	0xbe8658e7	-0.26239702
160	0x3d17ce53	0.037062
161	0x3d8adc7c	0.06780335
162	0xbd72e21d	-0.05929767
163	0xbc92f1b7	-0.017937524
164	0x3e1f30ca	0.15545955
165	0x3e076269	0.13221134
166	0xbe47bc98	-0.19505537
167	0x3dea3e1a	0.11437626
168	0xbd72071b	-0.059088808
169	0x3dbe9996	0.09306638
170	0xbe36ab24	-0.17838722
171	0xbcd000a7	-0.025390936
172	0x3da2599e	0.07927249
173	0x3e10a2e6	0.14124641
174	0x3e152cd8	0.14567888
175	0xbe256ff4	-0.16155988
176	0x3df20dc3	0.11819031
177	0xbd8fe7d1	-0.07026637
178	0xbdd6f06f	-0.10495078
179	0x3e3aebea	0.18254057
180	0xbe24d89a	-0.16098252
181	0x3ddff7e6	0.10935955
182	0xbceb28eb	-0.028706035
183	0xbe205de3	-0.15660815
184	0x3df6869e	0.12037395
185	0x3d131a8e	0.035913996
186	0xbdcd60ec	-0.10028252
187	0x3c607342	0.013699355
188	0xbbbc5143	-0.005746992
189	0xbde568fc	-0.11201665
190	0x3de424de	0.11139844
191	0xbda0622d	-0.078312255
192	0x3e6b8df9	0.23003377
193	0xbd3e2552	-0.04642231
194	0xbd4352a5	-0.047686238
195	0xbe4295c8	-0.1900245
196	0x3d7c4c22	0.061596043
197	0xbe47b746	-0.19503507
198	0xbe889f52	-0.26684052
199	0x3d1bf3d8	0.038074344
200	0x3d46ee63	0.048567187
201	0xbe01e4a0	-0.1268487
202	0xbe48ca50	-0.19608426
203	0xbe144085	-0.14477737
204	0xbe36de89	-0.17858328
205	0xbe44dcb9	-0.19224824
206	0xbe360255	-0.17774327
207	0xbd4809b6	-0.048837386
208	0xbc1d63ad	-0.009606284
209	0xbcbaae62	-0.02278823
210	0x3d5af1ff	0.05345344
211	0xbc924e93	-0.017859733
212	0xbe47d975	-0.19516547
213	0xbd926b37	-0.07149356
214	0xbddac2f5	-0.10681716
215	0x3e131004	0.14361578
216	0x3cb9965f	0.02265471
217	0x3da5dbb3	0.08098545
218	0xbe200e6d	-0.15630503
219	0x3d232acf	0.039835747
220	0xbe0e0944	-0.13870722
221	0xbda53db5	-0.0806841
222	0xbcd638d9	-0.026150154
223	0x3d88fbba	0.06688638
224	0xbda5fc62	-0.08104779
225	0x3dc06c04	0.09395602
226	0xbc0f546f	-0.008748158
227	0xbe15b62d	-0.14620276
228	0x3e2ed725	0.17074259
229	0x3e0fae80	0.1403141
230	0x3e47ae73	0.19500141
231	0x3dcbd6d2	0.09953083
232	0x3e2a63d8	0.1663965
233	0xbd6b52f2	-0.05745215
234	0xbdbcb12f	-0.092134826
235	0x3d27de3b	0.04098342
236	0xbdb9bc1c	-0.09069082
237	0xbdc39835	-0.095505156
238	0x3d380dca	0.044935025
239	0x3e0280c2	0.1274443
240	0x3d0bfecc	0.03417854
241	0x3d0a552f	0.033772644
242	0xbc7ea464	-0.0155421235
243	0x3c89f82e	0.016841974
244	0x3e0d5a81	0.13804056
245	0x3e300764	0.1719032
246	0xbd47aec4	-0.048750654
247	0xbded5e3a	-0.11590238
248	0x3e0a7788	0.1352216
249	0xbdf0ec9f	-0.11763882
250	0xbccec5eb	-0.025240859
251	0xbd1528be	-0.036415808
252	0xbe1161d9	-0.14197482
253	0x3e337f6a	0.17529073
254	0x3e0253d6	0.12727293
255	0xbd825ac7	-0.06364971

nn_layer.8.bias f4 [8]
0	0xbd947a4b	-0.07249888
1	0xbd754466	-0.059879683
2	0xbe051138	-0.1299485
3	0xbe1ad67a	-0.15120879
4	0xbe0bcd61	-0.13652565
5	0xbdb808ba	-0.089860395
6	0x3d8d3c66	0.06896286
7	0x3c00fd9e	0.007872967
