NQE/results/NQEClassifier/kmnist/4exp/model.pt (torch, 4295 bytes, 6 tensors)

linear_relu_stack1.0.weight f4 [16, 8]
00000000: b60e 08bf 57d4 e53e cf93 da3d 80f2 803e
00000010: ebab 393e b824 c1bd 3839 a23d 7d34 ccbd
00000020: 5d50 d7bd 9dec e0bd ee9e cb3d 7230 b33e
00000030: 3344 a3be c3b3 4abd 3390 8a3d ab64 8fbe
00000040: fb06 74be 79f3 68bd 6087 893e 62a0 83be
00000050: 6980 aa3d 4e66 aebe a250 b1bd bd17 543e
00000060: bd11 aebe 81df 133d 0e8d d23c 67f0 80be
00000070: 86c6 c7bd f403 61bc 279f 413e 5b0f 8a3e
00000080: 58ea 3bbe ab1a 423e 4cda d43e bda4 81be
00000090: 31dc 01bc 2e49 a3be eae5 023e 9a57 ff3d
000000a0: f74e 8ebe 0e9e 303e 7fa5 59be 84da 99be
000000b0: cb03 88be a3a0 19be b1a4 41be 57ba 3e3d
000000c0: 52b4 42bd d2aa 39bd 9e11 453d 732a 81be
000000d0: 7ea0 00be bc5d abbe 59f0 88bc 4a8f c73d
000000e0: 4a53 5abe d002 dabd f5df 37be 830e 533d
000000f0: 9b3e 43be 05ef a33e 5818 b43c ccf5 d3bd
00000100: 2a76 d1be 5afc 8e3e 2847 433e 7d66 9b3e
00000110: 79ce 81bd ebf3 7bbd 478a 4fbe 01ff 833e
00000120: 0a0e 5b3e ae11 963e 8d05 31be f9e8 99be
00000130: 3cbd 32be be84 91be 5461 7b3e 3963 85bb
00000140: 66cf 8f3e 9316 9abe 4cfc 303e b05e 7abe
00000150: 2311 a9be 98c7 a43d 9cd3 04be 4f00 a33c
00000160: 5398 86be cdfb 70bc b8d6 9cbd 4254 a93e
00000170: 5575 a73e 073f 993e 5dce c03e 3ea7 06be
00000180: 37f3 733d 793d 22bc c4a8 3bbe 78c8 b3be
00000190: a98f 82be 655a 793e 785e 993c 34ef 0e3e
000001a0: 1cf3 80be ce10 083c 7b79 993d cd1b 8cbe
000001b0: d0f7 8b3e f596 353e 4c48 0bbe 26d6 403d
000001c0: 5719 80be 69f0 a6be b2fe 0a3c 0883 923e
000001d0: d80c 803e 7249 403d ddac a9be 0a52 8abe
000001e0: 0b4c f13c a240 c7bd 7a49 3c3e cb98 9fbe
000001f0: 3ad8 76be 11a0 213e 8337 bf3e 8b2e e9bd
-0.5314745 0.44888565 0.106727235 0.25185013 0.18131988 -0.09430832 0.0792107 -0.09970949
-0.10513375 -0.109826304 0.09942423 0.34997898 -0.3188797 -0.04948784 0.06765785 -0.2800649
-0.23830788 -0.05687282 0.26861095 -0.257083 0.083252735 -0.34062427 -0.086579576 0.2071218
-0.33997908 0.03610182 0.025702026 -0.25183412 -0.09754662 -0.013733853 0.18908368 0.2696484
-0.18351114 0.18955486 0.41572797 -0.25320998 -0.007926033 -0.3189177 0.12783018 0.124678805
-0.2779462 0.17247793 -0.21254538 -0.30049527 -0.26565394 -0.15002684 -0.18910481 0.046564426
-0.047535248 -0.045328923 0.048112504 -0.252277 -0.12561223 -0.3346995 -0.01671617 0.09744127
-0.21320835 -0.10645068 -0.17956527 0.05152751 -0.19066851 0.32018295 0.021984264 -0.103496164
-0.40910465 0.27926904 0.19070113 0.3035163 -0.0633821 -0.061511915 -0.20267592 0.2578049
0.21392074 0.29310364 -0.17287274 -0.30060557 -0.17455 -0.28421587 0.24548846 -0.004070666
0.2808792 -0.30095348 0.17283744 -0.24450183 -0.33020887 0.08045882 -0.12971348 0.019897608
-0.2628809 -0.0147084715 -0.07658142 0.33072096 0.32706705 0.299309 0.37657443 -0.13149735
0.05955812 -0.009902352 -0.18326098 -0.35113883 -0.2550023 0.24350889 0.018721804 0.13958436
-0.25185478 0.008304788 0.07493874 -0.2736496 0.27337503 0.17733367 -0.13601798 0.047079228
-0.25019333 -0.32605293 0.008483576 0.28615594 0.250098 0.046945043 -0.33139697 -0.27015716
0.029455205 -0.097291246 0.18387404 -0.3117126 -0.24105921 0.15783717 0.3734704 -0.113858305

linear_relu_stack1.0.bias f4 [16]
00000000: 3956 c83b af3a 85bd e039 66be 6830 88be
00000010: 79db 14be bac2 6abd e735 433d 4cc1 a03c
00000020: 360b b13d 0ecc 8c3d 700c a23e 6cfa 74be
00000030: 56ce 1ebd 556b 9c3e be4d c5bb 69c7 813b
0.006113794 -0.06505334 -0.22483015 -0.2659943 -0.14536847 -0.057314612 0.047658827 0.019623421
0.086447164 0.06874858 0.31650114 -0.23923653 -0.038770996 0.30550638 -0.0060212305 0.003960539

linear_relu_stack1.2.weight f4 [16, 16]
00000000: 6229 443e 7fc7 0e3e 5357 5d3e f5e3 acbd
00000010: 0638 3e3e 2ecd 4f3e 56ec 313e af30 94bd
00000020: a7c1 b3bd 792e f13d 166f 68be 103c 99bd
00000030: 44d1 ca3d bc12 1d3e 9193 33be 1c24 263e
00000040: 75f4 e0bd 22d0 763e 5307 6b3e 0a31 033e
00000050: 84dc 0a3e 041d f73d 1693 4a3d 7453 013e
00000060: 4a38 03bd 7be4 6d3e a194 9e3c adf2 ba3d
00000070: 781a 523e ae73 e33d 963e 373e fcd8 22be
00000080: c1ff 813e 8de1 b2bd 8d9f 223e dd3b 4a3e
00000090: 269d b9bc d64c 4fbe 14b5 2fbe 00ee 073d
000000a0: f108 44bd 799a 093e 48cc e5bc 910b 493d
000000b0: 866f 71be f16b 463e f47e fe3d 51da 41be
000000c0: 30c2 863e 48a0 143e cbc1 51be a8b2 8b3d
000000d0: 1c47 68bd 1a63 4d3e 5ca3 7dbe 328c 513e
000000e0: a7fa a53e acaf 9c3d 0ddd f93d d9e5 3c3e
000000f0: 54d7 303e 6427 3abe 8f86 033d 5e42 79be
00000100: d19a 6d3d dd19 1cbc 19e2 88bd 806b c33b
00000110: 19e9 a6bd 109b e8bc 2436 da3d 7a18 473e
00000120: d3db 95bd 1fba a2bd ee54 44bd 0e7d 00bc
00000130: 1baf 8ebd 7ed6 32be 8b0e 2c3e f9a9 67be
00000140: d1bd 1cbe dbc9 e3bd d2c7 4abd 92a9 8ebd
00000150: 10b2 683e 2867 113e 44ee 2e3e e4c1 2c3e
00000160: bf30 14be b86d 213e 331b 963d f232 75be
00000170: f3c5 17bb 65be 7b3e b809 983c 4a3f 34bb
00000180: 2b8c 79bc dc05 55be a10e 303e 60a6 813d
00000190: 2aa8 7ebd f8e2 75be ef32 3b3e b87e aa3d
000001a0: f523 3dbd 46e1 523e 9d6e 613e b566 50be
000001b0: fe0f 753d 74f8 8dbd 98f5 2b3d 327d 4f3d
000001c0: 12d3 2dbe 1b27 09bb 8514 023e 60a8 483d
000001d0: b75c ffbd cc88 713e a865 86bd 0027 4a3d
000001e0: 8fd2 543e 5839 503d 2605 e7bc 19e1 2dbe
000001f0: 4ae4 74bd 3223 3d3e 3f84 063e 526a d73d
00000200: 9943 ab3e 1ff6 423e 936d 163c 9c55 a53b
00000210: 8fe6 913e 3020 983d 0433 9c3d 9c43 abbd
00000220: a57f 9c3e 4fcc c33d 4892 e9bd 4d9b 2dbe
00000230: 118f 483e f18a 3a3e 10b4 593e 5cc4 0ebe
00000240: 0333 57be fa80 08be c24d 6cbe b049 cf3d
00000250: de09 52be 4027 2d3e 90f4 9b3d fa5c 713e
00000260: 89cc 7fbe 1b3d 9c3d 84e9 0bbe 3847 c1bd
00000270: a19c 3fbd 32dc e03d e051 e0bd 52f8 dd3d
00000280: 4649 aa3e e2cf d0bd 7a36 3ebe 4b36 2dbe
00000290: c808 ae3e ea52 20be 598b 6f3e 6bd3 61be
000002a0: c560 0c3e 79bf 4d3e f004 003e cf7e b23d
000002b0: fc33 b03c a593 303d b135 59bd 63ea 81be
000002c0: cc10 b0bd f351 45be c0f0 a3bd 7a92 3abd
000002d0: ff10 55be 5062 2abd 401a 683c 8b3a 123e
000002e0: 4c43 633d 9205 e53d 67d5 1dbc 2553 083e
000002f0: df44 403e acc5 25be 7171 f2bc 49ac 81be
00000300: c3b9 4cbd b9be c0bd 7e51 5dbe f5bb f73d
00000310: 9f3a 093d 0ca9 b4bd f885 053e 8806 4abe
00000320: 8d0e 5bbe 5fbe b4bd 9d91 9f3c 6e2e 133e
00000330: 12a2 ee3b 747e c93d 4340 21be 1b29 7cbd
00000340: 3e43 08be 1e86 323e e888 7f3e 80ba 1abe
00000350: fa1e 3b3e 40cd 463c ec4c 08be 8e11 973d
00000360: 8c5e 86bd 233b c73d 46e6 903d ac99 43be
00000370: 396c e2bd d1c9 9c3d 3d09 363e 6761 f33c
00000380: 6b05 ed3c e5db aebb 55da d1bb 8929 0d3d
00000390: fdc0 d93d 6cbb 86bd 8f00 8cbd e32d 6abd
000003a0: aa51 9fbd 934e 583d 5e43 313e c5ae ad3c
000003b0: 5ba8 4abe 103f 163e 7fbd 95bd f945 42bd
000003c0: c559 69be 4a1e 463e d7db 1ebe d85a 6dbe
000003d0: e35f 5b3e d4f6 0a3e 2d84 283e 79e0 e73d
000003e0: 285f 743d 2b82 fd3c 74d0 dc3d ddef d9bd
000003f0: 9afc f7bc d79c 17be ea6e 843d 50fa bcbd
0.19156411 0.13943289 0.21615343 -0.08441917 0.18576059 0.20293114 0.17375311 -0.07235848
-0.08777171 0.11776442 -0.22698626 -0.07482159 0.099031955 0.15339178 -0.17536761 0.16224712
-0.109841265 0.24102834 0.22952013 0.12811676 0.13560683 0.12066081 0.04945668 0.12629491
-0.032036103 0.2323169 0.019357981 0.09128318 0.2051791 0.111060485 0.17894968 -0.15903085
0.25390437 -0.08734427 0.15881176 0.19749399 -0.022657942 -0.20244154 -0.1715892 0.03318596
-0.04786009 0.13437833 -0.02805151 0.049083296 -0.23577699 0.19377114 0.12426558 -0.18930937
0.26320028 0.14514267 -0.20484082 0.06821185 -0.05670844 0.20057335 -0.24769348 0.20463637
0.32417795 0.07650694 0.12200365 0.18447055 0.17269641 -0.18179089 0.032110747 -0.24341723
0.058008973 -0.009527651 -0.0668375 0.0059637427 -0.081499286 -0.028394252 0.10654858 0.19442931
-0.07317319 -0.07945656 -0.047932558 -0.007842315 -0.069669925 -0.17464635 0.16802423 -0.22623433
-0.15306784 -0.11122485 -0.04950697 -0.06965937 0.22724175 0.14199507 0.17083079 0.16870838
-0.1447172 0.1576451 0.073294066 -0.23945215 -0.0023158758 0.24584348 0.018559322 -0.0027503544
-0.015231173 -0.20803016 0.1719308 0.06330562 -0.062172092 -0.24012363 0.18281148 0.08324951
-0.04617687 0.20593747 0.22014852 -0.2035168 0.059829704 -0.06932154 0.041982263 0.050656505
-0.16975048 -0.002092785 0.1270314 0.0489887 -0.12468856 0.2358734 -0.06562358 0.0493536
0.20783447 0.050835937 -0.028200697 -0.16980399 -0.059788026 0.18470457 0.13136385 0.10518326
0.3345001 0.190392 0.009181398 0.005045606 0.28496215 0.07428014 0.07626918 -0.08362505
0.30566135 0.09560453 -0.11404854 -0.16953774 0.19585826 0.18217064 0.21260095 -0.13942093
-0.21015553 -0.1333045 -0.23076537 0.10121477 -0.20511577 0.16909504 0.07615006 0.23570624
-0.24980368 0.076288424 -0.13663298 -0.09437412 -0.046780232 0.10979499 -0.109531164 0.10838379
0.33259028 -0.101959005 -0.18575469 -0.16915242 0.33991075 -0.15656629 0.23393 -0.22053306
0.1370879 0.20092572 0.12501884 0.08715593 0.021509163 0.043109555 -0.05302972 -0.25374135
-0.08596954 -0.19269542 -0.08004904 -0.045549847 -0.20807265 -0.041597664 0.014166415 0.14280145
0.0554841 0.11182703 -0.009633399 0.13312967 0.18776272 -0.16188687 -0.029595109 -0.25326756
-0.049981844 -0.094113775 -0.21613118 0.12096397 0.03350317 -0.08821306 0.13039386 -0.19729054
-0.2139227 -0.08825373 0.019478614 0.1437318 0.007282504 0.09838572 -0.1574717 -0.06156264
-0.13306901 0.17433974 0.2495457 -0.15110207 0.18273535 0.012133896 -0.13310593 0.07376395
-0.06561002 0.09728076 0.07075171 -0.1910159 -0.11055798 0.07655681 0.17776962 0.029709531
0.028933248 -0.005336272 -0.006404201 0.03446344 0.10632513 -0.06578717 -0.06836044 -0.057172667
-0.07779248 0.05280931 0.17310855 0.0212015 -0.19790785 0.14672494 -0.07311534 -0.047430012
-0.2278815 0.19347492 -0.1551355 -0.23179185 0.21423297 0.1357072 0.16456671 0.11322112
0.05966106 0.030945858 0.10781947 -0.106414534 -0.030271817 -0.14805923 0.06466468 -0.09227431

linear_relu_stack1.2.bias f4 [16]
00000000: b406 b03d cc91 653e bcb4 ff3c 782e 0abe
00000010: 199a 703d ca6f 1d3e f9a7 69be 223b 453d
00000020: 0591 533e 695b 2fbc c151 073d dd98 cbbd
00000030: c272 42bd d00c 033e 6055 49bd 585e 693e
0.085950285 0.22418898 0.03121411 -0.13494289 0.05874071 0.15374675 -0.22817983 0.048152097
0.2066079 -0.010702946 0.03303695 -0.09941266 -0.047472723 0.12797856 -0.049153686 0.22789896

linear_relu_stack1.4.weight f4 [8, 16]
00000000: 4af2 70bd fef4 0a3c 13ea 973e 6f2e 853e
00000010: 80a2 9dbd 29fa 93bd 9871 cc3d 4fc7 7dbe
00000020: 31c2 a53e 43ac 443e aecc a53e 5c15 5b3e
00000030: bfa0 84be 8bba b7bd ce59 533e d942 0abe
00000040: c0a7 03be d15c f13d 0538 95bd 407e 0cbd
00000050: 6f80 1fbd fd15 30bd d9bb 873b d0e3 65be
00000060: 6e8a 14be 8270 793e d49a 69bd ef4e af3d
00000070: 728b 3cbd b31c 9d3d b3dd a63d 56d2 773e
00000080: adf0 32be f75f bebc be62 2fbe e531 313d
00000090: cdbb 64be 7a78 883e 2f73 113c 7715 0e3d
000000a0: f490 88bc bdb2 b2bd 33ba b339 c053 3fbe
000000b0: a1d2 6d3e 3a44 333e 19f8 4e3e eeb2 fcbd
000000c0: 52d9 3b3e 69ce 7fbd d632 9bbd 60fb 013d
000000d0: a1f3 fc3b ffe7 193e 34bd 7cbe db3d 04be
000000e0: c3aa 893e 48a8 79bd 8c24 593c b0f9 a33d
000000f0: 6ffe 4ebd 9e54 c93d 9adf 143e dd96 c53d
00000100: 27f2 3ebe 8027 c6bd a3a2 61bd d859 503e
00000110: 74ce d03b dc14 883b c5eb 2f3d 4cdf 513d
00000120: 47ef b83e dfa5 893d e0e7 913e b07c 163d
00000130: eb4b 37be 67f5 5dbd 88ca b2bc fb22 41be
00000140: e4e1 0bbd 6153 b6bd 6883 d8bd f7ff 26bd
00000150: 74da 9cbc e497 093e a753 87bb 5979 523d
00000160: 7a67 03bc f7d0 57be ac81 6e3d 5109 b0bd
00000170: fb32 10be 5fb3 fe3d 8f67 54be aad3 28be
00000180: d711 c6bd bd3f 8d3b 61a0 6fbe d4e2 ccba
00000190: 06eb 1bbe 20a5 55bd 9952 97ba b94c b1bd
000001a0: 81c2 673e 5443 62be 42c4 b93d 955a 6cbd
000001b0: e7b7 e0bd 59e1 633d e62e 443c 7fd6 56bd
000001c0: dce3 893e c2e8 eabd f05c f5bd c33f 923e
000001d0: 4129 0c3e 9957 5c3e 1774 8bbd 59f0 f3bd
000001e0: 13eb 5e3e b66d 6b3b 2e85 15bd d1e3 473e
000001f0: 4ed8 2ebe 4cb4 81bd 0857 cf3d aa1c 593e
-0.058824815 0.008481262 0.29670772 0.2601199 -0.0769701 -0.07225449 0.09982604 -0.24783061
0.3237472 0.19206338 0.3238272 0.21394867 -0.2590389 -0.08971127 0.20639727 -0.13502063
-0.1285696 0.117852814 -0.072860755 -0.03430009 -0.038940843 -0.04298972 0.004142266 -0.22450185
-0.14505932 0.24359325 -0.05703242 0.08559977 -0.046031423 0.076714896 0.081477545 0.2420133
-0.17474623 -0.023239119 -0.17127511 0.043260474 -0.22337265 0.26654416 0.00887756 0.03468844
-0.016670682 -0.08725498 0.0003428027 -0.18684292 0.2322488 0.17506495 0.20211829 -0.12338816
0.1834462 -0.062452707 -0.075780556 0.03173387 0.0077194725 0.15029906 -0.2468155 -0.12914221
0.26888093 -0.0609515 0.013253342 0.080066085 -0.050535616 0.098305926 0.14538422 0.096479155
-0.18647061 -0.09675503 -0.055086743 0.20346773 0.0063722674 0.0041528773 0.042949457 0.051238343
0.36120054 0.067210905 0.2849722 0.036740005 -0.17900054 -0.054189112 -0.02182509 -0.18861
-0.034150973 -0.08902622 -0.10571939 -0.04077145 -0.019147135 0.13436848 -0.004129845 0.051385257
-0.008020276 -0.21075808 0.058229133 -0.08595527 -0.14081948 0.12436556 -0.2074263 -0.16486993
-0.096713714 0.0043105767 -0.23401023 -0.0015631565 -0.15226373 -0.05215943 -0.0011545002 -0.08657212
0.22632791 -0.22095996 0.09070636 -0.057703573 -0.109725766 0.05563483 0.011974072 -0.052450653
0.26931655 -0.11470176 -0.11980617 0.2856427 0.13687612 0.21517791 -0.06809252 -0.11911077
0.21769361 0.0035923547 -0.036503963 0.19520499 -0.17074701 -0.06333217 0.10124022 0.2120234

linear_relu_stack1.4.bias f4 [8]
00000000: 7f25 08be 2475 8dbd 92c1 133e faef 163e
00000010: a1cf 353e 1e10 39be 7abf a33d 5f04 19be
-0.13295554 -0.069071084 0.1442931 0.14739981 0.17754985 -0.18072554 0.07995506 -0.14943074
