NQE/results/NQEClassifier/kmnist/0exp/model.pt (torch, 4295 bytes, 6 tensors)

linear_relu_stack1.0.weight f4 [16, 8]
000000 6e 7a 9f be b4 66 c2 bd 48 e5 3d 3e c5 9b 46 be
       -0.31148094 -0.09492245 0.18544495 -0.19395359
000010 95 8f 36 3e f0 6d af be a6 b4 0c 3e 33 a0 ca bc
       0.1782821 -0.34263563 0.13740787 -0.024734592
000020 02 1c 12 bf 62 c0 e7 3d fd 88 79 3e 05 e0 09 3e
       -0.57073987 0.11315991 0.24368663 0.13464363
000030 3e 1a 36 3e f8 48 94 3e 23 c7 94 3e 6c a6 34 3d
       0.17783448 0.2896192 0.2905818 0.044104025
000040 b4 4d 2d 3e b9 7f 94 be 1b 50 51 be 70 da 41 be
       0.16924173 -0.29003695 -0.20440714 -0.18930984
000050 93 08 fe 3d b7 68 a9 be b7 80 33 3d 75 be 3c 3d
       0.12403979 -0.33087704 0.043823924 0.04608007
000060 f0 d0 05 3d bd 29 6a be 85 9e 23 be c2 d2 84 be
       0.03266996 -0.22867484 -0.15978439 -0.25942045
000070 90 02 af be 40 c5 8c be b7 86 8a be d4 12 fc 3d
       -0.34181643 -0.2749424 -0.27055904 0.12308279
000080 06 e5 84 3e 58 15 9d 3e 00 e0 8e be ca 37 b1 3e
       0.2595598 0.30680346 -0.27905273 0.34612876
000090 65 76 6f 3e 11 98 83 3e 86 ff b5 3e 90 60 eb 3d
       0.23385008 0.25701955 0.3554651 0.11493027
0000a0 e6 22 dd bd 33 01 87 3e 1a 76 c1 3e 94 2b b3 3d
       -0.10797672 0.26368102 0.37785417 0.08748546
0000b0 e6 0f 59 be a7 28 e6 bd 0e 4c 82 3b fa 8e 42 3d
       -0.21197471 -0.112382226 0.0039763516 0.047499634
0000c0 20 6e 8d 3e 16 08 2b be af 33 cd 3c 71 d2 12 be
       0.2762308 -0.16702303 0.025049059 -0.1433809
0000d0 b4 fd 73 3e c1 64 8f 3e a6 53 62 bd f3 a9 6b 3e
       0.23827249 0.28006557 -0.055255555 0.23014049
0000e0 9b 17 a5 be 8e a8 84 be 01 23 3d 3d a0 e0 81 bd
       -0.32244572 -0.25909847 0.04617596 -0.06341672
0000f0 cf 2a b4 bd 74 3d a8 bd f8 59 9e 3d 36 70 9b be
       -0.087972276 -0.08214846 0.07732004 -0.30359048
000100 76 b7 b0 be dc 32 e1 3d 4d 57 72 3e 23 ad f0 3c
       -0.3451497 0.10996029 0.23666115 0.029379433
000110 3c 3d 7b bd 8a 73 d1 3b f2 a2 14 3d c3 84 71 be
       -0.061337695 0.006391947 0.03628821 -0.23585801
000120 f4 6e 87 be dc 65 84 3e 23 b0 89 3d 3f 46 4e 3e
       -0.26451838 0.25858963 0.067230485 0.20143984
000130 3f 7b 0f 3e 64 43 89 bd ac f3 32 3e 07 af 29 3e
       0.14011858 -0.06702307 0.17475766 0.16570674
000140 b0 30 05 be 38 b1 b0 be 4f e5 3d 3e 92 eb 76 3e
       -0.13006854 -0.34510207 0.18544506 0.241133
000150 67 3b 38 be 16 dc 67 3d 73 2e e5 be 34 3a 9e 3e
       -0.1799141 0.056606375 -0.44762 0.3090378
000160 02 31 8e bd 31 05 aa 3e b9 82 15 3e 37 59 3a 3e
       -0.06942941 0.33207086 0.14600648 0.18198095
000170 69 92 64 bd a0 f4 4b 3e cb 95 a4 3e b2 df ad 3c
       -0.05580369 0.19917536 0.32145533 0.02122483
000180 36 5f 9f be 16 fa f6 bd 46 93 14 3b 4f 29 83 be
       -0.31127328 -0.12059419 0.002267079 -0.25617453
000190 f1 dc 9d 3e ab 8e ee bd 50 d2 7e bd 6b a2 85 be
       0.30832627 -0.116483055 -0.06221229 -0.26100478
0001a0 5a 1e c5 3e f7 d8 84 3e 25 3f 3f be 30 82 95 3e
       0.3849972 0.2594678 -0.18676431 0.29200888
0001b0 f1 38 05 bd e4 30 1b be cf bb 68 3e 83 bd 73 bd
       -0.032525007 -0.15155369 0.22727893 -0.059506904
0001c0 3e 9f 00 be a5 75 a6 3e 36 3c 69 be b2 e2 9c 3e
       -0.12560746 0.3251163 -0.22776875 0.30641705
0001d0 6d 4f 21 3e d0 4f 9c be a0 0e ec bb b6 af 5e be
       0.15752955 -0.30529642 -0.007203892 -0.21746716
0001e0 91 50 1d 3e b2 84 43 3e 97 6d a3 be 61 7b 87 be
       0.15362765 0.19093588 -0.31919548 -0.26461318
0001f0 9e 84 9f be 03 e1 5a 3e 0b 85 1d 3b 0d 20 4f be
       -0.31155866 0.21374898 0.0024035599 -0.2022707

linear_relu_stack1.0.bias f4 [16]
000000 64 e3 82 be 72 04 98 be b6 75 96 bd 91 a5 8d be
       -0.2556411 -0.29690892 -0.0734667 -0.2766538
000010 ce a2 73 be ff 89 10 3e 7c d8 bd 3e d4 92 84 be
       -0.23792574 0.14115141 0.37079227 -0.2589327
000020 a4 66 71 3e 18 8e 2d be e8 d0 d7 3d 5f 24 a5 3d
       0.2357431 -0.16948736 0.105378926 0.08063578
000030 76 cc 9d be 49 d7 86 be bc cc 98 bd 4d 41 11 3e
       -0.30820054 -0.26336125 -0.07460925 0.14185067

linear_relu_stack1.2.weight f4 [16, 16]
000000 50 de 6f bd 80 0f c7 3c 54 19 e0 bd ba 16 67 3e
       -0.058561623 0.024299383 -0.10942331 0.22567263
000010 4a f0 6a be 34 49 9c bd f4 d6 f0 3d 6e 5a 3b 3e
       -0.22943226 -0.0763115 0.11759749 0.18296215
000020 86 f3 4d 3e 68 d6 27 be ea c4 5d be a8 a1 25 bd
       0.20112428 -0.16390383 -0.21657148 -0.04043737
000030 80 e0 6b be 4a e8 5a be 70 38 ea bd 34 94 78 3e
       -0.23034859 -0.21377674 -0.11436546 0.24275285
000040 21 9e 41 3e 01 21 41 be c5 1a 4b be 80 c1 fd 3c
       0.18907978 -0.18860246 -0.1983443 0.030976057
000050 26 3c ec 3c f2 2a 0f 3e 73 a1 5e be 48 02 98 bd
       0.028837275 0.13981226 -0.21741275 -0.0742231
000060 82 f9 99 bd bd a0 4f be 43 b3 3c 3e 53 8e 28 bd
       -0.07518293 -0.2027616 0.18427758 -0.041151356
000070 30 d4 af 3c 8c 68 7c 3e c5 c0 72 3d d3 5b 2a 3d
       0.021463484 0.24649256 0.05926587 0.041591477
000080 08 94 ab 3d d2 de 49 be 70 1b d2 3d 94 33 e6 3d
       0.08377844 -0.19713905 0.102591395 0.112403065
000090 90 c5 d8 3c 20 66 f7 bd 5c 98 47 be ec 6b d5 bd
       0.026461393 -0.12080026 -0.19491714 -0.10420975
0000a0 c0 dc e4 3c 82 2f 47 be 56 64 23 be 64 0d 59 be
       0.027937293 -0.19451717 -0.15956244 -0.21196514
0000b0 ec a1 61 3e 16 84 13 3e 2c 12 3b be 16 de 16 be
       0.22034425 0.14405856 -0.18268651 -0.14733157
0000c0 6a 8a 78 3e 04 da 4c be 73 29 47 bd 74 19 c3 3d
       0.24271551 -0.20005041 -0.048623513 0.09526339
0000d0 24 11 cb ba 8e 92 94 3c fa af 12 be 74 1e 87 3d
       -0.0015492779 0.018136289 -0.14324942 0.06597605
0000e0 e6 b4 2c bc fb ad 12 3e ab a2 21 3d a1 3a 84 3e
       -0.010541176 0.14324181 0.039461773 0.2582598
0000f0 34 b5 79 3e b4 8a 2f 3e 59 6f 3b bd 8a ad 50 be
       0.2438553 0.17142755 -0.045760486 -0.203787
000100 b7 6e 52 be 2f b1 44 bd 81 ab 6d be 80 fc 80 3b
       -0.20550047 -0.048020538 -0.23209955 0.0039363503
000110 fa 39 81 be c8 6d 07 bd 3e 63 70 3d 52 4f 7f 3e
       -0.25239545 -0.03306368 0.058688395 0.24932602
000120 ae 6f 79 be 1e f7 0a 3e 6a d6 51 3e d0 a6 d8 3d
       -0.24359009 0.1357083 0.20491949 0.10578692
000130 a4 c5 30 3e 69 93 ba 3c 36 71 22 be f8 73 28 3e
       0.17262894 0.022775369 -0.15863499 0.16450489
000140 d1 24 0e 3d 27 7b 8d 3e 8c 18 b0 bc b6 d2 16 3e
       0.03470308 0.2763302 -0.02149608 0.14728817
000150 4f 06 77 be 9f 8d 65 3e 94 f9 1a 3d 70 30 e4 3d
       -0.241235 0.22417305 0.037835672 0.11142051
000160 97 00 15 be d5 c8 e6 3d 36 a1 3b be 72 30 86 3e
       -0.14551006 0.112687744 -0.18323216 0.26208836
000170 52 dd 1a 3e 43 0b 39 bb c2 7f 35 3e d6 c6 d2 bd
       0.1512349 -0.0028235472 0.17724517 -0.10291831
000180 e0 4d a3 bd 49 35 e3 bd 96 85 fa bd dc 43 d2 3d
       -0.07973838 -0.11094148 -0.12232511 0.102668494
000190 9b b0 45 3e 95 30 b8 bd 67 d3 58 bd 8a 7d 72 be
       0.19305651 -0.08993641 -0.052935984 -0.23680702
0001a0 68 90 08 be 83 6f 4d be 1b 42 1c be 21 af 51 be
       -0.13336337 -0.2006207 -0.15259592 -0.20476963
0001b0 70 52 20 be b0 b4 5d 3e 8c 99 7b 3e de 9c 77 bc
       -0.15656447 0.21650958 0.24570292 -0.015113084
0001c0 fb 56 34 be 4a e1 3f 3e 5c ef 8f 3d ca 77 29 be
       -0.17611305 0.18738285 0.07028076 -0.16549602
0001d0 00 f1 18 be ac 10 f9 3d 7a 6f 62 be 00 87 4d 3e
       -0.14935684 0.12161383 -0.22112837 0.2007103
0001e0 d1 40 16 bd 7f 52 fc bc db f6 9d 3d 94 1d 74 3e
       -0.036682907 -0.030801056 0.077130996 0.23839408
0001f0 20 08 b7 bc d6 41 7c bc 25 40 70 bd 0f bd 7a bd
       -0.022342741 -0.015396556 -0.058654923 -0.061215457
000200 20 f8 c7 bd 80 17 92 be d2 5f 66 be b8 9d 49 3e
       -0.09764123 -0.28533554 -0.2249749 0.19689071
000210 55 b4 07 3e cb bc 7e be 1a 79 81 3e 1c 65 63 be
       0.13252385 -0.24876706 0.25287706 -0.22206539
000220 e6 9e 7d bd c6 72 86 be ca d4 de bd de 13 54 3e
       -0.061919115 -0.2625944 -0.1088043 0.20710704
000230 b0 f3 01 be 62 7a 87 3e aa 3f 53 3e 29 68 5d 3e
       -0.12690616 0.26460558 0.20629755 0.21621765
000240 8b 95 1c 3e 57 33 a7 bd 2d 55 0c be 5a b6 78 3e
       0.15291421 -0.08164089 -0.13704367 0.24288312
000250 ac a5 ea bb ff 2d 0e 3e b9 91 83 3e 00 be 33 3c
       -0.007160863 0.13884734 0.25697115 0.0109705925
000260 6f 0b fb 3c e2 45 2c bd 82 6f 75 3d e2 08 12 be
       0.0306451 -0.042058833 0.059920795 -0.14261201
000270 c6 d8 56 3e 6d ae 2c bd ca 10 91 bd e0 0c 0b bd
       0.2098113 -0.042158533 -0.070832804 -0.033947825
000280 38 1a 86 3a 64 39 94 bc 36 87 1a 3e e0 c4 b4 bd
       0.0010231202 -0.018093772 0.15090641 -0.088266134
000290 3b 5b 25 be 50 82 14 3e dc 8c 61 3e c4 67 59 3e
       -0.16148083 0.14502835 0.2202639 0.2123099
0002a0 16 30 6f 3e 3f 2b 41 be bd 86 04 3e f9 0f 42 be
       0.23358187 -0.18864153 0.12942024 -0.18951406
0002b0 a0 6b 89 3c a7 38 df 3d d8 7e 73 3e ea 8d 39 3d
       0.016774952 0.108994775 0.23778856 0.045301355
0002c0 00 76 db 3d 1e d3 12 3e 4c 6f de 3d 1c 07 9e 3d
       0.10715866 0.14338347 0.10861072 0.077162
0002d0 3c 34 6e be d4 91 64 be c0 45 c5 3b 00 68 c2 3c
       -0.23262113 -0.22321254 0.0060202777 0.023731232
0002e0 2a 4e 58 3e f2 33 29 be 52 53 0c be 0c b7 04 be
       0.21123567 -0.16523722 -0.13703659 -0.12960452
0002f0 24 87 7b be 34 16 1c 3e fc a7 5d 3e 4a bb 2c 3e
       -0.24563271 0.15242845 0.21646112 0.1686832
000300 3b 73 21 3e dd 9d d6 bc a6 fd e8 bd 20 e7 ab bd
       0.15766613 -0.026198322 -0.113765046 -0.08393693
000310 4d 2a b8 3d 40 13 c9 3d 28 0d 20 be 70 22 bb bd
       0.08992443 0.09818125 -0.15630019 -0.09137428
000320 63 83 b5 3d 81 5e 5f 3e 00 8e 70 be 4b 53 34 3e
       0.08862951 0.21813394 -0.23491669 0.17609899
000330 ec 43 e6 bd e5 42 e9 bd ca 5b 38 be 3e 57 b3 bd
       -0.11243424 -0.11389712 -0.18003765 -0.087568745
000340 24 8e ee 3d 44 76 92 be ce 1d a1 bd 98 9f 54 bd
       0.11648205 -0.28605855 -0.07867013 -0.051910013
000350 bc a8 df 3d cc 69 24 3d 3b dd 90 3e ac 4f 46 be
       0.109208554 0.04013996 0.28293785 -0.1936633
000360 9c 64 ec 3c 80 01 bd bd 22 9d 94 3e 5f b7 63 bd
       0.028856568 -0.09228802 0.29026133 -0.0555948
000370 e0 b4 03 bc 57 e6 16 3e c4 32 d6 3d 41 5b 0a 3c
       -0.008038729 0.14736305 0.104589015 0.008444608
000380 1d ed 24 be a1 b5 db bc 14 9e 83 ba dc 5e 7a 3e
       -0.16106077 -0.026820006 -0.0010041618 0.24450248
000390 05 ce 2f 3e 1f 31 66 be 78 6e bc bd 66 3c 42 be
       0.17168434 -0.22479676 -0.09200758 -0.18968353
0003a0 99 1c 54 3e e5 37 f9 3d e9 fe 1a be 89 bc 80 3d
       0.20714034 0.12168864 -0.15136303 0.0628596
0003b0 cc 6d 5a 3e a4 a4 1b be b4 40 47 be 82 6b 61 be
       0.21330947 -0.15199524 -0.19458276 -0.22013667
0003c0 60 75 df bc 1c f0 d0 3d bb eb 3b 3e e8 e6 55 3d
       -0.027277648 0.10202047 0.18351643 0.052222162
0003d0 c5 9a 45 be 6b 77 6e be 9a 99 99 3c 70 33 c0 3c
       -0.19297321 -0.23287742 0.01875 0.023462027
0003e0 32 9b 64 be 80 e9 98 3b 9a fa 12 be 9f 7c 8d bd
       -0.22324827 0.0046665072 -0.1435341 -0.06908535
0003f0 56 cc 4a be 35 e3 43 3c 78 f6 2b 3e 64 58 b8 bd
       -0.1980451 0.011956026 0.16793239 -0.09001234

linear_relu_stack1.2.bias f4 [16]
000000 04 e1 02 be db 74 32 3e 1e 50 26 be 75 21 bb 3c
       -0.12781149 0.1742739 -0.162415 0.022843102
000010 98 fd 02 3e 6e 3b c0 bd 5f e3 b0 3d e1 33 10 3e
       0.12792051 -0.09386335 0.086371176 0.1408229
000020 2e cf 99 bd 01 54 70 bd ec cb ef 3d 20 f6 06 3c
       -0.075102195 -0.058673862 0.11708817 0.008237392
000030 60 4a 95 3c 2f 57 12 be a0 a8 4d 3e 3e 11 5b 3e
       0.018223941 -0.1429107 0.20083857 0.21393296

linear_relu_stack1.4.weight f4 [8, 16]
000000 de 57 2a be 6c db 01 be 30 0d b5 bd d3 7e b3 3d
       -0.16635081 -0.12681359 -0.08840406 0.08764424
000010 b3 69 1b be da 81 1e 3e 7b 36 33 3c 2c a0 93 bd
       -0.1517704 0.15479222 0.010938282 -0.07208285
000020 d4 8c 9e be 94 94 c3 bd f1 23 25 3c 50 6c 52 bd
       -0.30966818 -0.095498234 0.01007937 -0.051372826
000030 7d 5f 21 3e 3b d0 a0 be 20 d1 fd 3d 5f c5 1a 3e
       0.15759082 -0.31408867 0.12393403 0.15114354
000040 26 de 5e 3e 31 a0 32 bc 40 19 33 3c f9 6e 17 be
       0.2176443 -0.01090245 0.010931313 -0.14788426
000050 13 2d f9 bd a5 92 bd 3d 86 48 12 be ff 56 ba 3d
       -0.121668 0.09256486 -0.14285478 0.090986244
000060 1e fb 66 bd 8d b0 21 bd 72 d5 0f be d8 7e 7b 3d
       -0.056391828 -0.039475013 -0.14046267 0.061400265
000070 2d 96 84 3e 90 cf 90 be 4b e9 b5 bd 9b 1b 83 bd
       0.25895825 -0.28283358 -0.08882388 -0.0640175
000080 80 88 58 3d a0 cf 48 bc 48 f8 ad bd 61 61 5f 3e
       0.05286455 -0.012256533 -0.084946215 0.21814491
000090 87 6e a0 3d cb c5 90 bd 7d b2 6c 3d 0b 1a 83 bd
       0.078335814 -0.07068976 0.057787407 -0.06401452
0000a0 d6 76 70 be dd ad b0 3d 60 bf b7 bd 00 4f 4f 3c
       -0.23482832 0.08626912 -0.08972049 0.012653112
0000b0 68 78 26 be 90 fc 72 3b d9 a4 0b 3d 0f 76 53 3e
       -0.16256869 0.0037076809 0.034092758 0.20650505
0000c0 84 e1 6e 3e 77 23 34 3d 74 24 11 3e bc 67 b4 3c
       0.23328215 0.043979134 0.14174062 0.02202212
0000d0 6b 24 73 3e 60 a9 0b bc 06 69 90 bd 35 8e 3b be
       0.23744361 -0.008524269 -0.07051282 -0.18315966
0000e0 e4 eb 7a 3e f4 e6 16 3e 8a 5c 26 3d da d4 71 3e
       0.24504048 0.14736539 0.040615596 0.23616353
0000f0 79 cb ab 3d e4 c3 fc 3d 35 25 75 be fe 71 c4 3c
       0.08388419 0.12342051 -0.23939975 0.023980137
000100 9e 59 79 be 9e f2 84 be de 6f 4b 3e 16 5d 74 bd
       -0.24350592 -0.25966352 0.19866893 -0.059659086
000110 70 f5 f1 bd 0c 19 2a 3e 6a f2 94 3d b5 8e 7b 3e
       -0.118143916 0.16611117 0.07272799 0.24566157
000120 ae b4 26 be 8f f4 c4 bc b0 d1 a0 bd 48 48 6f 3d
       -0.16279861 -0.024042396 -0.07852495 0.058418542
000130 9d 47 80 3e 59 22 44 be f2 83 77 3b 6f 25 1f 3e
       0.25054637 -0.19153728 0.0037767855 0.15541624
000140 c0 46 79 bd 65 79 2d 3d 9c 21 70 be 7f ec 07 be
       -0.060858488 0.0423521 -0.23450321 -0.1327381
000150 19 00 6e be eb 62 7f 3e e9 22 f0 bc cf 11 66 3e
       -0.23242225 0.24940078 -0.029313521 0.22467731
000160 ee 7e 8c bd 4e 01 2a be 9f 62 34 be 48 1c 63 3e
       -0.068601474 -0.1660206 -0.17615746 0.22178757
000170 5f 8b a1 3d b6 f0 b1 bc 62 db 12 be f7 a6 1b 3e
       0.07887911 -0.021721225 -0.143415 0.15200411
000180 88 d7 84 3d 12 8b f2 3c 00 26 7b be 3a e8 9b bd
       0.06486422 0.02960733 -0.24526215 -0.07612653
000190 01 24 0c be ca ce 9f 3e fe 6c 43 bb 9f 49 1f 3e
       -0.1368561 0.31212455 -0.0029819603 0.15555428
0001a0 34 ea 5b be d9 25 1a be d2 5e 67 3e 48 d8 53 3e
       -0.2147606 -0.150535 0.22594765 0.20687973
0001b0 dc ba bd bc 78 84 59 be 39 95 cd bb f9 db 7b 3e
       -0.02316039 -0.21241939 -0.0062738922 0.24595632
0001c0 9c 56 ea 3d 34 d2 20 3e a4 f2 f8 bd 2a 30 f2 3d
       0.11442301 0.15705186 -0.12155655 0.11825593
0001d0 1e f5 a3 3c cb f6 bf bd 13 4e 7e bd cd d8 2e be
       0.020014342 -0.09373244 -0.062086176 -0.1707489
0001e0 78 1c ba bd c4 fb e5 3c 96 c6 6e be b0 07 1f bd
       -0.09087461 0.028074153 -0.23317942 -0.03882569
0001f0 06 ac 89 3b e0 95 0a 3e 77 11 51 be 2c a2 b0 3d
       0.004201415 0.13533735 -0.20416819 0.08624682

linear_relu_stack1.4.bias f4 [8]
000000 17 ca 89 3d 7a db f3 3d 46 7b bf 3d 78 94 94 bd
       0.06727999 0.11907096 0.093496844 -0.07254881
000010 74 a3 7c 3e 2c 4e 8b 3d ea 94 70 3e a7 3a e6 bb
       0.24671727 0.068020195 0.23494306 -0.007026035
