NQE/results/NQEClassifier/mnist/2exp/model.pt (torch, 4295 bytes, 6 tensors)

linear_relu_stack1.0.weight f4 [16, 8]
00000000: 8fcf 963e a7ef 3fbe c822 1cbe 1b34 5cbe
00000010: 1491 863e a07c b3be 1833 1bbc 7f73 06bd
00000020: e00d 1dbe 7e0a 3fbe 3306 aabd 1440 f53d
00000030: d7cd 97be 77d0 9f3e 9aad 81bd 2077 833e
00000040: b0a8 d33d 7e87 0f3e 6355 14be d302 29be
00000050: 795b 293e cb92 6abe 85fe 053d 82d0 05be
00000060: 3962 83be afc5 9fbe 8f34 f83d 92c3 4f3e
00000070: 70a0 55be d8df 93be 23d8 29be 6e35 d63c
00000080: 14a6 18bc 7cb4 4fbe 1c65 e0bd 091b af3c
00000090: 99c6 35be 38d2 2b3e ceb2 8c3d 0ec5 b2bd
000000a0: 0ce3 4b3d cb7d 7cbe 30b9 533e 4b10 7b3e
000000b0: 2275 67be 05ac 023e d99a 713d e8ff 99be
000000c0: 6e9e 3abd c188 4f3d f829 3e3e 8cdd 1c3d
000000d0: a147 b4be ea4a 11be 5e53 883e 1060 693d
000000e0: 3f4a c6bd 6c5a 5fbd 4566 2ebe da37 b7bd
000000f0: 56da 9fbe 9d1e dd3d 0645 7abe 7f51 fc3d
00000100: 47ea aabe 330a 473d 33ab 52bd 8d5a 793e
00000110: b4fb 533d cb86 ab3e 6404 47be 4f96 60bd
00000120: bfef bfbe 1031 d6bd 38a6 343d e490 123e
00000130: 996c 9d3e a4ad 5f3e 347c 103e d4da 8bbd
00000140: b3c5 773e 280c 893d 2953 d0bd 00aa aebe
00000150: 0762 81be 9271 023e 2952 a0be 068c 95be
00000160: a53e de3d cfd6 ac3e 20fe 7a3e 48ba fc3c
00000170: d963 843e 1aaf 4d3d eb71 613e f525 423e
00000180: 4b94 993e 8c5f 86be 14d3 83be 2362 e83c
00000190: 91c6 6bbe 559a 713e 0a5e babd 27d1 babd
000001a0: d82d b8be ffe0 c53e b581 b43e 276d 22be
000001b0: 865b f23c 2f09 19be c307 9d3e 96e5 6d3e
000001c0: e664 5ebe e82b c43b 0eba 1a3d 80a1 9abd
000001d0: b765 773e b11d a13d ac8f 943e d541 9fbe
000001e0: aa88 ec3e 2333 4c3e bc1e a2be 2221 283e
000001f0: 6013 7dbe 75d3 233d 0717 c23e 0353 db3d
0.2945523 -0.18743764 -0.15247643 -0.21504252 0.2628256 -0.3505602 -0.009472631 -0.03282499
-0.15337324 -0.18656346 -0.08301964 0.119751126 -0.2964923 0.31213734 -0.0633194 0.25676823
0.10334909 0.1401653 -0.14485697 -0.16504984 0.165388 -0.2290756 0.032713432 -0.1306782
-0.25660875 -0.31205508 0.121194 0.20289448 -0.20861983 -0.28881717 -0.16586356 0.026148524
-0.00931694 -0.20283693 -0.10956785 0.021375196 -0.1775154 0.16779411 0.06870042 -0.087289914
0.049777076 -0.24657361 0.20676112 0.24517934 -0.22603276 0.12760933 0.058985565 -0.30078053
-0.045561247 0.050667528 0.18570697 0.03829722 -0.352109 -0.14188734 0.26626104 0.056976378
-0.0968213 -0.054529592 -0.170312 -0.089462 -0.31221265 0.10796855 -0.24440393 0.12320232
-0.33381864 0.04859371 -0.0514328 0.24350949 0.051753715 0.33501276 -0.19435269 -0.054830845
-0.374876 -0.10458577 0.04410383 0.14313084 0.30746916 0.21843582 0.1410988 -0.068288475
0.2419651 0.06691772 -0.101721115 -0.34114075 -0.252701 0.12738636 -0.31312683 -0.29208392
0.10851792 0.33757636 0.24511003 0.030850545 0.25857428 0.050215818 0.22016113 0.18959792
0.2999595 -0.2624477 -0.25746977 0.028367108 -0.23024966 0.23594029 -0.09099968 -0.09121924
-0.35972476 0.3864822 0.3525521 -0.15861951 0.029584657 -0.1494491 0.30669984 0.23232111
-0.21718177 0.0059866793 0.03777509 -0.07550335 0.24159895 0.07866991 0.29015863 -0.31104913
0.46198016 0.19941382 -0.31664073 0.16418889 -0.24714422 0.039996583 0.37908193 0.107091926

linear_relu_stack1.0.bias f4 [16]
00000000: a691 14be 2b4d 683d e441 7bbe 60fd a53e
00000010: 209b d2bd 0c07 0c3c 5fe4 61be 8e44 0fbe
00000020: 6dee df3b 3f61 d3bd 5175 643d 5d8f 9e3e
00000030: 13c9 a1be d0e2 983e e735 713b 36bd 253e
-0.14508685 0.056714218 -0.24536854 0.32419872 -0.10283494 0.008546602 -0.22059773 -0.13990995
0.0068338425 -0.103212826 0.055775944 0.30968753 -0.3159872 0.29860544 0.003680581 0.1618546

linear_relu_stack1.2.weight f4 [16, 16]
00000000: e6ed 61be ca3f b7bc 62e3 81bd 33cb 22be
00000010: 20e4 fbbd 51cb 303c 3ef5 d03c 9ed8 533e
00000020: b66b 43be 3bc2 26be c1c0 3f3e 2cba 23be
00000030: dd1c 3abe 6459 353e ec11 3cbe f64f 9bbd
00000040: 7d6f 3bbe d70d 5bbe 9824 d93d 70e4 25be
00000050: 0ccf d83d e447 193e b2b1 01be e03e b43d
00000060: 2e3d 4abe ec69 56ba dbf6 d13c 4fb9 e23d
00000070: 5583 7cbe 06b8 a53d 0643 b2bd 898f c73d
00000080: 8cbb 753e f71f 273e d4e8 f5bd 99c1 2d3e
00000090: da64 5c3e 74d5 993d 8bab 1c3d 5444 6ebe
000000a0: b2e8 a9bc 8b25 85bd 1999 1b3d e8a4 c23d
000000b0: a112 613e f854 5d3d ebe8 4cbe 623f 27be
000000c0: df2f 213d 446b a9bd 465f 78be 5167 343d
000000d0: 9aa0 193e 7d1e 593e 5de9 00bd 6860 65be
000000e0: db89 a4bd 1cea d93d 9306 ab3b 04b2 0a3e
000000f0: 6b07 f2bd 7c5e 303e dd27 84bd 6813 71bd
00000100: c058 f9bd 5adc d53d 321b 48be 1d3a 423e
00000110: 741b a5bd db73 713e 10de 3dbc 0c76 27be
00000120: 4fb3 b23d 073c e3bd 1991 0ebe ca29 3f3b
00000130: 9dd4 cd3d f5e2 4fbd 484a 273e 67d8 623b
00000140: d008 4cbe 49ae 033d b466 083e e62a 87bb
00000150: 0ecc 643e 227d 883d 57e0 03be a04f 2d3d
00000160: 6c36 5f3e 92a9 dbbc 1a23 713e 5f36 223d
00000170: 5c5e 283e 4831 9d3e 0b20 56be ae44 c8bd
00000180: aab3 283e 7562 bf3b e627 52be e1cd 6dbe
00000190: 505f 3c3e d008 433e 7d9c edbd e4e1 003e
000001a0: c423 293e b46e 1abd 040a f0bc 060b 853d
000001b0: da7d a8bc f576 373d 16fc 22bc 622a 59be
000001c0: 8df3 49be e216 1f3d ae78 a3bd ec54 1a3e
000001d0: 725d 3ebe 65bf 60be 5ba7 13bd c0fa 18be
000001e0: 5b40 93bc a5a6 71be 39a7 4bbe 3d3e 3ebe
000001f0: 6ee5 28bd f462 173e fe5d 573d da90 1e3e
00000200: 9460 07be 408b e2bc f644 693e b072 573e
00000210: da3d 4dbe 5267 71be 1ea8 44be 4842 39bd
00000220: 446c 0bbe 0aa6 263e 148a 5a3e 8e7d 65be
00000230: c25e 183e a41a ebbd 76a0 2bbe 84a8 813d
00000240: 66f2 06be 27f1 643e 90e4 e13c 7846 2bbe
00000250: 2081 45be b15c be3d 4a18 18be 8c6c debd
00000260: 2c58 e63d 33cc 0cbe 93f4 6cbe 06a0 5ebc
00000270: 20a4 133e ca30 44be 9827 273d 004a cc3d
00000280: e0c1 1a3e 8ebb 1f3d e285 6b3d 9b73 89bd
00000290: 4689 2d3e 3b76 7bbd 3e96 ffbd d025 af3c
000002a0: 092e 703e 5cba 103e b686 6cbd bd70 34bc
000002b0: 62bf 543e 5a85 f23e e4f5 0b3e f87f 19be
000002c0: 98e5 aa3d f060 593d abcc 48bd ffab 9fbc
000002d0: f8eb 61bd 9228 75bd 05e8 5cbe 0cd9 923d
000002e0: 3993 8fbe 66e7 b43c 13d4 eabd 5ded aebc
000002f0: ffbd 5a3e ae59 18be 067f b0bd 4305 9a3e
00000300: a089 28bc 8caf 3b3e 70ba 23bd ef75 a33d
00000310: ae12 783e ac02 99bd ceeb 0f3d a81e 07be
00000320: c4fb 79be e68f d13d 7c8f cebd 5654 61be
00000330: 3471 4e3e 696f 5e3e 89eb ae3c b087 7ebe
00000340: cf94 e13d d28c 7dbe bc15 b9bd a6cb e7bc
00000350: e8cc d5bd ec66 c13d 6889 5abe 8ac8 733e
00000360: a5c6 48bd b092 26bd 7dea 633e 6804 193e
00000370: 9779 12bd cae1 2cbe 992e 213d b411 6e3e
00000380: 147d bebd 59a4 70be b056 70be 8d52 5ebd
00000390: b0ca 413e 75d7 43bd 5ad0 9abd 60a2 163c
000003a0: 8458 763e 1b1c 8bbd 8ed1 2c3e 12bc 47be
000003b0: 5022 e83c 9840 f93d e78f cebc 830f 23bd
000003c0: 48bb 113e bb68 303e 6e66 6dbd d44d 233d
000003d0: 048a e8bd e441 de3d 1dab 193e 100a 04bd
000003e0: 4119 c53d ca92 543e bee3 093e fd2c 273d
000003f0: 9dbf 203e 1694 433e 4c7d d83d 2c49 32be
-0.22063407 -0.022369284 -0.06342198 -0.15897827 -0.12299371 0.010790662 0.025507566 0.20688102
-0.19084057 -0.1628503 0.18725874 -0.15988988 -0.18175073 0.17709881 -0.18366212 -0.07583611
-0.18304248 -0.21391998 0.10602683 -0.16200423 0.10586366 0.1496883 -0.12665442 0.08801055
-0.197499 -0.0008179236 0.025630405 0.11070501 -0.24659474 0.0809174 -0.0870419 0.09744174
0.23997325 0.16320787 -0.12007299 0.16968383 0.21522847 0.07511416 0.038249534 -0.23268253
-0.02074084 -0.065013014 0.037987802 0.095041096 0.21979763 0.05403611 -0.20010726 -0.16332772
0.039352294 -0.082724124 -0.24255094 0.044043843 0.15002671 0.21203037 -0.031472553 -0.22400057
-0.08034106 0.10640356 0.0052192896 0.1354447 -0.11817821 0.17223543 -0.06452916 -0.058856398
-0.12175131 0.10442419 -0.19541624 0.18967481 -0.08061877 0.23579352 -0.011588588 -0.16353625
0.08725607 -0.11095434 -0.13922538 0.0029169195 0.100503184 -0.050753552 0.1633693 0.003461385
-0.19925237 0.032148633 0.13320428 -0.004124987 0.22343466 0.06664492 -0.12878548 0.042312264
0.21798104 -0.026814256 0.23548546 0.039602634 0.16442245 0.3070166 -0.20910661 -0.097787246
0.16474786 0.0058405944 -0.20523033 -0.23223068 0.18395734 0.1904633 -0.116021134 0.1258617
0.1651755 -0.03770323 -0.02930165 0.06496243 -0.020567823 0.04479118 -0.009947797 -0.21207574
-0.19721813 0.038840182 -0.07982002 0.15071458 -0.18590334 -0.21948011 -0.036048274 -0.14939404
-0.017975023 -0.23598726 -0.19888009 -0.1857843 -0.041234426 0.14783841 0.052579872 0.15484944
-0.13220435 -0.02765429 0.22780213 0.21039844 -0.20043126 -0.2357457 -0.19204757 -0.045229226
-0.13615519 0.16274276 0.21341735 -0.22411177 0.14879897 -0.11479691 -0.1676043 0.0633097
-0.13178405 0.22357617 0.027574807 -0.167261 -0.19287539 0.09295023 -0.14853016 -0.108605474
0.11247286 -0.13749771 -0.23140173 -0.013587957 0.14418077 -0.19159237 0.040809244 0.09975052
0.1511302 0.038997225 0.057500727 -0.06711503 0.16946897 -0.06139205 -0.12479828 0.021380335
0.23455061 0.1413359 -0.057745658 -0.011013207 0.20776132 0.47367364 0.13668019 -0.14990222
0.08344573 0.053070962 -0.04902331 -0.019491194 -0.055156678 -0.059853144 -0.21572883 0.07170305
-0.2804201 0.022082996 -0.11466231 -0.021353418 0.2136154 -0.1487796 -0.08617978 0.3008214
-0.010286719 0.18328685 -0.039972723 0.079814784 0.24225876 -0.07471213 0.03513699 -0.13195288
-0.24412447 0.102325246 -0.10085961 -0.22004828 0.20160371 0.21722187 0.021352546 -0.24856448
0.11014711 -0.2476075 -0.09037349 -0.02829535 -0.104394734 0.09443459 -0.21341479 0.23806968
-0.049017567 -0.040667236 0.22257419 0.14943087 -0.03576049 -0.16883007 0.03935108 0.2324894
-0.093012005 -0.23500194 -0.23470569 -0.054277945 0.18924975 -0.047812898 -0.07559271 0.009193987
0.24057204 -0.0679247 0.16876814 -0.19505337 0.028336674 0.121705234 -0.025215102 -0.039809715
0.14231598 0.17227452 -0.057959013 0.039869145 -0.113544494 0.108524114 0.15006681 -0.03223616
0.096239574 0.2075912 0.13465783 0.04081439 0.15698095 0.19099459 0.105707735 -0.17410725

linear_relu_stack1.2.bias f4 [16]
00000000: a0b1 6f3e 0492 1d3e 73b8 503e 12ea 0a3e
00000010: 9f06 f8bd 6a5a 14be 464d 433e c75f b43d
00000020: de3f 2fbe f361 3ebe 4a36 adbd 39a6 3f3e
00000030: 0fe5 55bb fb7b 173e 0423 323e cdf2 a33d
0.23407602 0.15387732 0.20382862 0.13565853 -0.12110638 -0.14487615 0.19072446 0.088073306
-0.17114207 -0.18592052 -0.084576204 0.18715753 -0.003263775 0.14793389 0.1739617 0.08005295

linear_relu_stack1.4.weight f4 [8, 16]
00000000: 358e 0ebe e64a fc3c cc27 6cbd f83d fabc
00000010: 1140 0e3e 112e 28be 100a 1abe 1c90 bdbd
00000020: e87e 773e 252d 2d3d 260a 73be 5526 be3d
00000030: 06c9 38bd 0a69 803e f099 eb3c 837b 26be
00000040: f448 a93c d262 42be 60ef bdbc 10e7 e73d
00000050: 01e4 c7bd bc35 85be 3630 623e 2595 78be
00000060: 3cd3 e93d 7562 503e 59d1 fb3d 58e1 af3d
00000070: 55e3 81bd a88b 5f3e 3523 d63b 4041 d9bd
00000080: 97f5 203e b0c8 83bd 3ef6 bcbc 4ac8 9ebd
00000090: f791 423e fb17 2f3d fc03 5a3e e2aa 69be
000000a0: 705a 5fbd aaa3 bb3d 92fc 2a3e 8920 17bc
000000b0: e762 f13c 3890 61bd 60de 3cbd 4e8e df3d
000000c0: f549 f1bd f66e e13d b3b8 0d3e 5674 223e
000000d0: 6f8d 0e3e bd3e 833d 2d8d fabd e61c 4ebe
000000e0: 7008 f6bd d2f7 0fbe 0689 48be 0d3c 093d
000000f0: 4c0c 373e 28bb 8e3e 4e3d 7f3e a676 19be
00000100: 7742 70be ba3b 66be e6d2 893c 253c 413d
00000110: f2e4 723e 3639 6d3d c0e1 203e 28c9 18be
00000120: 3a8e 433e 5358 17be 6eee 7b3e 50d1 a0bc
00000130: 1fb3 0a3e f31a 21be 5389 63bd ff3c 18bc
00000140: d843 4fbd 1b8c 2ebd 1b13 773d 1ba8 383e
00000150: 5064 39be 366b 913c b5c8 43be 27ad b0bd
00000160: c05e 883d d555 57be a909 debd 4228 8b3e
00000170: 82f8 153e 358c 323e 50c0 753e 34bc cdbc
00000180: 8329 723e a43b ddbd 57cf 4fbd 8821 ffbc
00000190: 06f1 563e 975d dcbd bc97 b63d c75e c93d
000001a0: e460 e7bd a62f 9a3d 52a7 54be f998 953e
000001b0: 4f32 6abd e49b e2bd 25cd 97bd 2784 8c3c
000001c0: d0f9 ae3d ae58 91bd 6996 09be e5ee 7c3e
000001d0: b3b3 813d b404 653e 7972 273c 482f 13be
000001e0: 00e8 e4b9 c012 683e d7d2 a43e 5ec7 69be
000001f0: 018d 2ebe 12f3 c1bd 174d 3f3e 152f a03e
-0.13921435 0.030797433 -0.05765514 -0.030547127 0.13891627 -0.16423823 -0.15042901 -0.09256002
0.24169505 0.04227938 -0.2373434 0.09284655 -0.045113586 0.25080138 0.028759927 -0.16258053
0.02066467 -0.1898301 -0.023185432 0.113233685 -0.09760285 -0.2601756 0.22088704 -0.24275644
0.11417243 0.20350058 0.12295789 0.08587903 -0.06342188 0.21830618 0.0065349587 -0.106081486
0.15718685 -0.064347625 -0.023066636 -0.07753046 0.19000994 0.04274748 0.21290582 -0.22819093
-0.054529607 0.09162076 0.1669791 -0.009224066 0.029466106 -0.05506918 -0.04611051 0.10915814
-0.11781684 0.11007492 0.13839988 0.15864691 0.1392114 0.06408451 -0.122339584 -0.20128211
-0.12013328 -0.1405938 -0.1958352 0.033504535 0.17875785 0.27877164 0.2492573 -0.14986667
-0.23462854 -0.22483721 0.016824197 0.0471765 0.23720148 0.05791589 0.15711117 -0.14920485
0.19097224 -0.14779787 0.24602672 -0.019631058 0.13544892 -0.15732937 -0.055550884 -0.009291886
-0.05060181 -0.042614084 0.060320955 0.18032877 -0.18104672 0.017751317 -0.19119532 -0.08626776
0.06658697 -0.21028836 -0.10841686 0.27179152 0.1464558 0.17436297 0.23999143 -0.025114156
0.23648648 -0.10802391 -0.050734844 -0.031143919 0.2099038 -0.10760038 0.0891566 0.098325305
-0.11297777 0.075286195 -0.20766953 0.2921827 -0.057176884 -0.1106489 -0.07412175 0.017152859
0.08543742 -0.070969924 -0.13436283 0.24700506 0.06333103 0.22365075 0.0102201635 -0.14373505
-0.00043660402 0.22663403 0.32192108 -0.22829959 -0.17045976 -0.0947019 0.18681751 0.3128592

linear_relu_stack1.4.bias f4 [8]
00000000: 091d 7b3e b1c4 133e 2350 40be cf56 0ebe
00000010: 6a06 a4bc a14b b2bd b9f4 2a3e 7f83 783c
0.24522795 0.144305 -0.1878057 -0.13900302 -0.02002259 -0.08705831 0.16694917 0.01516807
