NQE/results/NQEClassifier/fashion/2exp/model.pt (torch, 4295 bytes, 6 tensors)

linear_relu_stack1.0.weight f4 [16, 8]
000000 a4 3e d9 bd 7f d2 a0 3e ae cd 7a bd a8 97 9c bc
       -0.10607651 0.31410596 -0.061231308 -0.019115284
000010 57 33 c9 bd 1b 0d e9 3d 2d ae 57 3c 54 ec 0e 3e
       -0.098242454 0.11379453 0.013164085 0.1395734
000020 0d 3b 87 3e 94 d8 9b be 14 01 6c be b7 50 97 3d
       0.2641224 -0.30438673 -0.23047286 0.07388442
000030 dc d4 34 3e 77 6f 9e be c6 14 bd be a0 e3 9f 3e
       0.17659324 -0.30944416 -0.3692991 0.31228352
000040 c3 cc 6e bd de 3c c0 bd 2b 54 b8 bd eb 26 24 3d
       -0.058300745 -0.093866095 -0.09000429 0.040076178
000050 33 35 39 bb 53 23 6e 3e a5 61 e3 3c bb df c0 3e
       -0.002826047 0.23255663 0.027756521 0.37670693
000060 75 d1 e7 ba 90 7f d9 3e 74 ee 81 3e 39 37 54 be
       -0.0017686324 0.42480135 0.25377238 -0.20724191
000070 d0 dd 4e bc ed 99 fc 3d f8 17 ed bc 42 6d c2 bd
       -0.012626126 0.123340465 -0.028942093 -0.094934955
000080 62 a3 e2 3d 02 99 09 3d 56 f9 c1 3d 25 4b 47 3e
       0.11066319 0.033593185 0.09471385 0.19462259
000090 dc d9 8d 3e 49 a7 ae 3e a1 b9 ba 3e 46 ec 8a be
       0.27705276 0.34112003 0.3646975 -0.27133387
0000a0 a1 45 90 be ee 6c ad 3c e8 a3 32 3d 8c b5 7b 3e
       -0.28178123 0.021170106 0.043613344 0.24580973
0000b0 4b 50 47 3e 95 a3 1e be 89 7c 7f 3e fb aa df bd
       0.19464223 -0.15492089 0.2494985 -0.10921284
0000c0 3f ec d0 3e 0d 14 0e 3e e6 17 5e be 29 ad 0c 3e
       0.4080524 0.13874836 -0.21688804 0.1373793
0000d0 8e e6 49 3e 1b 20 d6 bc 5d fd e1 bd 37 c9 04 be
       0.19716856 -0.026138356 -0.11034653 -0.12967382
0000e0 e2 b5 63 3b 27 31 95 3d 85 04 77 3c e3 f9 6c bd
       0.0034745862 0.07284766 0.015076761 -0.057855498
0000f0 86 e0 a3 3c d5 8f a1 3d 85 7e 28 be 5c fd 3f bc
       0.020004522 0.07888762 -0.16454513 -0.01171812
000100 d9 37 bd 3e 9e 65 f7 bd 5f 1e 2d be 14 85 91 be
       0.3695667 -0.12079929 -0.16906117 -0.28421843
000110 52 ea dd bd 55 4d 1f 3e 24 3b 48 be d2 2e a4 be
       -0.10835709 0.15556844 -0.1955381 -0.3206697
000120 b9 e8 1b 3d b3 98 9b 3e b6 17 4d 3d ca a8 49 3e
       0.03806374 0.30389938 0.05007144 0.19693294
000130 d5 d4 00 be 0a 20 97 3e b5 d2 0d be 1f dc af 3d
       -0.12581189 0.2951663 -0.1384991 0.08586907
000140 d0 22 82 be ab 0b 47 bc bb 56 bf 3d db 49 75 be
       -0.25417185 -0.012148778 0.093427144 -0.23953955
000150 4a 22 ea 3c ed 98 58 be ce 04 08 3e 62 d7 08 be
       0.028580803 -0.21152087 0.13283083 -0.13363412
000160 3f c4 42 3e 47 15 93 be a4 c4 25 3e 46 9e 90 3e
       0.19020174 -0.2872717 0.16188294 0.28245753
000170 3e 92 22 3e c6 a1 d8 3b f8 57 e8 3d b0 d1 1e 3e
       0.158761 0.006611082 0.11344904 0.15509677
000180 c4 f3 42 3e 46 3f 82 bd 58 dc ed 3c 5a 59 88 3e
       0.19038302 -0.06359725 0.029035732 0.2663067
000190 65 47 af 3e 38 2a 9c 3e 6b c4 6f 3e a5 cb 67 3e
       0.34234157 0.3050096 0.23414771 0.22636278
0001a0 55 e0 ef bd 2d b5 83 be f5 c7 29 be 81 54 de bc
       -0.1171271 -0.25724164 -0.16580184 -0.027139904
0001b0 07 d5 cb 3d 63 16 2a be bb d2 8c bd 3f c1 61 3e
       0.09952741 -0.16610102 -0.06876131 0.22046374
0001c0 a8 22 c3 3c 96 84 95 be 6d 14 a2 3e 36 ea 83 be
       0.023820236 -0.29202718 0.3165621 -0.25764626
0001d0 be 85 ab 3e c6 73 6d 3e 8c 41 7f be 66 7c 08 3e
       0.33500475 0.23188695 -0.24927348 0.13328704
0001e0 09 08 4d 3e 8b 66 31 be 8d 2d a9 3d 77 a0 9f be
       0.20022596 -0.17324273 0.08260641 -0.31177112
0001f0 f9 df 54 be 77 10 40 3e 0b 7d ce bd b3 de 69 3e
       -0.20788564 0.18756281 -0.10082444 0.2283886

linear_relu_stack1.0.bias f4 [16]
000000 bc aa 62 be 77 2c 42 be ea 6b 77 3d 1c 99 9b be
       -0.22135442 -0.18962274 0.06040565 -0.3039025
000010 ec 85 1f be a5 fb 85 be 96 ee 8f be ac 16 af be
       -0.15578431 -0.26168552 -0.28111714 -0.34196985
000020 74 6d a0 3e 67 c4 ba bc 43 6d 35 3e 48 90 02 be
       0.31333506 -0.02279873 0.17717461 -0.12750351
000030 e9 22 80 3e 15 ec 91 3e 18 58 d4 bd 09 76 80 bd
       0.25026634 0.2850043 -0.10368365 -0.062725134

linear_relu_stack1.2.weight f4 [16, 16]
000000 c5 b4 31 bd 97 e8 42 3e 13 3e 76 ba 9b 6b 43 3e
       -0.043385286 0.19034038 -0.0009393405 0.19084017
000010 aa d9 ae bc 52 99 2e 3e 91 49 0f 3e 6b 33 a3 bd
       -0.021344025 0.17050675 0.13992907 -0.079687916
000020 ab 47 f6 3d e7 4c 8a 3d a0 47 7c 3e 03 ca 56 be
       0.12025388 0.06752949 0.24636698 -0.20975499
000030 6c 99 76 3c ea a6 25 3e 92 3f df bd ee c5 80 bc
       0.015051227 0.16176954 -0.10900797 -0.01571938
000040 3d 3e 2d 3e 0f 93 90 bd 32 ad b7 bc 28 02 97 3d
       0.16918273 -0.07059299 -0.022421453 0.07373458
000050 b6 a2 b0 3d bb f4 58 be b8 5d 7b 3e 4c 10 35 3d
       0.08624785 -0.21187107 0.2454747 0.044204995
000060 2d 9f f1 3d 83 43 7e 3d ac df 2c 3e 0d 72 c9 bd
       0.117979385 0.062076103 0.16882199 -0.098362066
000070 63 11 f7 bd a8 e7 07 be f7 90 df bb ee 59 5b bd
       -0.12063863 -0.13271964 -0.006822701 -0.05355256
000080 56 34 46 be a4 4b 86 be a5 32 70 3e f7 51 a0 3c
       -0.19355902 -0.26229584 0.2345682 0.019570334
000090 7b 74 60 bd 9c f9 0c 3e 7d 07 5b 3e ad d1 57 be
       -0.054798584 0.13767093 0.21389575 -0.21076079
0000a0 23 04 59 3e 6c 72 5e bd 48 4a 3c bd 12 23 6c 3e
       0.21192984 -0.05430834 -0.045969278 0.23060253
0000b0 de 14 38 bc 1f d6 38 3e e8 14 60 3e f3 71 4b be
       -0.011235444 0.1805043 0.21882975 -0.19867687
0000c0 0b 00 17 3c 49 9c b2 bd 22 7f 2a be 61 a4 81 3e
       0.009216319 -0.08721215 -0.1665006 0.25320724
0000d0 3b 3d 0a be 7f 56 53 be ad 89 45 3e ec cc a9 3d
       -0.1349992 -0.20638464 0.192908 0.08291039
0000e0 6e 9d 51 3e 1d b1 35 3e 49 85 26 be a0 4f 27 be
       0.20470211 0.17743345 -0.16261782 -0.16338968
0000f0 56 5f ca 3d 9a a0 18 3d e3 fd 55 be 6b 76 32 ba
       0.09881465 0.037262537 -0.20897631 -0.0006807807
000100 f0 33 9d 3c f3 cf 19 be d0 35 cf bd 51 04 a3 3d
       0.019189805 -0.15020733 -0.10117686 0.07959808
000110 13 27 df bd 67 86 33 be 2a 6b 31 3c 70 d9 b7 3c
       -0.10896125 -0.17531739 0.010828773 0.02244255
000120 5a 38 33 be 29 99 f2 bd a0 6e c0 bc 72 b5 48 3e
       -0.17501965 -0.11845619 -0.02349025 0.19600466
000130 b9 2d 62 3d 86 16 67 3e f5 7c 26 3e 10 0b 3d 3e
       0.055219386 0.22567186 0.16258605 0.18461251
000140 ac 7b 06 be ff d6 35 be bc a5 ec bd ef 58 92 bd
       -0.13133115 -0.17757796 -0.11555049 -0.07145869
000150 4f 4e 7a bd 3a 0f 4e 3e e4 53 55 3e 78 10 14 bd
       -0.061109837 0.20122996 0.20832783 -0.03614852
000160 d5 2c 15 3e 4d 42 06 3e 0c fa ea 3d 85 df 6c 3e
       0.14567883 0.13111229 0.11473474 0.23132141
000170 14 6e 45 be 40 e8 35 3d 0b 8a 77 3d 6d a6 64 3e
       -0.19280273 0.044410944 0.060434382 0.22329111
000180 99 80 a4 bd de c9 67 be 4c 88 4c 3e d2 32 26 be
       -0.080323406 -0.226356 0.19973868 -0.16230324
000190 ce 65 33 bd 76 ec 55 3e 7c b7 33 be 09 a3 97 3d
       -0.04379826 0.20890984 -0.17550462 0.07404143
0001a0 1f d9 46 3d 61 96 7c bd 41 75 70 3b a1 4d 23 3d
       0.048546907 -0.06166685 0.0036690983 0.039868955
0001b0 b0 f6 56 3e be d8 6e 3e 98 69 08 be d6 ee d9 bd
       0.20992541 0.23324868 -0.13321531 -0.106412575
0001c0 d7 ec 30 3d 99 4e ce 3c 9f 54 39 bd 0c 4b 3e 3e
       0.043194618 0.025183963 -0.045246717 0.18583316
0001d0 a8 67 5b 3e a3 da 82 3e 3e 15 3f bb 50 0a 3b be
       0.2142626 0.25557432 -0.0029156948 -0.18265653
0001e0 57 99 3b be d8 e2 a1 3c ca 6c 1b bc 12 ac 08 be
       -0.18320213 0.019761488 -0.009486387 -0.1334689
0001f0 c3 e2 34 3e fc 4e 6e 3e 40 58 2f 3e 14 9e 77 3e
       0.17664628 0.23272318 0.17123508 0.24181396
000200 07 0c b0 bd 31 b7 cd bc 2f 3b 07 3d 54 cb 2a bd
       -0.08596044 -0.025111767 0.033015426 -0.041697815
000210 04 15 cb 3d 02 04 4e 3d e1 e9 1a 3e 9a 4d 5e be
       0.09916118 0.05029679 0.1512828 -0.2170929
000220 c0 30 0d be bc 4c 1f 3d a6 b9 0a be 97 71 20 3d
       -0.13788128 0.03889154 -0.13547382 0.039170828
000230 6b af 16 be 8d bd bd 3d 42 39 f2 bd dd cb 32 be
       -0.14715354 0.092646696 -0.11827327 -0.1746058
000240 63 61 17 3e 8a 05 7a bd 63 82 8a bd f0 80 54 be
       0.14783244 -0.06104044 -0.067631505 -0.20752311
000250 71 e6 67 3e fe 39 c2 bd 5c 88 32 3d 90 41 d5 3c
       0.226465 -0.094837174 0.043587074 0.02603224
000260 e9 df 44 be bb be 46 be e1 7a 9c bd 9b f8 c5 bd
       -0.1922604 -0.19408695 -0.07640625 -0.09666558
000270 da 5a 33 3e bd e9 39 3e 38 91 fd 3d 56 d5 bc bd
       0.17515126 0.1815557 0.12381214 -0.09220378
000280 97 0b d7 3d f0 a8 25 be d2 69 b7 3d 82 43 f9 bc
       0.105002575 -0.16177726 0.089557305 -0.030427698
000290 ff 14 a1 bc 5d 35 36 be 0a b3 ba 3c 00 28 9b bd
       -0.019663332 -0.17793794 0.02279045 -0.07575989
0002a0 5d 4a c2 3d ac 74 c3 3c 9d d6 26 bd 6a aa 75 be
       0.0948684 0.023859344 -0.040732015 -0.23990789
0002b0 f3 22 0b 3d 95 38 58 3c 3a 26 a1 3d a5 20 f9 bd
       0.033968877 0.013197084 0.07868619 -0.121644296
0002c0 4c 04 2c bd f5 34 47 3e 3b bb 25 3e e4 ab 94 3d
       -0.041996285 0.19453795 0.16184704 0.07259348
0002d0 a1 6b 63 3e 64 d0 ef bd 20 1f da 3d 4d 6f 41 bc
       0.22209026 -0.11709669 0.10650468 -0.011806321
0002e0 c6 d6 a1 bd ac 6a 2b be 2b e7 4b 3e 72 72 3e be
       -0.07902293 -0.16739911 0.19912402 -0.18598345
0002f0 fd 73 90 3e 20 4f 47 bc 3a 1b 85 3d 31 16 42 3e
       0.28213492 -0.012164861 0.06499334 0.18953778
000300 89 d3 65 be 5a 7a 28 3e c4 c4 5c 3e 7b c1 16 3e
       -0.22443976 0.16452923 0.21559435 0.14722244
000310 1e e6 50 3e 0b 63 19 3c 1f 2f cb 3d 15 20 ae 3d
       0.20400283 0.009361993 0.09921097 0.08502213
000320 58 84 2c 3e 33 ad e4 3d 9e 8d 7b be 40 45 55 3d
       0.1684736 0.11165848 -0.24565741 0.052067995
000330 68 e4 7e 3e cb 55 38 bd 69 8b 21 3e 61 97 20 3e
       0.24891818 -0.045003694 0.15775837 0.15682746
000340 20 ca 91 bc aa d4 73 3e 44 12 17 3e b6 ec 75 be
       -0.017796576 0.23811594 0.14753062 -0.2401608
000350 60 12 03 3e e8 82 02 3d 80 c9 46 bd 3a 89 3b be
       0.12799978 0.031863123 -0.04853201 -0.18314067
000360 00 0f 31 3d 50 dc d3 3c 08 f4 68 bd 90 9f c4 3c
       0.043227196 0.02586189 -0.05687335 0.024001867
000370 12 fb 33 be 14 12 f7 3d 0c 11 bf bd 6c 72 c5 3d
       -0.17576244 0.12063995 -0.09329423 0.09640965
000380 f6 46 11 3e a8 62 46 3e ff 3c 04 3e 98 f2 ef 3c
       0.14187226 0.19373572 0.12913893 0.029290482
000390 56 ed 34 be 0d 3f c1 3d d0 dc 15 be 0b 81 3f 3e
       -0.17668661 0.09435854 -0.14635015 0.1870157
0003a0 80 b6 21 3e e0 3e 24 be 4a c3 51 be b4 40 48 3e
       0.15792274 -0.1603961 -0.20484653 0.19555932
0003b0 bb d7 85 3e 98 c5 2d 3e a4 45 6d 3e 7d 25 17 be
       0.26141152 0.16969907 0.23171097 -0.14760394
0003c0 10 d9 52 3d 68 92 84 3e 9b 94 8e bd 0e 32 98 3e
       0.05147654 0.2589295 -0.06961938 0.2972569
0003d0 34 f5 cc bd 8e 0e 19 3e 6b b1 88 3e e4 34 4b 3e
       -0.10007706 0.14946958 0.2669786 0.19844395
0003e0 d4 5d 9b 3e fc d1 55 be 93 aa a4 3d 3b b1 36 bb
       0.30345023 -0.20880884 0.08040347 -0.0027876634
0003f0 bb 14 e6 bb ea 8f 13 be 61 a0 6c be 2a 5d c2 bb
       -0.0070215142 -0.14410368 -0.23108055 -0.005931516

linear_relu_stack1.2.bias f4 [16]
000000 69 9f 92 3e 22 62 2b 3e c3 cd 89 3d f4 f6 43 3d
       0.28637245 0.16736653 0.06728699 0.047842935
000010 c7 f0 2d be a3 ba 1b be 57 1e 16 3e 22 71 87 bc
       -0.1698638 -0.15207915 0.14660011 -0.016533438
000020 0a 44 64 3d 42 48 80 bc 8a a4 81 3e 0b d2 23 3e
       0.05572895 -0.015659455 0.25320846 0.15998094
000030 f8 4c 4e 3e 3e d1 26 be e8 7a 42 3e 5d 32 8f 3e
       0.20146549 -0.16290757 0.18992198 0.27968112

linear_relu_stack1.4.weight f4 [8, 16]
000000 76 70 6f 3c e2 39 87 bd f7 c2 17 3e af e4 5f be
       0.014614215 -0.06602837 0.14820467 -0.2186458
000010 cb cf 28 be 5e bc 9e 3d b4 ae 7a 3d 38 f5 c2 bb
       -0.16485517 0.07750772 0.061201766 -0.0059496425
000020 fa 13 17 be ba 3e 8a bd f6 05 5f 3c 39 c7 cb 3d
       -0.14753714 -0.067502454 0.013612261 0.09950108
000030 15 7f 2e 3d f4 98 49 3e 59 9f f8 3d 14 00 cc bd
       0.042601664 0.19687253 0.12139768 -0.099609524
000040 22 5f 04 3c f3 89 35 be a5 2c 77 bc 1a 8a 21 3e
       0.008079322 -0.17728405 -0.015086328 0.15775338
000050 70 80 40 be 69 c0 09 3d 28 8a 85 be 4a 47 14 3d
       -0.18798995 0.033630762 -0.26081967 0.0362008
000060 b8 77 c1 bd 8f 04 83 be a4 c3 c0 bb 24 83 05 be
       -0.09446663 -0.25589415 -0.005882697 -0.13038307
000070 66 4d 56 3e 8c 88 c6 3d 44 85 40 be f9 e7 45 3e
       0.20927963 0.09694013 -0.18800837 0.19326772
000080 dd f9 3b be 26 ca 24 be bf 4c f1 3c 73 ae 9f be
       -0.18357034 -0.16092739 0.02945554 -0.31187782
000090 e7 65 01 3e 24 bf 6b 3a be a4 45 3e aa 49 11 3e
       0.12636529 0.0008993021 0.19301125 0.14188257
0000a0 95 4a 4b 3e e6 14 45 3c a9 e2 53 be a0 3b 6b 3e
       0.1985267 0.012028908 -0.20691933 0.22971964
0000b0 c0 95 16 3e dc 8d 0d be 3b f8 5f 3e a8 b3 96 be
       0.14705563 -0.13823646 0.21872036 -0.29433942
0000c0 11 13 ea 3d fb 5d 02 be 48 e8 09 3b a9 21 70 be
       0.11429418 -0.12731163 0.0021042991 -0.2345034
0000d0 88 05 ba bc 85 84 bf 3d a1 a0 61 3e 82 20 36 3d
       -0.022707716 0.09351448 0.22033931 0.044464596
0000e0 b0 82 05 be d0 61 2c 3e 2b 1c 8b bb fd db 21 be
       -0.13038135 0.16834188 -0.0042453012 -0.15806575
0000f0 63 56 1d be fe 6d 2e 3e 52 af 4d 3d 47 c2 4c bd
       -0.15364985 0.17034146 0.050216027 -0.049989965
000100 27 a5 4b 3e d4 74 53 3d a0 8f d9 bd 12 95 2b 3e
       0.1988722 0.051625088 -0.106230974 0.16756085
000110 52 55 15 be 4c fe 4e 3c a0 1b 0c be bc 91 44 be
       -0.14583328 0.012633871 -0.13682413 -0.19196218
000120 8a cb 71 be 88 23 3f 3e 2b 67 73 3e 83 53 4d 3d
       -0.236128 0.18665898 0.23769824 0.05012847
000130 0b a7 d2 bd b0 08 cc 3d ab d9 12 3e 9b d4 21 3e
       -0.10285767 0.099625945 0.14340846 0.15803759
000140 26 96 53 3e 58 47 55 3e 4c c0 0b 3e b7 2b 15 3e
       0.20662746 0.20827997 0.13647574 0.14567457
000150 db 9a 6a be 66 96 73 3e 88 a7 45 be 6d 12 06 3d
       -0.22910635 0.23787841 -0.1930219 0.032732416
000160 42 1d 82 3d 49 ff 38 be 61 37 4e be e5 82 08 be
       0.06353237 -0.18066134 -0.20138313 -0.13331182
000170 2d 70 9e 3d 7a cf 36 be 78 8a b7 bd 0b aa b6 bd
       0.077362396 -0.17852584 -0.08961958 -0.08919152
000180 c3 d1 62 3e 22 48 87 3e 19 32 02 be 8e 39 c1 bd
       0.2215033 0.2642222 -0.12714423 -0.09434806
000190 39 39 47 3e 3a 42 3c 3d 02 7c 4f be 4e f5 11 bd
       0.19455422 0.045961596 -0.20262149 -0.03563433
0001a0 15 65 bc bd a0 75 46 be f4 f9 a8 3d 0b 99 31 3e
       -0.09198967 -0.19380808 0.082508 0.17343538
0001b0 e1 fa 12 bd ec 0b d4 3d 31 6a 29 be 8a fc 12 3e
       -0.035883788 0.103538364 -0.16544415 0.14354149
0001c0 ce 88 50 bd 8e 9c 4a 3d 97 e6 4d be 17 87 c2 3d
       -0.050911717 0.04946571 -0.20107494 0.094984226
0001d0 4e 3b 34 bd 3e c2 80 3e 63 c6 2a bd 83 27 f9 3c
       -0.04400187 0.25148195 -0.041693103 0.030414348
0001e0 36 84 dc 3d 9e 9a 0a 3e 48 19 04 be 16 cb 28 3e
       0.10767405 0.13535544 -0.12900269 0.16483721
0001f0 74 b3 23 be 28 69 7f 3d 7d aa f2 bd 3a 75 5b 3e
       -0.15986425 0.062356144 -0.11848924 0.21431437

linear_relu_stack1.4.bias f4 [8]
000000 2e 40 1e bc 28 6a 61 3e d8 fd 60 be 99 2b 36 3e
       -0.009658856 0.22013152 -0.21971834 0.17790069
000010 4a 7a 9d 3d ad 74 59 3d 1c cb 2a 3e df 3c 72 3e
       0.076893404 0.053089786 0.16679043 0.23656033
