NQE/results/NQEClassifier/fashion/3exp/model.pt (torch, 4295 bytes, 6 tensors)

linear_relu_stack1.0.weight f4 [16, 8]
00000000: c452 793e 072f b4be b42d a7be a808 593d
00000010: 2adf 87be 50d8 83be 0088 3c3e 2fe6 abbe
00000020: a043 453d 087b 32be ae9f 09be 6b59 a0bd
00000030: 2f94 d4bd 3677 7e3e 05c7 503e c248 85be
00000040: 60cd 3b3e b8cc 53be 88fd be3d da8f babd
00000050: 8a09 c6be d41d 5c3d 4bb7 9b3d 0610 923e
00000060: 7185 bb3e 45de 913e 4dbc 6d3d 2fa0 a2be
00000070: 51e3 543b 13c6 dc3c b2ab b6be dd53 81bd
00000080: 2069 91bd fac1 82be 1717 e43d 9396 a43e
00000090: a098 923e 230b 84be 717b 07be 3d5e 3e3a
000000a0: e213 29be 7c1e 67bd 0136 893e 048d 0c3e
000000b0: 8901 893e bd4d 96be d564 b9bd be1f acbe
000000c0: 4b58 68be b4ee d7bd 4c11 9c3e c1aa 0f3e
000000d0: bcfe 87bd 0579 a0be 7b32 c33e e93e 733d
000000e0: 1f73 513e edcd 193e 753c 8d3e a2d6 3d3e
000000f0: b665 973d a090 3bbd 85b4 b9be a2e5 6fbe
00000100: edf3 39be ac8f 253e 3b87 a03e 26bf a3be
00000110: b598 a2be 9211 0dbe 0170 4ebe 2aac 193e
00000120: d010 14be 6bdf 51be 87fc b9bd c580 373d
00000130: 4227 d83c aa3f 4e3b 2fa2 cc3c fc96 51be
00000140: bba3 123e 770a 7f3e 45b9 93be c281 c4bd
00000150: f113 02be f381 07be 19f6 4c3c 4364 903d
00000160: 5432 0d3e 3b35 8d3e 2877 febd 4da8 aa3e
00000170: 1d7b bfbd 4390 5fbe 20ab 933c fac6 61be
00000180: f3c9 fc3d 4609 a9bd 6e32 da3e e7ad d5bd
00000190: fc33 4e3e 2592 8bbe 3934 143e ca3b 363e
000001a0: ac83 d3bd 9531 90bd a55f 81bd ac70 333e
000001b0: 17da acbe 972d d6bd fa91 0abe cfe7 a63c
000001c0: ea2c 313c e55b d1be c757 2abc 6e38 783e
000001d0: 83c3 723e 6eaf 9f3e f141 853c 1203 ac3c
000001e0: d1d5 f5bd 0d33 b6bd 8df2 e63e 0d4c 773e
000001f0: 697a 49be 6bcc a83e c109 c6bd 95d5 223d
0.24347979 -0.3519213 -0.32652056 0.05298677 -0.26537448 -0.2575097 0.18411255 -0.33574054
0.048160195 -0.17429745 -0.13439819 -0.07829555 -0.10379826 0.24850163 0.2038842 -0.26032072
0.18340063 -0.20683563 0.09325701 -0.09109469 -0.38679153 0.053739384 0.0760332 0.2852785
0.36625245 0.2848989 0.058040906 -0.31762835 0.0032484124 0.026949918 -0.35677868 -0.06314824
-0.07100129 -0.25538617 0.111372165 0.3214613 0.2863207 -0.25789747 -0.13230683 0.00072619674
-0.16511491 -0.056425557 0.26799014 0.13725668 0.26758984 -0.29356185 -0.09052435 -0.33617967
-0.22689931 -0.10543576 0.30481946 0.14029981 -0.066403836 -0.3134233 0.3812445 0.059386168
0.20454071 0.1501996 0.27585188 0.18538907 0.07392447 -0.045792222 -0.36270538 -0.23427442
-0.18159457 0.16168088 0.31353173 -0.31981772 -0.3175713 -0.13776234 -0.20159914 0.15007082
-0.14459538 -0.20495383 -0.09081369 0.04480054 0.026385907 0.0031471052 0.024979679 -0.20467752
0.1432027 0.24906336 -0.28852287 -0.09595062 -0.1270292 -0.13233165 0.012509846 0.070503734
0.1378873 0.27579674 -0.12425071 0.33331528 -0.09349654 -0.21832375 0.018025935 -0.2204856
0.12343206 -0.08253722 0.426166 -0.1043356 0.20137018 -0.27259937 0.14473046 0.17796245
-0.10327849 -0.07040707 -0.06317071 0.1752345 -0.3376014 -0.10457914 -0.13532248 0.020374207
0.010813931 -0.40890422 -0.010396904 0.24240276 0.23707394 0.3118853 0.016266795 0.020997558
-0.12003673 -0.08896456 0.45106927 0.24150105 -0.19675602 0.3296846 -0.09669829 0.03975447

linear_relu_stack1.0.bias f4 [16]
00000000: 0dc4 90be 1a47 893d da59 b03d 0075 4abe
00000010: 50b1 a73e 2263 f7bd f25d 08bd 4507 74be
00000020: a4c6 fabd b4cb 523e 308d c9bd 44f2 65bb
00000030: acf4 1cbe 7cc4 9fbe c0d1 563e cb85 823e
-0.28274575 0.06703015 0.08610888 -0.19771194 0.32752466 -0.12079455 -0.03329272 -0.23830898
-0.12244919 0.20585519 -0.098413825 -0.0035087029 -0.1532771 -0.31204593 0.20978451 0.254927

linear_relu_stack1.2.weight f4 [16, 16]
00000000: 9835 163e 80f2 b33b c0db 62be e172 ce3d
00000010: fd3c 4d3d 74e8 083e 0069 063e 8f94 ab3d
00000020: 4377 a33d 4084 ed3d f1ca ca3d 8635 27be
00000030: eebc ccbd f4b8 673e 1072 aaba 02bc 21bd
00000040: 444c 51bd e3d0 72be f3e5 c43d 182a f83d
00000050: 2e45 0bbe 508b 33be 6b6a 6a3d d2ee 2b3e
00000060: d619 a33c f8e0 4bbe 4cf9 623d 3b89 8b3e
00000070: 04d6 3cbe 74d9 533e 6489 56bc 8d42 3cbd
00000080: 4c06 30be 10d4 d33c 802b 0f3b 42f8 36be
00000090: 4eec 3dbe 3ce8 9c3d 37c5 883b 264c 03be
000000a0: d40f 35be 4ac3 3cbe 02a1 e93d 7d95 933d
000000b0: e329 013e 2829 6abe 5aa3 67be b599 03be
000000c0: 679b 0bbe 2a52 57be 4cff 7b3d 1df8 133b
000000d0: ccf6 da3c 967b ae3c a83d 2ebe ea61 4a3e
000000e0: d87c 723c 54f4 833d 52d7 42bd 0b3d 1fbc
000000f0: 5fd6 5f3d e468 fc3d 9450 043e ba37 88be
00000100: e1f3 ba3d 934a 6abe dcae 8f3d 20e5 cebd
00000110: 9c05 383e 2d4f 3d3e f741 423e 2de3 e53c
00000120: a841 ee3b b018 343e c7df 00be a35d 103c
00000130: b7e4 7f3e 6a37 4d3e b98e 443d a224 813e
00000140: 3513 263d 0127 02be 52b2 b63d 745d 01be
00000150: 6956 823e 1b15 c7bd a921 4d3e 4125 a33d
00000160: d29f 463e d877 66be 74b2 bf3d 50d8 f13d
00000170: 64cb 5f3e 746b a83d aef6 a93d e581 f7bd
00000180: 06ee 05bc dfb6 903b 07fe 253e c5df 56be
00000190: 7a17 483d 2cdc cbbb 35c4 363e 72f0 e3bc
000001a0: ecbc 283e 08fd 123e 0d88 5c3c 7546 74be
000001b0: 3474 2a3e 402c dabb 0dc7 ac3d 135d 4abd
000001c0: 2e2e 233e b9e9 fd3d 88f5 45be d76c 7b3e
000001d0: bf95 eebd 6a3f 0c3e 83aa c5bd 38d4 863d
000001e0: 9679 5fbe f871 70bd fbec 293e cba5 443e
000001f0: 2109 f0bd b400 ec3d 20b4 013d 0c06 5fbe
00000200: 3e2c 11be 10c6 753d d0c8 d1bd 1564 f3bc
00000210: acaa 69be ca03 0fbe 43f8 413d 95c7 8bbc
00000220: bd0f 2abe fa99 5abe c44e 793e c785 4d3e
00000230: d974 19be 280b 7abd 008c 41ba c560 33be
00000240: af99 2abe f8dd 3abe 3d5e 8e3d 2209 5fbe
00000250: 2c6f 38be 0a4f cf3d 0340 1bbe 45eb 0c3e
00000260: f862 38be b05a e53d 6c86 ee3c b565 483d
00000270: 9b3c 8e3d 9402 473e e31d 563e 731a 5c3e
00000280: 0a73 0e3e 5e41 5bbe 6492 ba3d 4d4e 72be
00000290: 234a 58bc 7472 653e 2144 323e b908 d73d
000002a0: 2dba cdbd d072 263d 50bc 5c3e 4e20 a7bd
000002b0: 7bec 193e c87e a2bd 9508 7c3e 1117 343c
000002c0: 786a 333d 5b23 463e ac51 613d 1192 003e
000002d0: 47da 38be e221 77be b4ee ec3d 1158 023e
000002e0: 288f 06bd b8a3 a23d b481 683e 5a23 a93d
000002f0: 8a86 47bd 1880 843d 687e 463e 4560 0cbe
00000300: ded0 543d 0d6d 47bc 2dba a33d 02ad d3bd
00000310: a141 30be 435a 0a3d cc32 babd 4112 34be
00000320: 955e 7f3d 322d 393e a5fe f8bd d87f 9dbe
00000330: 34bb 393e 7601 4c3e 4049 8d3e 777c 943e
00000340: a363 963d 13f2 2f3e afc5 353e 7e0e e43d
00000350: 1ec4 353c 4f68 11be a1f3 583e 5441 fdbc
00000360: 6fdc 02be 6860 08be e4cb 43bd b325 84be
00000370: 9fb9 183e 602c 263e 1522 6dbe d52d 443e
00000380: ba37 733e 0952 0e3e a26b 72be 0e89 5fbe
00000390: 9d74 58bd b4e0 8d3d 6ffc 263e 7154 61bd
000003a0: 18e0 99bd 383b 3abd f32a ef3d 564d 2b3d
000003b0: 6b13 21be 621e 693e 8643 f53d 1d01 45be
000003c0: 6b02 e73c ba2b 81be 870f 4b3e 05df 34be
000003d0: 903b 333e cf39 50be 669d 493d 9193 20be
000003e0: a013 073e 44bd 63be 86e7 1c3c 0364 3c3e
000003f0: 6e83 0e3e 306c bebc 7a20 053e 32ee f03d
0.14668882 0.0054915547 -0.2215414 0.10080505 0.05010699 0.13369924 0.13125992 0.08377945
0.07981732 0.1159749 0.09901989 -0.16329011 -0.09996973 0.22629148 -0.0013003964 -0.03948594
-0.051098123 -0.23712496 0.09614172 0.12117404 -0.13600609 -0.17533612 0.057230394 0.16790321
0.01990978 -0.19910038 0.05541353 0.27253136 -0.18441015 0.2068842 -0.01309428 -0.045961905
-0.17189902 0.025857955 0.0021845996 -0.1786814 -0.18547174 0.07661483 0.0041739005 -0.12822017
-0.17681819 -0.18433872 0.11407663 0.07206247 0.12613635 -0.22867262 -0.22620907 -0.12851603
-0.136335 -0.21027437 0.061522767 0.0022578307 0.02672901 0.021299165 -0.17015707 0.19763914
0.014800273 0.06443086 -0.047568627 -0.009719144 0.0546478 0.12324694 0.12921363 -0.26605016
0.091285475 -0.2288001 0.07015774 -0.10102296 0.1797089 0.18487234 0.18970476 0.028062427
0.0072710104 0.17587543 -0.12585364 0.008811387 0.24989592 0.2004067 0.047987673 0.2522326
0.04054566 -0.12710191 0.08920731 -0.12633306 0.2545655 -0.097208224 0.20032372 0.0796609
0.19396904 -0.22506654 0.09360209 0.118088365 0.21854931 0.0822362 0.082990035 -0.12085322
-0.008174425 0.004416331 0.16210185 -0.20983799 0.048850514 -0.006221315 0.17848285 -0.027824614
0.16478318 0.14354336 0.013460171 -0.23855002 0.1664589 -0.006658107 0.084364034 -0.04940517
0.15935585 0.12398095 -0.19331944 0.24553238 -0.116496556 0.13696066 -0.09651663 0.06583446
-0.21823725 -0.05870244 0.16594307 0.1920387 -0.11720491 0.115235716 0.03166592 -0.2177965
-0.14177033 0.06000334 -0.1024338 -0.029710809 -0.22819012 -0.13966289 0.0473559 -0.017062942
-0.16607566 -0.213478 0.24346453 0.20070563 -0.1498598 -0.061045796 -0.00073832273 -0.17517383
-0.16660188 -0.18248737 0.06951568 -0.21780828 -0.18011159 0.101224974 -0.15161137 0.13761623
-0.18006504 0.11198938 0.029116832 0.04892512 0.06945153 0.19434577 0.20909838 0.21494465
0.13911071 -0.21411654 0.09109953 -0.23662682 -0.013201269 0.22406942 0.17408802 0.104997106
-0.10045276 0.040636837 0.2155621 -0.081604585 0.15031616 -0.07934338 0.24612649 0.010991828
0.04380271 0.19349425 0.05500953 0.1255572 -0.18052016 -0.24134019 0.115689665 0.12728907
-0.03285137 0.07941383 0.22705728 0.08258696 -0.04871229 0.064697444 0.19384158 -0.13708599
0.051957004 -0.012171996 0.079944946 -0.10335733 -0.17212535 0.033777487 -0.0909172 -0.17585088
0.06234606 0.18083647 -0.121579446 -0.307616 0.18137819 0.19922432 0.27594948 0.2900121
0.07343223 0.17182188 0.17751192 0.11135577 0.011094121 -0.14199947 0.21186687 -0.03091494
-0.12779401 -0.13318026 -0.047801867 -0.25810012 0.14914559 0.16227865 -0.23157533 0.19158109
0.23751727 0.13898481 -0.23673871 -0.21829626 -0.052845586 0.06927624 0.16307233 -0.05501217
-0.075134456 -0.04546663 0.11678114 0.0418218 -0.15730064 0.22765496 0.1197577 -0.19238706
0.028199395 -0.25228673 0.19830142 -0.176632 0.1750319 -0.20334552 0.049222372 -0.15681292
0.1319108 -0.22240168 0.009576684 0.18397526 0.13917324 -0.023244947 0.1300067 0.11764182

linear_relu_stack1.2.bias f4 [16]
00000000: e993 b2bd 87f1 7e3e 7aac 11bd 7f93 083c
00000010: ff03 093e d15b 00be b80f 5c3d 7a80 4ebd
00000020: 4f7d 5dbe febd 04be 28b4 6a3e 4a42 6bbd
00000030: e4b5 883d f3d6 c93d 381c c4bc 60cc b03d
-0.08719618 0.24896823 -0.035564877 0.008335947 0.1338043 -0.12535025 0.053725928 -0.050415494
-0.21629833 -0.12963101 0.22920287 -0.057436265 0.06675318 0.098554514 -0.023939237 0.086327314

linear_relu_stack1.4.weight f4 [8, 16]
00000000: a381 413d 1b7b 9abd 7a35 13be a8fd 3bbe
00000010: b146 013d a10b a7bd 126b 54bd 510e df3d
00000020: 6cbb 5cbe 6093 12be 9262 c53b 91b9 0cbc
00000030: 084c a23d 1e39 933c 7452 453e f350 773d
00000040: 425d ea3d 77e6 5f3e b36f b33d 8bb1 063d
00000050: 032b 9ebc 758a 4c3c 825f 2dbe 7a1b 483e
00000060: da85 303e 52c3 5fbe d7e2 1a3e a736 0fbd
00000070: e6c1 033e a690 bf3d af37 7fbe 1fbe 993d
00000080: 3b76 d03b 4ec6 9d3d 2a09 5fbe feda 7b3e
00000090: ac4e 29be 31a9 6f3e 3d21 5b3e d4ab 3fbe
000000a0: 184c 563d 5ecd c03d 7e73 7abd ae7c 6ebd
000000b0: 6ea6 7c3d 777b 133e 1454 963d d6a7 323d
000000c0: 3714 c4bc f274 11bd 23ce 3fbe 3e38 6bbe
000000d0: 56d8 f53d 6af1 6c3e db25 7b3e ef46 ae3d
000000e0: f036 773d 6859 463e cbf4 8c3e 5259 dbbd
000000f0: 5b8c b53e e14e 603e 99f9 8cbd e27a 023d
00000100: 27ef c03d c2d5 76be 67ee 14be 1e66 9fbc
00000110: 1376 f83d 6f1f 4cbe c4ab 7fbd 562b 97bd
00000120: 2941 93bd 89d6 bdbd b4b0 493e 54be 64bd
00000130: 678b 803e 4867 5ebe 8aa1 08be 6c86 533e
00000140: 8352 27be ac9b bf3c 1a16 e33d ae13 073e
00000150: 21d1 debc 0af7 6cbd 2923 c2bd 4626 58be
00000160: fba2 05bd 08aa ab3d f262 59b8 4dfa 2bbe
00000170: e8a1 3abe 7471 5ebe 9107 ef3d e8cf fdbd
00000180: addf cdbd 728b 94be dff9 54be f8f7 4abe
00000190: ee19 933e 2ee1 e1bb bf23 bb3d 4c47 5c3e
000001a0: ed38 1d3e 1e2f 7c3e a323 c63d 633a dfbc
000001b0: eee0 193e 70ec bebc c80d 6fbe c242 563e
000001c0: 75c7 0b3e 8f95 813e 234c e9bd 701b ba3b
000001d0: 2739 453e ce05 f2bc c497 e8bd 4466 65be
000001e0: 09ce 013e e7aa f7bb 9d04 10be d123 06be
000001f0: db5e 70be 7d6d 393e 87c0 7b3c 0eaf 3ebc
0.04724277 -0.07543012 -0.14375868 -0.18358481 0.031561557 -0.08156515 -0.051859923 0.108914025
-0.21555871 -0.14314032 0.0060237134 -0.008589164 0.07924658 0.017971572 0.19269735 0.060379934
0.11443569 0.21865259 0.08761539 0.032884162 -0.019307619 0.012484183 -0.16930965 0.19541731
0.1723856 -0.21851853 0.15125595 -0.03496423 0.12866935 0.093537614 -0.24923585 0.07506966
0.0063617504 0.07703839 -0.2178084 0.24595258 -0.16533917 0.23404385 0.21399398 -0.18717891
0.052318662 0.09414171 -0.0611453 -0.058224373 0.061682157 0.14402567 0.073402554 0.043617092
-0.02393542 -0.03551192 -0.18730979 -0.22970673 0.120041534 0.23138967 0.2452616 0.08509623
0.060355127 0.19370043 0.27530512 -0.10710396 0.35458645 0.2190509 -0.068835445 0.03185547
0.09420615 -0.2410498 -0.14544068 -0.019457873 0.12131896 -0.19933866 -0.062419668 -0.073813125
-0.07190163 -0.09269435 0.19696313 -0.055845574 0.25106356 -0.21719086 -0.13342872 0.20656747
-0.1634007 0.02338966 0.110882 0.13191101 -0.02719933 -0.057852782 -0.094793625 -0.2110835
-0.032626133 0.0838204 -5.182898e-05 -0.16794701 -0.18225825 -0.21722966 0.11671365 -0.123931706
-0.100524284 -0.29012638 -0.20798443 -0.19821155 0.2873072 -0.0068932986 0.091376774 0.21511573
0.15353747 0.24627349 0.09674766 -0.02724952 0.1502721 -0.023306102 -0.23345101 0.20923904
0.13650306 0.25309417 -0.11391475 0.0056795403 0.19260083 -0.029543784 -0.11357072 -0.22402292
0.12676252 -0.007558215 -0.1406426 -0.130996 -0.23473684 0.18108173 0.015365726 -0.011638416

linear_relu_stack1.4.bias f4 [8]
00000000: 7f0d 633e 0db4 a8bc 6a10 cf3d 15b4 11be
00000010: 3287 dcbc 458b ea3d 17c0 1dbe 0b8d 783e
0.22173117 -0.020593667 0.101105526 -0.14228852 -0.026919935 0.11452345 -0.15405308 0.24272554
