NQE/results/NQEClassifier/mnist/4exp/model.pt (torch, 4295 bytes, 6 tensors)

linear_relu_stack1.0.weight f4 [16, 8]
0	0xbe6848f8	-0.22684085
1	0xbd63818e	-0.055543475
2	0x3e98ea51	0.2986627
3	0x3d7539eb	0.059869688
4	0xbd8d927f	-0.069127075
5	0xbe8ad24e	-0.27113575
6	0x3defb55c	0.117045134
7	0x3dea3a27	0.11436873
8	0x3e9813f0	0.2970271
9	0x3bb38aef	0.0054792087
10	0xbe8ef89d	-0.27924052
11	0xbe8e389c	-0.27777565
12	0x3e938a7d	0.28816596
13	0xbe6456f6	-0.22298798
14	0x3d8845f4	0.066539675
15	0x3e0aa897	0.13540874
16	0x3e05f75a	0.13082638
17	0xbc252c06	-0.010081297
18	0xbde77f26	-0.113035485
19	0x3e9e13a1	0.3087435
20	0x3d1eebff	0.038799282
21	0xbeb31c4c	-0.34982526
22	0x3e59e1de	0.21277568
23	0xbded5055	-0.11587588
24	0xbeb43dd6	-0.35203427
25	0x3e72cddb	0.2371134
26	0x3e2a64f7	0.16640078
27	0x3e15a07a	0.14611998
28	0x3db727b8	0.089431226
29	0x3e3f9e95	0.18712838
30	0xbe77e1c8	-0.24207222
31	0xbe45ba30	-0.19309306
32	0x3e025932	0.12729338
33	0xbd27b389	-0.040942702
34	0x3e9f03f1	0.31057695
35	0xbda16efe	-0.07882498
36	0xbd7e65a9	-0.06210867
37	0x3e576443	0.2103434
38	0xbea43cfc	-0.32077777
39	0xbdcb3b05	-0.099233665
40	0x3e01c58a	0.12673011
41	0x3e4b4d77	0.19853769
42	0x3e60417c	0.2189998
43	0x3e92c672	0.28667027
44	0x3e6b2f13	0.22967176
45	0x3e80662b	0.25077948
46	0xbdb40ccf	-0.087915055
47	0x3e2bb8ee	0.16769764
48	0xbcd79fc9	-0.026321309
49	0x3d45426b	0.048159044
50	0x3e0eafba	0.13934222
51	0x3ea65893	0.32489452
52	0x3e0cba78	0.13743007
53	0x3e15427c	0.14576143
54	0xbda9053d	-0.08252952
55	0xbe7ed1a2	-0.24884656
56	0x3e21c0a9	0.1579615
57	0x3da6ab5c	0.08138153
58	0xbc5d2f92	-0.013500111
59	0xbe324976	-0.17410836
60	0xbdd94bd5	-0.10610167
61	0x3cab2fb2	0.020896766
62	0x3e04a802	0.12954715
63	0x3e89f530	0.26944876
64	0xbe916c7a	-0.28403074
65	0xbe0526e3	-0.13003115
66	0x3d9f4730	0.0777725
67	0xbe373bd1	-0.17893912
68	0x3ea9cae1	0.33162597
69	0x3e084cc3	0.13310532
70	0x3e00a6ff	0.12563704
71	0x3ea80ce9	0.3282235
72	0x3ea99dbf	0.33128163
73	0xbe87844e	-0.26468128
74	0xbeb1c8a9	-0.34723404
75	0xbe91d7b6	-0.28484887
76	0xbe4daea1	-0.20086147
77	0xbe269404	-0.16267401
78	0x3eaf38ce	0.34223026
79	0xbde9a026	-0.11407499
80	0x3ecacef4	0.39611018
81	0x3ea6b307	0.32558462
82	0xbd36ae58	-0.04459986
83	0xbcec5efe	-0.02885389
84	0x3e91bfab	0.28466544
85	0x3bd953f4	0.0066323224
86	0x3e6bbf58	0.2302221
87	0x3eada2ae	0.33913177
88	0xbea3e591	-0.32011083
89	0x3ea7647e	0.32693857
90	0x3e65df24	0.22448403
91	0x3c9176ec	0.017756902
92	0xbe5ef95b	-0.21774809
93	0x3e70e8ab	0.23526256
94	0x3e9de146	0.30835932
95	0x3e7e0493	0.24806432
96	0x3e5a16e0	0.21297789
97	0xbe94f8bf	-0.29096028
98	0xbdcd8270	-0.100346446
99	0x3e938cd2	0.28818375
100	0x3e216ee8	0.15764964
101	0xbd00d23a	-0.031450488
102	0x3ea9603a	0.33081228
103	0x3e3b14c4	0.1826964
104	0xbeadeb3c	-0.33968532
105	0x3e3c7e9f	0.18407677
106	0x3d4aa822	0.04947675
107	0x3d6af2ce	0.057360463
108	0x3eaffe51	0.34373716
109	0x3e0c8679	0.13723172
110	0xbe75536a	-0.23957601
111	0x3e7b7e6c	0.24559945
112	0x3ec2c8dc	0.3804387
113	0x3e99b88a	0.30023605
114	0x3e9eb323	0.30996045
115	0x3e86f187	0.26356146
116	0xbe38751f	-0.18013428
117	0xbe13404c	-0.14379996
118	0xbda60233	-0.08105888
119	0x3da08c74	0.07839289
120	0x3e8c53e1	0.27407745
121	0xbe664f00	-0.22491074
122	0xbe1bf95a	-0.15231839
123	0xbe99cc18	-0.30038524
124	0xbe599178	-0.21246898
125	0x3e2f5499	0.17122115
126	0xbe662261	-0.22474052
127	0x3cc39052	0.023872528

linear_relu_stack1.0.bias f4 [16]
0	0x3ddcdcf9	0.10784335
1	0xbe32ecb5	-0.17473109
2	0x3e62a4b1	0.22133137
3	0x3e168d34	0.14702302
4	0xbde9385a	-0.11387701
5	0xbe37b385	-0.17939575
6	0x3b34c56d	0.0027583495
7	0xbdbaaff3	-0.09115591
8	0xbe0ca2df	-0.13734005
9	0x3e236e6e	0.15960094
10	0x3e723eb5	0.23656733
11	0x3e97f825	0.29681507
12	0xbe6f142e	-0.23347542
13	0x3e35bbd9	0.1774744
14	0xbe0843a2	-0.1330705
15	0x3e3b3c7c	0.18284792

linear_relu_stack1.2.weight f4 [16, 16]
0	0x3e5e0cc9	0.21684565
1	0x3dd89b24	0.10576466
2	0xbe52e4e8	-0.20595133
3	0xbe292d9b	-0.16521303
4	0xbdeed3b0	-0.1166147
5	0x3dd4fe54	0.10400072
6	0x3e208582	0.15675929
7	0x3de9f839	0.11424298
8	0x3e57b737	0.21065985
9	0xbe0ff0ad	-0.14056654
10	0x3cfad8a6	0.030620884
11	0xbe34193a	-0.17587748
12	0xbe2fb8d5	-0.17160352
13	0x3dd9ec2f	0.106407516
14	0xbe4ac14a	-0.19800296
15	0xbc5696fe	-0.013097523
16	0xbdb5af12	-0.08871283
17	0xbd34a4e4	-0.044102564
18	0xbdf9be23	-0.12194469
19	0xbdab23c6	-0.083564326
20	0xbd010560	-0.031499267
21	0x3e14d6b5	0.14535029
22	0xbe3b5511	-0.18294169
23	0x3e3906fd	0.18069072
24	0x3c37c35d	0.011216012
25	0x3debe452	0.11518158
26	0x3dae8fde	0.08523534
27	0xbe0c2706	-0.13686761
28	0x3c9136b9	0.01772629
29	0xbd277889	-0.040886436
30	0xbe690490	-0.22755647
31	0xbe1188e7	-0.1421238
32	0xbe288c57	-0.16459785
33	0xbd6b4c38	-0.057445735
34	0x3e3e5613	0.18587522
35	0x3cf4c366	0.02987833
36	0xbe0d671d	-0.13808866
37	0x3e1a7ebe	0.15087411
38	0x3d6e2176	0.05813738
39	0x3e8260b0	0.25464392
40	0xbe198727	-0.14992963
41	0xbe6ddf82	-0.23229793
42	0x3ce870c6	0.028374087
43	0x3de2d38c	0.110755056
44	0xbde23084	-0.1104441
45	0xbcfc2f01	-0.030784132
46	0x3e070c9c	0.13188404
47	0x3e717591	0.23580004
48	0x3d119795	0.03554495
49	0xbe678815	-0.22610505
50	0x3e4166a6	0.18886814
51	0x3e2b1f47	0.1671115
52	0x3c13f3b7	0.009030274
53	0x3c7c5b64	0.015402649
54	0x3e2c5ce8	0.16832316
55	0xbd817fa1	-0.063231714
56	0x3e386b91	0.18009783
57	0x3e4c4bb5	0.19950755
58	0xbe6fac9f	-0.23405693
59	0x3ba803e2	0.005127416
60	0x3c1831e5	0.0092892395
61	0x3de8b456	0.11362521
62	0x3d52de70	0.051481664
63	0xbe6dda99	-0.2322792
64	0xbc26a5f0	-0.0101713985
65	0x3d11dc8e	0.035610728
66	0x3d468156	0.048463188
67	0xbe5ca8a0	-0.215487
68	0xbe5e2b51	-0.21696211
69	0x3da5baf8	0.08092302
70	0x3dea280f	0.11433422
71	0x3e2c71d2	0.16840294
72	0xbe596c05	-0.21232612
73	0x3df6f6e4	0.120588094
74	0xbdaa1252	-0.083042756
75	0xbe11f4ec	-0.14253587
76	0xbc71f100	-0.0147669315
77	0xbe2d4b7d	-0.16923328
78	0x3e026f3a	0.12737742
79	0xbc804fa5	-0.015662977
80	0x3e4ec684	0.20192915
81	0x3db6a12a	0.08917458
82	0xbdbbb377	-0.091650896
83	0xbd7262c7	-0.059176233
84	0x3de03ac2	0.10948707
85	0xbd80275e	-0.06257509
86	0xbd59d93a	-0.05318568
87	0xbe38d884	-0.18051344
88	0xbe46ed4e	-0.19426462
89	0xbace6f7d	-0.0015749779
90	0x3dcafa0a	0.099109724
91	0x3d7b1969	0.06130353
92	0x3db441f5	0.08801643
93	0x3e98e8ba	0.29865056
94	0xbe20524a	-0.15656391
95	0xbe15e756	-0.14639029
96	0x3e7afae6	0.24509773
97	0x3e5421b2	0.20715979
98	0xbe14c294	-0.1452735
99	0x3e894a46	0.2681448
100	0xbe17cb32	-0.14823607
101	0x3e2b26af	0.16713975
102	0x3d50cd12	0.05097682
103	0xbc1d0ec6	-0.009586042
104	0x3e778ee4	0.24175602
105	0x3e3cb810	0.1842959
106	0xbe807f65	-0.25097194
107	0x3e7f0d1d	0.24907346
108	0x3ca73517	0.020411057
109	0x3d3ac0f2	0.045594163
110	0x3da34ca4	0.079736024
111	0xbd82d576	-0.06388371
112	0xbe4f65c3	-0.20253663
113	0x3d707a04	0.058710113
114	0x3ccc6df7	0.02495478
115	0xbda3c4e3	-0.079965375
116	0x3e6dcb16	0.23222002
117	0x3d9f6726	0.07783346
118	0xbddb1a1a	-0.10698338
119	0xbe29d1f4	-0.16583997
120	0x3d6dfd8a	0.05810312
121	0x3db908df	0.09034895
122	0x3dfa4b27	0.122213654
123	0xbe28b832	-0.16476515
124	0xb9ee66fe	-0.00045471633
125	0xbdc3e1c0	-0.09564543
126	0x3e6c6bf8	0.23088062
127	0x3e037f71	0.12841584
128	0x3e80ffca	0.25195152
129	0xbe639866	-0.22226104
130	0x3e07e52b	0.13271014
131	0x3e4ec9a5	0.20194109
132	0x3e3abda4	0.18236405
133	0xbdf6b259	-0.12045736
134	0x3e14384c	0.144746
135	0x3e3aa2e3	0.18226199
136	0x3e022e05	0.12712868
137	0xbe5ea8c9	-0.21744074
138	0xbdf105c8	-0.11768681
139	0x3d4a8699	0.04944477
140	0x3e49f728	0.19723189
141	0xbe33e97a	-0.17569533
142	0xbe37838e	-0.17921278
143	0xbde1ec16	-0.11031358
144	0x3d222e98	0.039595217
145	0x3dc948c0	0.09828329
146	0xbdaa67d4	-0.08320585
147	0xbdeeb8c0	-0.11656332
148	0x3d8469cc	0.06465492
149	0xbd4cbb08	-0.049983054
150	0xbe5c7d72	-0.21532229
151	0xbe72d5aa	-0.23714319
152	0xbe68377e	-0.22677419
153	0x3e0e3058	0.13885629
154	0xbd7f4ef0	-0.06233114
155	0x3e71302e	0.23553535
156	0xbddd34cc	-0.10801086
157	0xbdccef08	-0.10006529
158	0xbdde825c	-0.10864708
159	0xbe1deb3e	-0.15421769
160	0xbe02d1b2	-0.12775305
161	0xbdf7a3a0	-0.12091756
162	0xb7d6d8e7	-2.5611791e-05
163	0x3dfb60ff	0.1227436
164	0x3de2eea6	0.11080675
165	0xbdac7eb3	-0.084226035
166	0xbcd2b7f9	-0.02572249
167	0x3e4756a8	0.1946665
168	0xbe0def33	-0.13860779
169	0xbd103d51	-0.035214726
170	0xbc3be99e	-0.011469273
171	0x3e2af743	0.16695885
172	0xbe6d9b15	-0.2320369
173	0xbe1ab066	-0.15106353
174	0x3e788696	0.2427009
175	0x3e39c271	0.1814058
176	0x3de36733	0.11103668
177	0x3c7b44a0	0.015336186
178	0xbd07cfe9	-0.033157263
179	0x3e1955a6	0.14974079
180	0xbe324fe5	-0.1741329
181	0xbdd5789d	-0.10423396
182	0x3e5daf80	0.21648979
183	0xbe5c16a1	-0.21493007
184	0x3e0050ce	0.12530825
185	0x3c91b3a0	0.017785847
186	0xbe501c14	-0.20323211
187	0xbbdc0cdd	-0.0067154006
188	0xbd66f8f5	-0.056389768
189	0xbdcee10f	-0.1010152
190	0x3dba3eeb	0.09094032
191	0x3e3efa84	0.18650252
192	0xbe04ec1f	-0.12980698
193	0xbd98b9e6	-0.07457332
194	0x3e59b3e0	0.21260023
195	0x3a32aa92	0.0006815578
196	0x3dde13e5	0.10843638
197	0x3dd1ecf5	0.10250274
198	0xbe485693	-0.19564275
199	0x3e4560f2	0.19275263
200	0x3d76bf8d	0.06024127
201	0xbe555d38	-0.20836341
202	0xbb6d6713	-0.0036224767
203	0xbe45cc20	-0.19316149
204	0x3cf002c8	0.029298201
205	0xbdc5a037	-0.09649699
206	0x3e87ade4	0.26499856
207	0x3d35ded7	0.04440197
208	0xbb4c7d0b	-0.003120246
209	0x3d05c60e	0.032659583
210	0x3d576f78	0.05259654
211	0xbdc0b81f	-0.09410118
212	0xbe176b81	-0.14787103
213	0x3dfedc3b	0.124443494
214	0xbdc96525	-0.09833745
215	0xbcb7a53e	-0.02241766
216	0x3e3b2b58	0.18278253
217	0x3d87697b	0.06611916
218	0xbc464a27	-0.01210264
219	0x3e119501	0.14216997
220	0x3c9821ec	0.018570863
221	0x3ccefa3c	0.025265805
222	0xbca3260c	-0.019915603
223	0xbda48efe	-0.08035086
224	0x3e060803	0.13088994
225	0x3dc47c8f	0.0959407
226	0x3dc54960	0.09633136
227	0x3e89338f	0.2679715
228	0x3e033344	0.12812525
229	0x3e5b428a	0.21412101
230	0x3cf3ec0d	0.029775644
231	0xbe4ff365	-0.20307691
232	0x3e65ccdb	0.22441427
233	0x3e760a3c	0.24027342
234	0xbdfe9bd8	-0.124320686
235	0x3cd03c6f	0.025419442
236	0xbe35e688	-0.17763722
237	0x3e83f0c7	0.25769636
238	0xbdfbb120	-0.12289643
239	0xbe2da3f7	-0.16957079
240	0x3dee67ec	0.11640915
241	0xbd933956	-0.0718867
242	0x3d95960b	0.07304009
243	0x3e21bb12	0.15794018
244	0xbdf47926	-0.1193717
245	0xbd945b59	-0.07243986
246	0x3e0c6ad7	0.13712631
247	0x3dbd2311	0.09235204
248	0x3e15d1c0	0.14630795
249	0x3de9e366	0.11420326
250	0xbe0b3afc	-0.1359672
251	0x3e8e5f01	0.27806857
252	0xbe303ce6	-0.17210731
253	0x3d0d7f4e	0.034545235
254	0xbe5263b4	-0.20545846
255	0x3d69cabb	0.057078104

linear_relu_stack1.2.bias f4 [16]
0	0xbe0c8cff	-0.1372566
1	0xbe6c2e65	-0.23064573
2	0x3e53d301	0.2068596
3	0x3e37f985	0.17966278
4	0xbd0b87e0	-0.034065127
5	0x3d18dd74	0.03732057
6	0xbdd8f8ee	-0.105943546
7	0x3d68bb4e	0.056819253
8	0x3d1a1d9b	0.03762589
9	0xbe08304a	-0.13299671
10	0xbe81d9c4	-0.25361454
11	0x3dfa34d9	0.12217111
12	0x3d85e02d	0.06536899
13	0xbe057f3e	-0.1303682
14	0x3cbad639	0.022807227
15	0x3e95ec05	0.2928163

linear_relu_stack1.4.weight f4 [8, 16]
0	0x3e4c8dfe	0.1997604
1	0xbe09883a	-0.13430873
2	0x3e44e20f	0.1922686
3	0xbdcb22bb	-0.09918734
4	0x3d083a00	0.033258438
5	0x3d3cd702	0.046103485
6	0xbdf297d8	-0.11845368
7	0x3d62b102	0.05534459
8	0x3e655dc5	0.22399051
9	0xbe2b13a6	-0.16706714
10	0x3ac423eb	0.0014964318
11	0x3dec7232	0.115452185
12	0x3e700727	0.23440228
13	0xbca8a17a	-0.02058481
14	0xbe2db9ab	-0.16965358
15	0xbc7e4131	-0.0155184725
16	0x3e5d33dc	0.21601814
17	0x3e3c92f0	0.18415427
18	0xbe37121a	-0.17877999
19	0x3e3c29b2	0.1837528
20	0x3e27945c	0.16365188
21	0x3e8aee90	0.27135134
22	0x3e69f01a	0.22845498
23	0xbe7ddbc7	-0.2479087
24	0x3d8fdfbf	0.07025098
25	0xbd00bc88	-0.031429797
26	0xbdf9253c	-0.12165305
27	0x3df2bb78	0.11852163
28	0xbdfdcc23	-0.123924516
29	0xbe14e185	-0.14539154
30	0x3e8add68	0.27122045
31	0x3e848853	0.25885257
32	0xbe5186b5	-0.20461543
33	0x3e5a46be	0.21316049
34	0xbe1941b1	-0.14966466
35	0xbe4726a3	-0.19448332
36	0xbdbb48ac	-0.091447204
37	0x3d20dd73	0.03927369
38	0xbd428384	-0.047488704
39	0x3d2159bd	0.03939222
40	0x3e566f95	0.20941003
41	0x3ddaae9c	0.10677835
42	0xbe54405f	-0.2072768
43	0x3e80ac04	0.25131238
44	0xbe6a84d0	-0.22902226
45	0x3e630758	0.2217077
46	0x3e29a6a6	0.16567478
47	0x3e87ebff	0.26547238
48	0x3e20d549	0.15706362
49	0x3cf173c2	0.029474143
50	0x3d5fa020	0.054596066
51	0xbe38f428	-0.18061888
52	0x3e109634	0.14119798
53	0x3e361d5e	0.1778464
54	0xbc5c8fe8	-0.013462044
55	0x3da3c469	0.07996447
56	0x3cc49139	0.023995029
57	0x3e13d886	0.14438066
58	0xbe38deb0	-0.18053699
59	0x3dba80cd	0.09106598
60	0xbe6ef432	-0.2333534
61	0xbdfadcc1	-0.12249137
62	0xbc4cadcf	-0.012492611
63	0x3e4240a1	0.18969966
64	0x3d944e46	0.07241492
65	0x3e128964	0.14310223
66	0x3dda01ed	0.106448986
67	0x3c4e19d4	0.0125794
68	0xbd44ca50	-0.048044503
69	0x3d043894	0.03228052
70	0xbe2df42f	-0.1698768
71	0xbe773bbc	-0.2414388
72	0xbe080d88	-0.13286412
73	0xbe03c02c	-0.12866277
74	0x3df0ecf8	0.11763948
75	0x3da36772	0.07978715
76	0x3da08d68	0.07839471
77	0xbd087744	-0.033316866
78	0x3d73a813	0.05948646
79	0xbd1f53b6	-0.038898192
80	0xbe47a66d	-0.1949708
81	0xbe310a17	-0.17289005
82	0x3e508b6e	0.20365688
83	0xbe17ab45	-0.14811428
84	0x3e113819	0.14181556
85	0xbe46bb22	-0.19407323
86	0xbd0e975d	-0.03481232
87	0x3e094edf	0.13408993
88	0xbe3b250d	-0.18275853
89	0x3e4725b2	0.19447973
90	0x3cfab89c	0.030605607
91	0xbe6bfb5a	-0.23045102
92	0x3e8c064b	0.2734855
93	0xbe2a46d3	-0.1662858
94	0xbe0da43c	-0.13832182
95	0xbde6e6d5	-0.112744965
96	0xbe416bce	-0.1888878
97	0x3e2f70cb	0.17132871
98	0xbe1b6091	-0.15173556
99	0x3e155eac	0.14586896
100	0x3e37a785	0.17934997
101	0xbd402960	-0.04691446
102	0x3d0e592c	0.03475301
103	0x3e5b91ab	0.21442287
104	0xbd8b43f9	-0.06800074
105	0x3d3a6180	0.04550314
106	0x3d8e8a5b	0.06959983
107	0x3e2ccfa0	0.16876078
108	0x3bbb5a3a	0.005717543
109	0x3e28f471	0.16499497
110	0xbe12ef06	-0.14348993
111	0xbe4a8f55	-0.1978124
112	0x3cef3fb8	0.029205188
113	0xbe6df06f	-0.2323625
114	0x3cfa948a	0.030588407
115	0x3e7fc6a6	0.24978122
116	0x3dd545b5	0.10413686
117	0x3e68b045	0.22723491
118	0x3e805d4c	0.2507118
119	0xbcbd3abe	-0.0230993
120	0x3d73a8e1	0.059487227
121	0xbdd9f1d8	-0.10641831
122	0xbd35f96e	-0.044427328
123	0xbe79a6a2	-0.24379972
124	0x3e11a844	0.14224344
125	0x3e336056	0.17517218
126	0xbdad49bb	-0.084613286
127	0x3e61f73e	0.22066972

linear_relu_stack1.4.bias f4 [8]
0	0xbdacec0e	-0.08443461
1	0xbd84cb97	-0.06484144
2	0xbe3af6f8	-0.18258274
3	0xbdd2ea39	-0.10298581
4	0xbe1e363e	-0.15450379
5	0x3dc31fab	0.095275246
6	0x3dc77428	0.09738952
7	0x3c6b2c32	0.014353799
