NQE/results/NQEClassifier/fashion/1exp/model.pt (torch, 4295 bytes, 6 tensors)

linear_relu_stack1.0.weight f4 [16, 8]
000000 4a d4 f6 bd 8b 01 07 3e 17 68 40 3e 25 a0 e6 bd
       -0.1205221 0.13184182 0.18789707 -0.11261014
000010 da bd c2 bd 37 19 48 3e b5 f6 86 3e 37 db d9 bc
       -0.095088676 0.19540869 0.26360098 -0.026593788
000020 95 1e 14 3d 09 0e 81 3d 2a fa 37 3e 35 4d 26 3e
       0.036161978 0.06301505 0.17966524 0.1624039
000030 60 0d f6 bc 1a bc 92 3e ef 61 d4 3e 3d 48 96 be
       -0.030035675 0.28659135 0.41480967 -0.29351988
000040 b5 e1 aa 3d 59 bd d1 3e a8 dc 5c be 35 82 98 be
       0.083438314 0.40964773 -0.21568549 -0.2978684
000050 7e 03 ef 3d ad 96 66 3e 79 b0 29 be 8b 0e 61 3d
       0.11670588 0.22518416 -0.16571225 0.05494551
000060 f8 40 8c be 89 3b d7 bb d1 8a b0 3e 33 8b 5f be
       -0.27393317 -0.0065683764 0.3448091 -0.21830444
000070 61 a0 57 be 03 d4 75 3e 87 76 62 bd 75 6f 63 3e
       -0.21057273 0.24006657 -0.055288818 0.22210486
000080 e3 f8 80 be d7 a7 61 3e b5 0c 85 3e 00 3e 93 3c
       -0.25189885 0.22036682 0.25986257 0.0179739
000090 8c 0b 66 3e 00 6c 3b be 08 58 05 be 41 00 bb 3d
       0.22465342 -0.18302917 -0.13021863 0.09130908
0000a0 0a fe 5e be 17 e2 ad 3d c1 5c b5 be d8 75 78 3e
       -0.21776596 0.08490389 -0.35422328 0.24263704
0000b0 d9 89 6c 3d 69 4e d6 bd 54 8e 18 be 04 36 8c 3e
       0.05774865 -0.10464174 -0.14898044 0.2738496
0000c0 96 f9 b9 3e 83 cc 4e 3d 9d 54 5c be 85 14 10 3e
       0.3632323 0.050488006 -0.21516652 0.14070328
0000d0 b1 0d 72 be 89 dd 80 3d aa a3 5e be 0b 14 09 bd
       -0.23638035 0.062922545 -0.2174212 -0.03346638
0000e0 fa 51 5e be 1f a1 c4 bc 8f fc 29 be b9 57 ac 3c
       -0.21710959 -0.02400261 -0.1660025 0.021037923
0000f0 a4 fd 6e 3d 7b dd 71 3e de d8 b3 3b 69 41 75 be
       0.05834736 0.23619644 0.005488499 -0.23950733
000100 c5 83 a5 3e 14 dd 81 3e 58 9d 8c be bb 3e 9e be
       0.32327095 0.25363982 -0.27463794 -0.30907235
000110 33 93 c8 3e 2a 9a a7 3e dc 55 83 3e 0f f9 7b be
       0.39174804 0.32734805 0.25651443 -0.24606727
000120 f4 a9 02 be 5c a3 58 3d 2f 4b c3 3e a8 dd 36 3e
       -0.12760144 0.052890167 0.38143298 0.17857993
000130 00 75 a3 bd c2 c3 b6 3e 55 fa 33 3e a7 43 17 be
       -0.079813 0.35696226 0.17575963 -0.14771901
000140 ce 57 74 be 82 ea b6 3c 11 44 c1 3d 0f e4 f2 3e
       -0.2386162 0.022328619 0.09436811 0.4743962
000150 1b 25 81 3e ce ae 50 3d dc 05 94 bd c2 31 8e 3e
       0.25223622 0.050947957 -0.0722768 0.27772337
000160 e2 6c 45 3d d0 d0 b2 3d 72 48 60 be 70 73 c6 3d
       0.048199542 0.08731234 -0.21902636 0.09689987
000170 01 c7 a4 3e 9a 67 12 3e 00 15 97 3e fb 65 8a 3e
       0.32183078 0.14297333 0.2950821 0.2703093
000180 94 6c 8c 3c 35 ac a2 3e 8d b9 15 bd 2f f7 81 bd
       0.017141618 0.3177201 -0.03655391 -0.06345975
000190 70 7a ab 3e 52 c1 9b 3d 33 f8 78 3e 7c 5b 00 3e
       0.3349185 0.07605232 0.2431343 0.12534899
0001a0 09 81 76 3e fb c5 2a be ab ce 96 bd 4c 79 9d be
       0.2407266 -0.16677086 -0.073636375 -0.30756605
0001b0 7e bb b2 bd d1 cd f4 3d 02 ec 8c be e5 12 33 be
       -0.087271675 0.11953319 -0.2752381 -0.17487676
0001c0 4f ae df bd eb 53 43 be 0a 46 49 3e 86 2e 87 bd
       -0.109219186 -0.19074981 0.19655624 -0.066006705
0001d0 f9 2e e1 3d a6 51 a9 bd 9e fd 27 3d c2 39 90 be
       0.109952874 -0.08267526 0.041013353 -0.28169066
0001e0 b4 62 e3 3d a7 13 87 be c6 32 6e bd c5 af 52 3e
       0.111028105 -0.2638218 -0.05815389 0.20574863
0001f0 c8 63 72 be f3 eb b6 3e 80 67 2c be 8b 55 22 3e
       -0.23670876 0.3572689 -0.16836357 0.15852945

linear_relu_stack1.0.bias f4 [16]
000000 b2 8a fa 3c 47 95 d0 bd d0 f6 39 be 0e 49 e1 bd
       0.030583713 -0.101847224 -0.18160558 -0.11000262
000010 5a b7 8d bd 5a 22 81 be ec 04 d3 bd 03 8e fe 3d
       -0.06919737 -0.2522152 -0.10303673 0.1242943
000020 5a a7 25 be ff 57 83 3e c9 60 70 be 43 bc 9d be
       -0.16177121 0.25653073 -0.2347442 -0.30807695
000030 0f 8c 83 3e 34 c4 ac 3e 5a 12 93 be 7e 46 fd bd
       0.25692794 0.3374344 -0.2872494 -0.12366961

linear_relu_stack1.2.weight f4 [16, 16]
000000 65 88 3f be 50 10 27 be b5 99 29 3e a8 00 17 3e
       -0.18704374 -0.16314816 0.16562541 0.14746344
000010 af c7 fc 3d 0c f2 86 be 88 aa 30 3e aa 42 31 bd
       0.12342774 -0.26356542 0.17252553 -0.043276466
000020 f3 76 a5 3e be 47 1d be f1 43 09 be 6e 46 da bd
       0.32317314 -0.15359399 -0.13404824 -0.10657965
000030 ad e5 87 3e ba 6f 2e 3e 52 5a 2a 3e 28 20 18 3e
       0.26542416 0.17034808 0.16636017 0.14856017
000040 b3 fc 04 bd dc ac cd bd fb 4a 7c 3c 39 7d 06 3e
       -0.032467555 -0.10042736 0.015398736 0.13133706
000050 8b a6 9f bd 02 ac 06 be 2d 14 0b 3e df 78 69 3e
       -0.077954374 -0.13151553 0.13581915 0.22800015
000060 ca d3 39 3e 5f ee 5b 3d 32 db 04 3e b3 f6 73 3d
       0.18147197 0.053694125 0.12974241 0.059561443
000070 7c 33 77 be 80 7a 86 bd 1e 8f ee 3d 88 03 40 bd
       -0.24140733 -0.06566334 0.11648391 -0.046878368
000080 27 94 5d bd 3c 60 18 3e 7c 64 35 3e 92 25 b0 3c
       -0.054096367 0.1488046 0.17714113 0.02150229
000090 01 96 11 bd af 95 08 3e 94 ed 63 3e 31 4d 91 3d
       -0.035543445 0.1333835 0.22258598 0.07094801
0000a0 4b d4 29 3e e3 82 ba 3d 5f c7 b0 3d 9f 9a 9c bd
       0.1658489 0.09106996 0.08631777 -0.07646679
0000b0 cf 98 54 bb f2 26 88 bd 62 aa 68 3e 1a a7 be bd
       -0.0032439714 -0.06648053 0.22721246 -0.09309216
0000c0 30 88 20 bd bc f0 76 3e 11 52 0e 3d 25 0e 24 bd
       -0.03919238 0.2411527 0.034746233 -0.04005255
0000d0 c6 60 85 be c0 d7 19 be f7 8a 7f be 03 aa 3c be
       -0.26050395 -0.15023708 -0.24955355 -0.1842423
0000e0 2e 00 9c bd 16 ea aa 3d cd a2 a8 39 17 31 93 3d
       -0.07617222 0.083454296 0.00032164753 0.071870975
0000f0 27 40 38 3e 07 14 18 be 06 a1 44 be 2a 36 47 be
       0.17993222 -0.1485139 -0.1920205 -0.19454256
000100 66 ef 90 bd e8 ac b6 bd f6 eb 8f 3e f9 5d 9d bd
       -0.07076912 -0.08919698 0.2810971 -0.076839395
000110 ae a8 93 3e 5f 41 75 be 34 49 93 bd da 1f d5 3d
       0.2883963 -0.23950718 -0.07191697 0.10406466
000120 24 7b 43 3e af 14 bd bc b2 81 1d be 22 2a 61 3d
       0.19089943 -0.023081152 -0.15381506 0.05497182
000130 4c 80 3e 3e 06 b8 b3 bd 40 04 a7 3d a4 cd 55 bd
       0.18603629 -0.08775334 0.081551075 -0.052198067
000140 5f c6 0b be 7e 27 fc 3d 37 ca a1 be cf 7c 28 3d
       -0.13649891 0.1231222 -0.3159959 0.04113465
000150 a8 65 37 be ab 24 1c be 8f da 83 be 0c 9a ef bd
       -0.17909873 -0.15248363 -0.25752684 -0.11699304
000160 41 24 93 bc 0c b2 a7 3e b9 39 32 3e 34 0d 06 bd
       -0.017961623 0.32753026 0.17404832 -0.032727435
000170 94 c8 09 3e 7c c4 78 be 20 2e 58 be 21 18 68 3e
       0.1345542 -0.24293703 -0.21111345 0.22665454
000180 33 ea 6a be 25 ef 3f 3e aa ec 55 be 02 77 fa 3d
       -0.22940902 0.1874357 -0.20891061 0.1222973
000190 0e ed 84 3d 70 e9 2f 3e 02 a8 51 3e b6 90 c5 bc
       0.06490527 0.17178893 0.20474246 -0.024116855
0001a0 9e 03 3d bd 43 05 8a bd 1f f8 9e bc 0c 69 32 3e
       -0.046146028 -0.06739285 -0.019405423 0.17422885
0001b0 c9 29 6a 3e 84 f3 b7 bd ec 31 11 3e 6f 3b 58 3e
       0.22867502 -0.08981994 0.141792 0.21116422
0001c0 8a 90 1d 3e 37 9b 8c 3e 5d ad 21 3e 37 c5 29 bd
       0.15387169 0.2746217 0.15788789 -0.041447844
0001d0 71 a6 88 3d 21 d0 8e 3e b0 42 82 be c9 66 03 be
       0.06672371 0.27893165 -0.25441504 -0.12832178
0001e0 64 22 06 be 8e b8 87 3e 34 72 2d 3e 16 ee 81 3e
       -0.13099056 0.26507992 0.16938096 0.25376958
0001f0 c0 62 47 be 48 6a 09 be b6 d8 67 bd 75 d8 19 3e
       -0.19471264 -0.1341945 -0.056603156 0.15023978
000200 6e c3 2b 3e d0 3b ad bd 48 4f 25 bd 78 80 d4 bd
       0.1677377 -0.08458674 -0.04035881 -0.10376066
000210 4c 7f be bd e0 30 5d 3c e0 52 40 be 88 dc 44 bd
       -0.09301624 0.013500422 -0.18781614 -0.048061877
000220 2a 08 2b 3e 80 0a 4e bc 78 30 f2 3d 8c be 46 be
       0.16702333 -0.012575746 0.11825651 -0.19408625
000230 dc 5a e0 bd 94 6e 4b be 94 06 cf 3d 88 a0 36 bd
       -0.1095483 -0.19866401 0.101086766 -0.04458669
000240 d2 fb 0b 3e f4 c2 36 3d 6b 67 14 3e 8f 27 49 bc
       0.1367028 0.044619516 0.14492576 -0.012277498
000250 ac 7d 83 3e 7b 61 1e be de 1f 5c 3e 50 5a 9e 3d
       0.25681818 -0.15466873 0.21496531 0.077320695
000260 5c ff 28 3e e7 95 d7 3d ff 49 34 be 14 03 69 3e
       0.16503662 0.105266385 -0.17606352 0.2275508
000270 df a5 3f be dd cb 88 3e e7 be de bb 2a fe cd bd
       -0.18715619 0.26718035 -0.0067976597 -0.100582436
000280 48 83 ef 3d fa 26 1f be dd af 6c 3e c8 0b dd 3d
       0.11694962 -0.15542212 0.23113962 0.10793263
000290 20 75 06 3c 10 92 73 be be 3a 03 3c 70 38 85 3d
       0.008206636 -0.23786187 0.008009611 0.06504905
0002a0 f9 08 a0 bd 23 4e c8 bd 04 ee 4f 3e e3 f6 09 be
       -0.078142114 -0.097805284 0.2030564 -0.13473086
0002b0 b8 ea 5c be 16 a6 37 3e 4a 95 6f be 0d 33 fb bd
       -0.21573913 0.1793445 -0.23396793 -0.122655965
0002c0 20 00 29 bd 7a e6 42 3e 70 d0 44 be 32 cd 4b 3e
       -0.041259885 0.19033232 -0.19220138 0.19902495
0002d0 e0 1e 07 3c 7a 63 59 3e e0 e1 e4 bc fc a4 94 3d
       0.008247107 0.21229354 -0.027939737 0.07258031
0002e0 94 d6 43 be f4 6e 2d be 7e 41 29 be f6 24 75 3e
       -0.19124824 -0.16936857 -0.1652889 0.2393988
0002f0 3e 5d 31 be e4 68 92 3d 94 05 52 3e e0 61 0a bc
       -0.17320725 0.071489125 0.2050994 -0.008446187
000300 61 0d 2b be 54 5b ec bd 00 af 36 be d8 52 98 bd
       -0.16704322 -0.11540857 -0.17840195 -0.07437676
000310 8c 6f b3 bd 36 3b 0c 3e 82 4d d5 bd 08 4e 53 3d
       -0.0876151 0.13694462 -0.10415174 0.05158809
000320 60 ea 02 be 36 be 7f 3e 63 6b 33 be c9 09 4c 3e
       -0.1278472 0.24974903 -0.17521434 0.19925608
000330 2b 6b 81 bd 82 6e 60 be 2a 76 62 3e 5a ab 2c be
       -0.06319269 -0.21917155 0.22115389 -0.1686224
000340 f4 33 51 3e 66 b6 75 3c d3 97 57 3e c7 d3 f5 bb
       0.20429975 0.0149971 0.2105401 -0.0075020525
000350 5c ea 1d 3e fa 50 f9 3d ec 87 ed 3d 51 09 8a bc
       0.15421432 0.12173648 0.11598191 -0.016850146
000360 74 75 a8 3d 82 8f 70 be 48 7c 6a be c4 3a d1 3d
       0.082255274 -0.23492244 -0.22898972 0.10216287
000370 c8 b5 2b be c7 b4 07 3c c2 95 1a be c8 72 89 bd
       -0.16768563 0.008282847 -0.1509619 -0.06711346
000380 30 b5 3c 3e 04 f5 c1 3d 5f e3 16 3e 42 ab 1d be
       0.18428493 0.09470561 0.14735173 -0.15397361
000390 98 3d 12 be c6 48 45 3d 71 d5 5f be 37 2c 86 3d
       -0.14281309 0.048165105 -0.21858765 0.06551402
0003a0 72 e3 32 3e 3b 47 6c be 81 8b b9 bd 79 d4 9f bd
       0.17469576 -0.23074047 -0.090598114 -0.07804198
0003b0 18 75 2f 3e 38 86 1f 3e 4a 44 7b be df 49 57 3e
       0.17134511 0.15578544 -0.24537769 0.21024273
0003c0 62 43 17 3c 70 5f 62 bc eb 10 36 bc db fe fa bd
       0.009232374 -0.013816699 -0.011112432 -0.12255641
0003d0 95 0c 0c be d3 be ae 3d 08 e8 bc bd 3a ac 0b bd
       -0.13676675 0.085324906 -0.09223944 -0.034099795
0003e0 2f 75 6e 3e a7 ab 47 3e 30 d9 bb 3d 78 4a fd ba
       0.2328689 0.19499074 0.091722846 -0.0019324562
0003f0 16 84 72 3e 26 0f 07 3d 50 76 73 3e 2e 6f 75 3c
       0.236832 0.03297343 0.23775601 0.014980121

linear_relu_stack1.2.bias f4 [16]
000000 2e f7 ed 3d 23 dd d8 3d 16 43 6c be f2 95 7d bb
       0.116194114 0.105890535 -0.23072466 -0.003869411
000010 bf 46 6f 3d 36 21 40 be 2a 54 87 bd 56 fe 08 bd
       0.058417078 -0.18762669 -0.0660785 -0.03344568
000020 40 22 87 3d e9 3e bd 3d 11 b6 1f 3e f4 01 10 be
       0.065983295 0.09240515 0.15596797 -0.14063245
000030 7f c5 28 be 97 ee 24 3e 3f 20 48 3d 3d ab a4 3d
       -0.16481589 0.1610664 0.048858877 0.080404736

linear_relu_stack1.4.weight f4 [8, 16]
000000 72 0c f8 bd 56 ab 75 be 00 5e 8f bd eb af 5a be
       -0.12111749 -0.2399114 -0.07000351 -0.2135617
000010 c1 b4 4f 3b 7b 7c 6e be 84 02 c8 bd cf eb ce bc
       0.003169343 -0.23289673 -0.09766105 -0.025258927
000020 8c cb d7 bd 84 88 85 3e 81 84 36 be 90 30 99 bc
       -0.1053687 0.26080716 -0.17823984 -0.018699914
000030 e0 51 30 be 49 ae 97 3d d7 5b 34 be 6f 4d 48 3e
       -0.17218733 0.07406289 -0.17613159 0.19560789
000040 a6 78 ac 3d b2 d0 91 3d 07 55 10 3e 19 7e 62 be
       0.08421449 0.071198836 0.14094935 -0.22118415
000050 73 ff 90 3d a5 89 96 be 4e 8f 39 bc aa f9 d5 bd
       0.07079973 -0.2940189 -0.01132567 -0.1044801
000060 60 4f 51 3c 71 17 7f 3e 68 c1 83 3d e0 f7 b7 bc
       0.012775272 0.24911286 0.06433374 -0.022457063
000070 b3 ab 3d be 43 bf 27 bd d4 e3 dd 3c 9e 8b 22 3e
       -0.1852253 -0.040953886 0.027086176 0.15873572
000080 18 08 49 be 2d 29 86 3d 4f 50 38 3e 56 a3 b0 3d
       -0.19631994 0.065508224 0.17999385 0.08624904
000090 e2 3b 19 bb ab 8c 67 3e bc 61 c1 bd 3e 51 5a be
       -0.002338164 0.22612254 -0.094424695 -0.21320054
0000a0 20 fe 32 bd 75 c9 4f be 9b 45 21 3e c2 98 44 3e
       -0.043699384 -0.20291694 0.15749209 0.19198897
0000b0 10 db 4a be 29 f5 73 3e 29 c9 34 3e 81 a8 44 3d
       -0.19810128 0.2382399 0.17654862 0.04801226
0000c0 a2 86 84 3d ef df 6f 3d 41 6a 1b 3d 4b 0d 84 bd
       0.06470992 0.05856317 0.03794313 -0.06447848
0000d0 3b 8f 6c bc 97 d0 8a 3e 32 65 67 3d e7 44 24 be
       -0.014438446 0.27112266 0.05649299 -0.16041909
0000e0 54 57 ad 3d 1a 1d 05 be e6 ff 05 3e 44 56 a7 3d
       0.08463922 -0.12999383 0.13085899 0.08170751
0000f0 4a 2f 5d be ab c2 11 be a6 b3 45 be 86 5a 9b 3d
       -0.2160007 -0.14234416 -0.19306812 0.07585625
000100 ed c2 b2 be 1c d1 71 bd ca b6 7e be 1f e9 68 3e
       -0.34914342 -0.059037313 -0.24874416 0.22745179
000110 6d b5 99 be e8 5b 5d 3e b2 b2 21 3e 04 5c 54 3e
       -0.3002123 0.2161709 0.15790823 0.20738226
000120 88 f6 70 3e 81 5a f7 b9 96 bb ee 3c a0 a2 6d 3c
       0.23531544 -0.00047178942 0.029142182 0.014504105
000130 ca 35 a4 3c c2 60 c3 3d 22 65 2c 3e 9d 07 b4 bd
       0.02004518 0.095399395 0.16835454 -0.087905146
000140 e8 20 81 3e 1b 24 30 3b 5d d4 13 be 0b 24 71 bd
       0.25220418 0.002687699 -0.14436479 -0.058872264
000150 21 e0 18 3a 62 60 ae bd 94 c4 e9 3d ce e8 69 3d
       0.00058317377 -0.08514477 0.114144474 0.057106785
000160 1c 34 32 be 3a 9c 80 3e 09 e0 23 3e b0 50 1f 3d
       -0.1740269 0.2511919 0.16003431 0.03889531
000170 67 17 77 3e 20 dd ac bd bc d9 90 bd a3 13 a6 bd
       0.24130021 -0.08440614 -0.070727795 -0.08109214
000180 8a f1 59 be 46 cb b2 bd 7a db 26 bc ca fb ed bd
       -0.21283546 -0.087301776 -0.010184163 -0.116202906
000190 fe e1 51 be 7e d0 54 3e d3 d9 8e bd a1 1d 8e 3e
       -0.20496365 0.20782658 -0.069751404 0.2775698
0001a0 28 b7 d7 bd 75 4e bd bd 69 be 06 3e f0 ee 77 3e
       -0.10532981 -0.0924348 0.13158573 0.24212241
0001b0 95 9b f6 3c 8f 44 8f bd e1 21 1a bd 2c 0d 19 3e
       0.030103484 -0.069954984 -0.037629966 0.14946431
0001c0 4b 99 5c 3e a1 03 bc 3d 02 90 4a be 7b a6 19 bd
       0.21542852 0.0918038 -0.19781497 -0.037512284
0001d0 ca c6 af 3d 18 42 df 3d 6d 60 3c 3c 9e 19 64 be
       0.08582838 0.10901278 0.011497599 -0.22275397
0001e0 9c f1 65 be 56 91 d5 3d 16 2e 33 bd 40 92 ad 3b
       -0.22455448 0.10428111 -0.043745123 0.0052969754
0001f0 dc 7a 71 bc 2b 7d 12 bd a7 93 78 3e 76 4c 11 3e
       -0.014738765 -0.0357639 0.24275075 0.14189324

linear_relu_stack1.4.bias f4 [8]
000000 de 10 c5 3d 0a 03 af 3d 4b 57 81 3d 51 41 1d be
       0.09622358 0.085455015 0.06315478 -0.15356947
000010 b3 5f e9 bd 96 ee 03 be 08 c1 35 3d 65 46 48 be
       -0.11395206 -0.12883982 0.044373542 -0.19558103
